model/LDD/best_digit_model.pth (torch, 230412 bytes, 32 tensors)

features.0.conv.weight f4 [8, 1, 3, 3]
00000000: 1d4b 913e 13f7 923e 6630 c2bd 7765 ac3e
00000010: 31b4 7fbd 0a54 073d 5bb2 0cbe 2ea5 3e3e
00000020: 5a58 853e 6345 8bbe 4556 8f3e d1a2 9a3d
00000030: 283f 613e 6ea0 e13c dcc1 0b3e d215 81bd
00000040: 140c 9b3e 5406 1a3d e8f1 3ebe 5bad 263d
00000050: 0bea 2fbe 7156 bcbd 1df8 36be 57c0 503e
00000060: fc62 67be 9d6f 02be 06aa c6bd 79e0 27be
00000070: 4902 2b3d 03ef 9cbe ade6 a33e c9d5 94be
00000080: 741d 893e 72fa 4a3d c9fc 02be e22d 583e
00000090: a528 ed3c 3c4e 723e 494c af3b 84b4 bbbd
000000a0: 34c1 083e 0039 96bd bd5a 1b3e 6633 b23e
000000b0: efa1 4d3e 8c7b 02be 66f0 6e3e 1de2 af3d
000000c0: 8cbd 323e 289d 39be 99c9 a6be eb79 0dbe
000000d0: 077d 83be 2575 853e 6135 a33d 9822 0d3e
000000e0: 1073 cc3d 60a1 babb a7f1 8c3e 27b6 6dbe
000000f0: 4db6 e03c be12 67be 0c75 d03d 0162 d1bd
00000100: ef64 c63d 0a5d 45bd f9b0 893e 535e 62be
00000110: 8ac3 43be 277b 55be 005d 953e 78f6 083e
0.2837762 0.28704128 -0.094818875 0.33671162 -0.062427703 0.03303913 -0.13739912 0.18617699
0.2604397 -0.27201375 0.27995506 0.07550586 0.21996748 0.02754232 0.1364817 -0.0630299
0.30282652 0.03760369 -0.18646967 0.04069267 -0.17179124 -0.09196175 -0.17868085 0.20385872
-0.22596353 -0.1273789 -0.09700398 -0.16394223 0.041750226 -0.306511 0.3201193 -0.29069355
0.26780283 0.04955525 -0.12791742 0.21111253 0.028950045 0.23662657 0.00534967 -0.0916529
0.13354951 -0.07335091 0.15171333 0.3480484 0.20081304 -0.12742442 0.23333892 0.085880496
0.17455119 -0.18126357 -0.32575682 -0.1381604 -0.25681326 0.26065937 0.079691656 0.13782728
0.09982884 -0.005695507 0.27528116 -0.23214017 0.027430678 -0.22565743 0.10178575 -0.10223771
0.0968722 -0.048184432 0.26892832 -0.22106294 -0.19117561 -0.2084776 0.29172516 0.1337527

features.0.conv.bias f4 [8]
00000000: 605d a23e ec01 8bbe 0563 a0be 4f11 8cbe
00000010: 28c6 4fbe 643f 133e c705 dc3d d53c 9b3e
0.31711864 -0.27149904 -0.31325546 -0.27356955 -0.20290434 0.1437965 0.107432894 0.3031985

features.0.bn.weight f4 [8]
00000000: 37ed 773f f6a7 863f 8f3b 753f d6b0 803f
00000010: 59ba 7c3f 6428 723f 2bbe 7a3f 3dcd 873f
0.96846336 1.0520008 0.95794004 1.0053966 0.98721844 0.9459288 0.97946423 1.0609509

features.0.bn.bias f4 [8]
00000000: bafe 8abd 653c 4abd 32d3 f0bc 1e6c 4a3b
00000010: 5680 8bbd a1d3 fdbb cc91 9abd 591e b3bc
-0.067868665 -0.049374003 -0.02939758 0.0030887197 -0.068115875 -0.0077461754 -0.0754734 -0.021865057

features.0.bn.running_mean f4 [8]
00000000: 6ce8 413e 21a8 b8be bc4d 61be 1c91 8abe
00000010: 5685 9ebe 349b 363e 290a 9a3d 5ef6 973e
0.18936318 -0.36065772 -0.2200231 -0.27063835 -0.30961102 0.17832643 0.07521469 0.2968015

features.0.bn.running_var f4 [8]
00000000: b966 943e d2e7 2d3e ef55 333e e8fd 8f3c
00000010: 714d 6d3e a6f9 113d 8774 f73c 6248 dc3b
0.2898462 0.16982964 0.1751325 0.017577127 0.23174073 0.035638474 0.030206932 0.006722496

features.1.conv.weight f4 [16, 4, 3, 3]
00000000: 9ef3 eabd a38e babd 2779 af3d 11fa 82bd
00000010: 9eb5 f13d 8616 a1bc 7139 023e ac04 e1bd
00000020: 1c51 9dbd 8c8e 533d 27a3 483d 29a1 0dbd
00000030: bca3 083e b806 133e fb89 fdbd 1f3a 85bd
00000040: bd1e 353e 3a6d a7bd f1eb 91bb cec9 ccbd
00000050: 82ce eabc e237 9b3d 31f2 d03c 513f 92bd
00000060: 4dc5 743d 5b7f 75bd 40f0 a7bd f99c 93bd
00000070: d80f 1ebe 3f3e a7bd e94e 353e 2db6 343b
00000080: 3452 9f3d fe31 47be 1a5d 1abe 893f 00bd
00000090: 4940 723d 908a 0abe 8151 1dbd 7e3d 97bd
000000a0: a8d2 9dbc e3a2 76bd 464b 573c d4c7 08be
000000b0: fd76 c4bd 77a5 86bd 9747 89bd 221b bebd
000000c0: 0660 203e 870f a7bd fe74 2b3e beb9 803d
000000d0: 92f2 2dbe 7fe2 1d3e b401 cebc 56f1 6abd
000000e0: a193 13be ed0a 0ebe 7563 5d3d 642b 36bd
000000f0: d358 ae3d e8d0 fabd 6fb1 d83d 18a6 15be
00000100: 18ea ebbc 4b3d 073d 5454 4c3d 2df8 d93d
00000110: 820c 073e 2072 12be 1693 bc3d c696 83bd
00000120: 5951 413a f549 cabd 2a1d 343e 7881 c9bd
00000130: 95bc d43d 6e53 6e3d dd74 bc3d 1561 c8bd
00000140: 8f31 ea3d 2543 a43d 1700 433d 8c98 09be
00000150: 649f cd3d d26e 88bc 44de acbd b0d3 233e
00000160: ae1c 3a3d 188b f3bd 3686 8cbd c9e2 473c
00000170: da70 dd3d d48e 24bd 3f58 95bd 3172 48bd
00000180: 01e7 dfbd ae12 a03d aaf3 1d3e 3b53 26be
00000190: ecc1 7b3d 51b7 ea3d a2b0 88ba 9330 75bd
000001a0: e19c ab3d 1f62 2e3d 3d48 233d caa0 6dbc
000001b0: 5252 37bd 21dd 173d 6f5a b3bc e24a 49bd
000001c0: bd02 ff3d 1550 1b3e cf56 50bc 65c5 06bb
000001d0: 5efb 153d e8b0 11bd 17d9 8b3d 9901 593d
000001e0: 685c 41be eb6e 18bd f199 1f3e 857d 363d
000001f0: 7150 af3c 1537 7fbd 1c30 d9bd 1b4c cbbd
00000200: 09dd 153c ab9b b53d 65aa 2e3e 607d 0a3e
00000210: a5a0 c5bd 000c 07bd 59a0 34bc 7371 073e
00000220: 70bc fa3a a0f8 a2bd ae8b a63d b718 9cbd
00000230: dc60 d3bd e728 163e 1dbf c8bd 6960 0cbd
00000240: 3d88 16be b08e 033e db58 0f3e dc93 953d
00000250: 0ac1 d4bd 571f 2abe b180 00be 52b7 fb3d
00000260: bc2c 9d3d c482 253e 3c1a d73d 1df8 353d
00000270: 0a66 a23c fc3c 01be e435 14be 7b63 1cbe
00000280: b418 883d 00c7 91bd ea75 80bc 2ca4 d5bd
00000290: b9d5 46bc b625 c4bd c9f9 c5bd 38ec a53d
000002a0: dab6 1bbd 9708 f83d 42ba 05bd 4902 01be
000002b0: d5f1 64bd 5038 96bd 73d1 97bd 935a 20be
000002c0: ed5d b13d 3c9a b0bd 8279 d73d c3d2 993d
000002d0: d1b5 f03d ce9f dbbd a1e1 1b3e aeea 79bd
000002e0: e08e e93d f095 473e f1c8 643b a10b 663d
000002f0: 1e46 193c 876e 01be a94e 053e 39ce 0dbe
00000300: 59b6 ff3d 1389 383e 9e61 443e cf33 e3b9
00000310: 3218 a5bd 19c4 ae3d 2215 063e 6857 0fbe
00000320: fd94 40bc 4a04 5ebd cabb d33b 43ea 2ebd
00000330: 5c0b c8bc 51bd 31bd cee5 16be 5625 2e3e
00000340: 205f 013e b5e6 8cbd fe7f 693b c371 30bd
00000350: 81ea 0dbe f281 d9bd a4b0 c93d f67c 98bd
00000360: 01f3 c4bd f78d 48bc 1112 20bd 94b2 94bd
00000370: be3c 4eba a50c 81bc 8f77 38bd 8245 bcbd
00000380: 43e0 dbbd 2350 0a3e f619 8cbd 85e7 653d
00000390: aa36 85bd c12c f7bb 78c3 263e 5d5d ad3d
000003a0: 8a6d fdbd 7350 b33d 2e1a f83d 4356 92b9
000003b0: 129a 8b3d b361 f63d 13a1 95bd 5a6c 92bc
000003c0: 5ce2 29be c1cb a6bd a203 933d 3494 8d3d
000003d0: c39a c2bd 7d5c 31be a5cd 23be be56 4ebe
000003e0: a2db 34be 91be babc d345 093e 0e75 2c3c
000003f0: 3caa 7cbd 819b 1fbe 1918 9e3d 3579 88bd
-0.114722475 -0.09109237 0.0856803 -0.06395353 0.11802219 -0.01966406 0.12717225 -0.10987219
-0.07681486 0.051649615 0.04898372 -0.034577522 0.1334371 0.14358032 -0.12379833 -0.06505226
0.17687507 -0.0817513 -0.0044531752 -0.09999429 -0.028662924 0.07579018 0.02550611 -0.07140983
0.059758473 -0.05993591 -0.08200121 -0.072076745 -0.15435731 -0.081661694 0.17705883 0.0027574406
0.07779351 -0.19452664 -0.15074578 -0.03131059 0.05914334 -0.1352942 -0.038407806 -0.073847756
-0.019265488 -0.060213935 0.013140505 -0.13357478 -0.09593008 -0.06574529 -0.06703108 -0.09282519
0.1566163 -0.081572585 0.16743848 0.062854275 -0.16987064 0.15418433 -0.025147296 -0.057359062
-0.14411785 -0.13871355 0.054049928 -0.044474974 0.085130356 -0.12246877 0.10580718 -0.14614141
-0.028798148 0.033017438 0.04988511 0.10643039 0.13188365 -0.14301348 0.09207742 -0.06425242
0.00073744875 -0.098773874 0.1758925 -0.09839147 0.10387532 0.058185034 0.092019774 -0.09784142
0.11435234 0.08020619 0.047607508 -0.13437098 0.10040167 -0.016654406 -0.08440831 0.15998721
0.045437507 -0.118917644 -0.06861536 0.012200066 0.1081254 -0.040175274 -0.07292222 -0.048937026
-0.109327324 0.07816063 0.15424982 -0.16242687 0.061464235 0.11460746 -0.0010428617 -0.059860777
0.08379532 0.042574044 0.039863814 -0.014503667 -0.04475624 0.03707612 -0.021893708 -0.04914368
0.12451694 0.15167268 -0.012716009 -0.0020564434 0.036616676 -0.0355691 0.06828516 0.05298004
-0.18882906 -0.037215155 0.15586068 0.0445533 0.021400662 -0.06230839 -0.10604879 -0.09926625
0.009146937 0.08867582 0.17057188 0.1352439 -0.09649781 -0.03297043 -0.011024558 0.13226871
0.0019129645 -0.07957578 0.081321105 -0.076219015 -0.10321209 0.1466404 -0.09802077 -0.03427163
-0.14700408 0.128474 0.1399874 0.073035926 -0.10388382 -0.16613518 -0.12549092 0.12290825
0.07674548 0.16163164 0.10503051 0.044426072 0.019824047 -0.1262092 -0.14473683 -0.15272324
0.06645337 -0.07118034 -0.015681226 -0.10431704 -0.012135916 -0.09577505 -0.09666783 0.08101696
-0.038016178 0.121110134 -0.032648332 -0.12598528 -0.05589469 -0.073349595 -0.07412996 -0.15659551
0.08660493 -0.08623168 0.10521223 0.07510903 0.11753429 -0.1072384 0.1522279 -0.061014824
0.11404204 0.1949079 0.003490981 0.056163434 0.009355096 -0.12639819 0.13018288 -0.13848199
0.12485952 0.1802104 0.19177863 -0.00043335414 -0.080612555 0.085334964 0.13093999 -0.13998187
-0.011754272 -0.05420331 0.006461595 -0.042703878 -0.02441948 -0.043393437 -0.14736101 0.1700643
0.12633944 -0.068799414 0.0035629268 -0.04307724 -0.13858987 -0.10620488 0.09848145 -0.074457094
-0.09616662 -0.012240878 -0.03907973 -0.072606236 -0.00078673277 -0.0157531 -0.045035895 -0.09192945
-0.10736134 0.13507132 -0.06840889 0.056128997 -0.06504567 -0.007543177 0.16285503 0.08465073
-0.123744085 0.08755579 0.121143684 -0.0002791156 0.06816496 0.120303534 -0.07306113 -0.017873932
-0.16590255 -0.08144332 0.07178427 0.06913033 -0.09502175 -0.17320438 -0.15996416 -0.20150277
-0.17661908 -0.022795947 0.13405542 0.010525955 -0.061685786 -0.15586664 0.0771944 -0.066637434

features.1.conv.bias f4 [16]
00000000: 2700 7dbc 08ff b3bd e5a6 8dbc a1a8 f63d
00000010: a852 01be 64df 403d 84cf 22be 8b22 ae3d
00000020: fc6b 763d c043 783c 93b5 a53d cc17 a73b
00000030: 15ad c53d 2e40 04be 856b adbc ff54 963d
-0.015441931 -0.08788878 -0.017291496 0.12043882 -0.12629187 0.047088042 -0.15899473 0.08502682
0.060161576 0.015152872 0.08091273 0.0050992724 0.096521534 -0.12915108 -0.021169433 0.073404305

features.1.bn.weight f4 [16]
00000000: 6743 7d3f a0cd 803f 7eda 7d3f de49 853f
00000010: f3aa 7c3f d525 7c3f cf21 7f3f 9cd2 833f
00000020: c44c 7b3f 4002 7e3f 8a89 863f 397e 773f
00000030: ab4d 813f 6f39 7c3f d57a 803f 779c 7c3f
0.9893097 1.0062752 0.9916152 1.0413167 0.9869835 0.9849523 0.9966096 1.0298648
0.9816401 0.99222183 1.0510724 0.96676975 1.0101827 0.98525137 1.0037485 0.98676246

features.1.bn.bias f4 [16]
00000000: 8828 63bd 9fa3 473c 27ef 4bbd ceee 52bd
00000010: 534e f3bc e557 b0bc 97c7 123d 3fed 673d
00000020: 4f29 2ebc 7734 d9bc b1f4 22bd e164 9cbb
00000030: ff3f a2bc d274 f13b 3d6e 2abd 92f9 39bd
-0.055458575 0.012185006 -0.04978862 -0.051497273 -0.029700434 -0.021526286 0.035834875 0.05662274
-0.010629966 -0.026514275 -0.039784137 -0.004772768 -0.019805906 0.0073686624 -0.041609038 -0.045404024

features.1.bn.running_mean f4 [16]
00000000: cefc 89be f3d4 cdbe cd71 3f3e 680d 813e
00000010: 6b81 eabe d55c 993e 5bf8 17bf 3251 e3be
00000020: 2c20 b5bd 248b bfbe c7b0 d63e e668 40be
00000030: d15b 8f3e 9385 19bf 5e4b f53c 7bff d7be
-0.26950687 -0.4020153 0.18695755 0.2520554 -0.45801863 0.29953638 -0.59363335 -0.44397885
-0.08844027 -0.37410843 0.41931745 -0.18790016 0.27999738 -0.59969443 0.029943164 -0.42187104

features.1.bn.running_var f4 [16]
00000000: ec8c 2b3e b52c 5b3e 310e f93d 69c5 353e
00000010: 7fe2 563e 4319 083f f75f 933e 36af de3e
00000020: cead 263e 60ee 603e 7caf a43e bca4 5f3e
00000030: 1b4f 633e df0f 8d3e b01d 4e3e 4c0b 883e
0.16752976 0.21403773 0.1216091 0.17751087 0.20984839 0.53163546 0.28784153 0.4349305
0.16277239 0.21965933 0.32165134 0.21840185 0.22198145 0.2755117 0.20128512 0.2657112

features.2.conv.weight f4 [32, 8, 3, 3]
00000000: aec2 fd3d 6279 813d 4bea babc 9285 0a3e
00000010: 54b7 48bd 5e6a 2f3c 40da 8bbd 252b 4e3c
00000020: db24 8e3d ee6e 313c 2fa4 05bd c7bc c2ba
00000030: 1237 8fbd 4793 ea3d e558 8dbd 3d10 9bbc
00000040: 31e0 06be 1590 79bc e11f eebb 08d1 123e
00000050: 8d1e f63b b85a 103e e70d 1e3d 9a01 d33d
00000060: 10dc 133e 96ac 923d 96fe a5bd efe1 203e
00000070: 7c7b a33d 5d12 d4bc 78c3 a7bb be45 efbd
00000080: 5f10 8a3b 753e 8abd ab8d 683d bfb6 8e3b
00000090: 4611 1cbe 8d4b 343d 56c4 253d b5c8 993c
000000a0: 5da0 023d 0cc2 a6bd 664b b43d ee73 7a3d
000000b0: fc2b 893d 7569 b8bd 8786 0ebd b7b5 c9bc
000000c0: f30a 49bd 2998 433d 7dcf 8a3b 16a2 af3d
000000d0: 8ec8 e9bc d64c e03b e5c4 2d3d 16db 91bd
000000e0: 4b5f 98bd db3f 9cbd 1ca5 5b3d 8e09 9abd
000000f0: a8ac 15be 2dea e53c 7725 643d 3e2f 143e
00000100: e61a 54bd 3d4e 87bd 9343 4e3d 27e1 d63d
00000110: c26c 833d 4f2f 57bc c65f 153d 5ce8 f73d
00000120: c1b8 02bd 35f0 d6bc 0e4d e53d e01b 57bd
00000130: ff99 50bd 4c0a 963d 0fcc 073d 5906 703d
00000140: 6bb9 3dbd 6443 e5bb 4018 e63d a8e6 70bd
00000150: b366 353c 63ff 8a3c f5f4 b8bd 77c9 0b3e
00000160: 2f15 52bd 42e3 8dbc 9391 9fbc 8088 60bd
00000170: 3edb a3bd 94d5 9a3d 9ebb bd3b c4d5 d7bd
00000180: a202 f6bd 4588 cd3d 8da6 253d 2f29 803d
00000190: 0fbd 96bd a19d a5bd 8efb f7bc 3c02 90bc
000001a0: 227a d6bd 2118 9e3c a1a0 2abc 95d7 10bd
000001b0: d696 ab3d e33f 40bd 8d22 693d 42f3 a93d
000001c0: 701c 10bd f6ff aebd e592 a53d d04e 573d
000001d0: 7c11 c5bd e9e6 003e 0bd9 9fbd 351e 583d
000001e0: c3fd 873d af6b babd 5642 3c3d 52b3 c4bd
000001f0: 6023 66bd ccd2 1ebd 1467 7dbd c3e0 ef3d
00000200: 6b22 4d3c 1e00 a03d 98b1 85bd 85e0 c23d
00000210: d0c1 9dbc f53a aabd f80a 3d3d 9a51 723d
00000220: ba7a f33d 26b1 86bd 2eb2 1abd 33b6 6dbc
00000230: 33d8 2d3d cb41 713d 5d48 113d 8f61 ccbc
00000240: 269f c03d ba94 a13d 1ea2 42bd fce5 a33d
00000250: a7bd 223d 8525 d23d ecc5 84bd 9ba8 38bd
00000260: d9ce 64bc dcf1 8abb 5555 8c3d 20ec a1bd
00000270: 7f9c 213d 3d73 4fbd 4df7 a43d d0a8 9bbc
00000280: c09c 9ebd f32d 8dbd cac7 04be 5d4d 273d
00000290: bd88 afbd 585d 3bbd 2275 853b beeb 91bd
000002a0: 3e30 9c3c ba11 07be 3e6d aebd e58d ffbd
000002b0: b4af 44bd 4541 08bd 8a04 56bc 8c37 54bd
000002c0: 3b7d 9d3d 88ea a53d 0fc6 c03c 4859 80bc
000002d0: d202 70bd df43 3c3d 813c 93bd cc9e 893d
000002e0: f5ce 713d d244 893c 6c98 cc3d 6106 cb3d
000002f0: d0ff 27bc cc65 b0bd b23e 933d 2420 f0bc
00000300: 10bc 9fbd 3a32 a53d 5ce7 da3d d972 fa3c
00000310: 29c1 7cbb 1936 87bd 99e2 1e3d 604e 1c3e
00000320: 3ffd 653d 4372 283d 825d 2ebc 16d1 21bd
00000330: 47b7 fd3d e64d 383d 408e 8b3d 7528 023d
00000340: 88ba 9b3d 0e53 aa3d 0ee8 323d b01a c03d
00000350: f505 b23d f284 013e 9d73 cc3d 771f f9bc
00000360: 46ed aebd e153 a2bb 39e0 ee3c 3d82 d5bc
00000370: 38e4 24bd d8b7 da3b d899 133e 39e1 923d
00000380: 7e71 96bd 6e26 8bbd 8063 f63b 78b3 51bc
00000390: 9077 ea3d 0bba 933d 6cde b43d 93e4 50bc
000003a0: 79f3 cabb 72bf 283d fb54 e7bd 7509 093d
000003b0: e989 6e3c 8595 a0bd ffe8 b3bd 1343 e93d
000003c0: ad29 e93d a026 bf3c d39e b33d f0f8 b4bb
000003d0: c067 edbb 9c1d a33d 82a3 a6bc f240 b139
000003e0: b75c d6bd 5afd 4a3d f179 72bd 6912 97bb
000003f0: b8ed 2e3e 25ae e63c 802c 22bd 4549 923d
0.12390648 0.0632198 -0.022816798 0.13527516 -0.04900296 0.010706512 -0.06828737 0.012583529
0.069406234 0.01082967 -0.03262728 -0.0014857285 -0.06992926 0.11453872 -0.06901721 -0.018928641
-0.1317146 -0.015232106 -0.007266984 0.14337552 0.007510966 0.14097106 0.038587477 0.1030304
0.14439416 0.071618244 -0.08105199 0.15711187 0.07982537 -0.025887663 -0.0051197372 -0.11683224
0.0042133774 -0.06750194 0.05677573 0.004355281 -0.15240964 0.044017363 0.040470444 0.018772462
0.031891216 -0.0814248 0.088034436 0.061145715 0.066978425 -0.09004489 -0.034796264 -0.024622781
-0.049082708 0.047752533 0.0042361603 0.08575837 -0.028538015 0.006845097 0.0424241 -0.071218655
-0.07440051 -0.07629367 0.053624257 -0.07521354 -0.14616644 0.028065765 0.05569979 0.14471146
-0.051783465 -0.0660672 0.050357413 0.10492163 0.06417228 -0.013133838 0.03646829 0.12104866
-0.031914476 -0.026237587 0.11196338 -0.052516818 -0.050928112 0.07326183 0.03315359 0.058599804
-0.046319406 -0.006996559 0.11235094 -0.05881372 0.011071849 0.016967481 -0.09031097 0.13651071
-0.051289733 -0.017320279 -0.019478595 -0.054817677 -0.080008015 0.07560268 0.005790188 -0.105388194
-0.12012221 0.10035757 0.04044204 0.06257855 -0.07360279 -0.08086706 -0.030271318 -0.01757919
-0.10472514 0.019298615 -0.0104142735 -0.035361845 0.08378379 -0.046935927 0.056917716 0.08298351
-0.03518337 -0.085449144 0.080846585 0.052565396 -0.096224755 0.12588085 -0.078050695 0.052763183
0.06640198 -0.0910257 0.0459617 -0.09604515 -0.05618608 -0.03877525 -0.06186588 0.11712792
0.012520413 0.07812522 -0.06528014 0.0951548 -0.019257456 -0.083120264 0.04615304 0.059159853
0.118886426 -0.06576757 -0.03776758 -0.014508772 0.04244251 0.058900636 0.0354694 -0.024948863
0.09405355 0.078896955 -0.04751789 0.080028504 0.039731648 0.102610625 -0.06483063 -0.04508267
-0.013965332 -0.0042402577 0.06852213 -0.079063654 0.039455887 -0.05064701 0.080549814 -0.019001395
-0.077447414 -0.0689353 -0.12966838 0.040845264 -0.08571003 -0.045743316 0.004072801 -0.071250424
0.019065972 -0.13190356 -0.0851693 -0.12478236 -0.048019126 -0.03326537 -0.013062606 -0.051810786
0.076899014 0.08101374 0.023531942 -0.015667573 -0.05859644 0.045963164 -0.071892746 0.06719741
0.05903526 0.016756449 0.0999001 0.09913326 -0.010253862 -0.08613166 0.071896926 -0.0293122
-0.07799542 0.080662206 0.106886595 0.030572342 -0.003856728 -0.06602115 0.03879032 0.15264273
0.056149717 0.041124593 -0.010642411 -0.03950604 0.12388473 0.044996165 0.068142414 0.031776864
0.076039374 0.08316623 0.043678336 0.0938009 0.086925425 0.12648371 0.09982989 -0.030410511
-0.0854135 -0.004953847 0.029159652 -0.026063079 -0.04025671 0.006674748 0.14414155 0.07171864
-0.07345866 -0.06794439 0.0075191855 -0.012799136 0.11448586 0.07213219 0.08831486 -0.012749809
-0.006193575 0.0411982 -0.112955056 0.033456285 0.0145592475 -0.078410186 -0.08784675 0.113897465
0.11384902 0.023333848 0.08770528 -0.0055228397 -0.007245034 0.07964632 -0.020341638 0.0003380846
-0.10466903 0.04955802 -0.059198324 -0.004610349 0.1708287 0.02815921 -0.03959322 0.07142881

features.2.conv.bias f4 [32]
00000000: e535 cfba d525 12bd 94a5 cb3d b284 033d
00000010: d71c 7a3d 6951 483d 8f12 023d 3b9a 913d
00000020: 2c72 9abd e33f 793d 9938 543d 96cf 37bd
00000030: 300d 5fbc 1039 c3bd b2da a8bd 3268 a8bc
00000040: 2a49 203d 614d fdbc d799 c53c dc83 bcbd
00000050: d6e9 81bd 4dd0 8d3d f3c5 01be 9038 f03b
00000060: e2d0 be3d 064e e63d c0e5 7f3d dcc2 06be
00000070: 2d43 f43c 3337 6fbd 79fa 8cbc 1c0f da3d
-0.0015808909 -0.03568061 0.09943691 0.03210897 0.06106266 0.048905764 0.03175598 0.07109495
-0.07541308 0.060851943 0.05181179 -0.044875704 -0.013613984 -0.09532368 -0.08244838 -0.020557497
0.039132275 -0.030920686 0.024121208 -0.09204838 -0.06343429 0.06924496 -0.12673168 0.0073309615
0.09317185 0.112453505 0.062474966 -0.1316027 0.029817188 -0.05840225 -0.017209278 0.10647413

features.2.bn.weight f4 [32]
00000000: f8a2 883f f7b3 883f c550 893f c1d2 883f
00000010: 3edd 873f 78d3 863f d9ed 893f 04d3 883f
00000020: d82f 893f c5e5 893f 9c6a 883f ca0d 8a3f
00000030: be18 893f 85bc 893f d240 893f 9f14 8a3f
00000040: 7425 893f 3fca 883f 9063 883f 0522 8b3f
00000050: d3e7 883f 4738 883f 8d4c 893f 62a3 8a3f
00000060: e7e5 883f e36a 883f 974b 883f 33cf 893f
00000070: 426c 883f 30d3 883f b064 893f d0ea 893f
1.0674734 1.0679921 1.0727774 1.0689317 1.0614393 1.0533285 1.077571 1.0689397
1.0717726 1.0773245 1.0657535 1.0785458 1.0710676 1.0760657 1.0722907 1.0787543
1.0714555 1.0686721 1.0655384 1.0869757 1.0695747 1.0642174 1.0726486 1.083111
1.0695161 1.0657619 1.0648068 1.0766357 1.0658038 1.0689449 1.0733852 1.0774784

features.2.bn.bias f4 [32]
00000000: 46c1 383d 3155 623d a10e 6f3d 545b 143d
00000010: 9151 703d a8b3 2d3d ea60 5d3d beb6 473d
00000020: 01b5 093d 2c1a 273d 82ce 4d3d cdec 353d
00000030: b8a1 2a3d 5a3f 3a3d 32c6 423d 4f8a 563d
00000040: a973 823d 1d16 5c3d 11ed c23c 4365 373d
00000050: 3450 353d 0866 183d 0df0 723d d042 653c
00000060: 27fa ab3c b9a7 8a3c 96c3 fd3c 83e4 1d3d
00000070: 846d be3c 9faa 3c3d d4d1 1e3d 537f 833d
0.045106195 0.055257026 0.05836356 0.03621991 0.058671538 0.04240766 0.054047503 0.04875826
0.033619884 0.040796444 0.05024577 0.044415284 0.041658133 0.045470573 0.047552295 0.052377995
0.06369717 0.053732026 0.023794683 0.044774305 0.04426594 0.03720668 0.05931096 0.01399298
0.020993305 0.01692568 0.030977052 0.038548004 0.02324558 0.046061154 0.038774326 0.064207695

features.2.bn.running_mean f4 [32]
00000000: 07f8 0e3f 9d7e b9bd 3fa6 193f 95fb 25bd
00000010: a5ee e8be 71fb 413e c94b 0c3f c1b8 063f
00000020: cfbb 443e 6eb4 153e 84db afbe 73dc c93d
00000030: b355 8ebe 6ebd a03e ed42 223f f7b7 8cbe
00000040: 4f5f d63e 5d82 86bd 191c d1be 2a51 003e
00000050: a7b7 793e 3ae3 02bc 68bd 18bf 43ff 973d
00000060: 627f ed3d 6d10 c73e 6642 bc3e 43cc 37be
00000070: 06a4 333f 2841 26be 1bd1 933e aa66 bd3e
0.5584721 -0.09057353 0.60019296 -0.04052313 -0.4549457 0.18943574 0.5480314 0.5262566
0.19212268 0.1461961 -0.34347165 0.098565005 -0.27799758 0.31394523 0.6338337 -0.27484104
0.4186959 -0.065678336 -0.4084175 0.12530962 0.24386464 -0.007988745 -0.5966401 0.07421734
0.11596562 0.3887972 0.36769408 -0.17949013 0.70172155 -0.16235793 0.28870472 0.3699239

features.2.bn.running_var f4 [32]
00000000: 76fd b63e c929 123e 9a58 3c3e ce1b 143e
00000010: baa9 9d3e 5dea 693e 28d6 7d3e 4a31 8b3e
00000020: 1fb8 123f 4ae4 033e 39b0 653e 6cd6 043e
00000030: deeb b53d bd44 9f3e 707a 9d3e 6ac6 2e3e
00000040: 6eb7 353e b511 553e 8ce1 de3d 6e5a 1a3e
00000050: d7aa 683e c096 bf3d 0adf cd3e 1da7 083e
00000060: 15ff 153e 6c1c fb3d cbc8 653e bbf2 c03d
00000070: 687e a53e dbda f33d eade 2a3e 7383 5e3e
0.3574025 0.14273752 0.18393174 0.14463732 0.30793554 0.22843309 0.24788725 0.27186042
0.57312196 0.12880054 0.22430505 0.1297242 0.08882879 0.3110713 0.30757475 0.17067876
0.17745754 0.20807536 0.108828634 0.15073559 0.2272142 0.09354925 0.40209228 0.13344999
0.14648087 0.122612804 0.22439878 0.09421297 0.32323003 0.11906978 0.16686597 0.21729831

features.3.weight f4 [32, 32, 2, 2]
00000000: 4478 8bbd 1fb5 e3bd 5580 07be fa37 d03c
00000010: 34b3 863c 92b6 c23d 15b3 563d 9db4 55bd
00000020: 1975 923d 4598 0d3e 7e52 e33d 2333 903d
00000030: 9cae e9bd 1449 fcbc 09ed da3c e5fd a9bd
00000040: f87e 9b3d 5c52 58bc 34ed 0d3d a65c ea3c
00000050: 5226 92bd a92a 02bd 8eb5 073e 339d f83c
00000060: a7fe 94bc 7ab5 8fbd e473 bf3c 90c8 62bd
00000070: e877 9ebd 1338 893b 0316 8dbd 552b 46bd
00000080: 7208 96bd 26f0 bc39 7d4b 3bbd 737e c83c
00000090: 3a10 7fbd c861 c53d 92e7 073e 82df 803c
000000a0: 7819 283d db03 46bd c250 ba3d 5113 043e
000000b0: a68d ca3d cff0 583c 722a e03c 003b 803d
000000c0: 35a1 ba3c f517 6dbd fa3c c2bd 0c9d 0cbc
000000d0: 9894 8fbc 3c5a b13d c48d 9abd 2ba8 063d
000000e0: e5eb bcbd badb 3bbd ee5c 3d3c c613 edbd
000000f0: 1e4d c23d 12a8 7c3d fce1 71bd 09e8 a93d
00000100: 71f8 b0bc 7025 033d fd7f 69bd ac2b 03be
00000110: a644 073c d57c 383d e90d b43c bc35 68bc
00000120: 0870 b9bc 04b9 1bbd 73d4 00bc 7751 bebd
00000130: 56cc adbd d8a9 e3bc f6c7 033d b663 823d
00000140: 1c0f 893c 9e85 bd3c e6c6 8d3d 0bdd 5bbd
00000150: 5e31 56bd 819b f43d 57d2 e83d 0729 613d
00000160: 2315 44bd 51a6 993d dc8d 15bd 697b a33d
00000170: 2705 efba b559 f23c 231a 13be f5bf 76bd
00000180: 2720 253d 02bc 773d 11ef 84bd 25c8 663d
00000190: 23bc 49bd 870e b9bd 6bd9 8fbc 529f 0bbd
000001a0: 0568 06bd 3466 d63c 8539 c3bd 9145 f2bc
000001b0: 6e66 f9bd 9deb b13d 9456 32bd 5532 bbbd
000001c0: 3430 df3a 8587 cbbc e42c d13c cec4 0e3b
000001d0: 419e 493d bb1d a2bc b61b 12bd 0b3f 853b
000001e0: 232e 2d3d a159 fd3d 0085 1a3d 83d5 603d
000001f0: 9b25 8e3d 0ef0 09bd 1f88 85bc 5cc5 9fbd
00000200: 91a4 213b d283 03bd a009 2abd e748 a23c
00000210: fbf8 b9bd 11a8 c3bd 6b0e d8bd 7f1b bfbd
00000220: 5f66 8d3d 1528 ee3b 1141 f63d 0133 76bd
00000230: 4158 77bc a679 b7bd c5c1 3cbc 0e8d 9f3d
00000240: 17ad 2fbd 7b17 253d 13b5 83bc b8e9 7e3d
00000250: 081d bf36 7b12 a13b 2dc0 be3d b618 38bd
00000260: b765 9dbd d8c2 4f3d e5fc 12be b7eb b83d
00000270: 3fa0 e1bd 315b fc3d 7543 f8bd 1df2 f1bb
00000280: 1056 e33b 9dd2 efbb cc08 f03c 348b af3d
00000290: e855 c83d 3b67 0ebe 55f3 be3c 71ea 56bd
000002a0: 8d47 983d 9fa8 b3bd cdf2 4e3d 5e41 29bd
000002b0: f8a8 51bd 68ad 94bd e267 b43d e657 2abd
000002c0: f9d6 043d 74b7 ee3c 1c2f 553d 9a89 8ebc
000002d0: 33d8 61bd f9e8 5abd 766d 08be 6224 cd3d
000002e0: 0ecc dabd 5ba2 703d 40ed babd 4033 bb3d
000002f0: df68 e53d 21b4 c5bd 1c01 973d 348a 3bbb
00000300: 2157 a3bd 1bf2 a83d dcee 7e3d ad00 c93d
00000310: aea1 94bd 68a7 f83d 5bf4 ef3d 4109 7c3d
00000320: c225 8b3b 0f6e 5fbd 8eaf bb3d 837c 743d
00000330: bc78 1ebd c1cd 5cbc 6a86 8a3d fea2 b63d
00000340: 5436 b23d 579a 753d c118 48bc eb5d 3abd
00000350: a2fc 2ebd 469f 913c cda0 f7bb 88c1 95bd
00000360: b25e 623a c638 e8bd 01e5 c9bd 6a65 6a3d
00000370: e6f9 a4bd 64fc ae3d e7c0 43bd 49df 773a
00000380: 5543 4cbd 3277 e63d dc33 55bc 7e14 c33d
00000390: 0765 b23d b380 843d fb97 9bbd c647 62bd
000003a0: 49eb e3bd 34c8 dd3c 802d 24bd e305 403d
000003b0: 41c5 a63d a7b1 d03d a3eb d1bd 6f5a fdbc
000003c0: 062c d83d bb55 303c 2aa6 233d e5e1 4cbd
000003d0: bef0 adbc a6cf 1a3c 5aa1 abbd 5c8c ce3d
000003e0: 3d27 353d 24f5 80bd 2bd3 8ebc 4d4b 4abc
000003f0: 029f d13c e9f2 223c ec53 f03d 774d c6bd
-0.06810048 -0.111185305 -0.13232549 0.025417317 0.016442873 0.09507479 0.05241688 -0.0521742
0.07151241 0.13827617 0.110997185 0.070410036 -0.11410257 -0.030796565 0.026724355 -0.0830038
0.07592577 -0.01320323 0.034650043 0.028608631 -0.07136215 -0.031778965 0.13252851 0.030348396
-0.018187834 -0.07017036 0.02337069 -0.055367053 -0.07737714 0.004187593 -0.06888964 -0.04838117
-0.073258296 0.0003603708 -0.045726288 0.024474358 -0.062271334 0.09637791 0.13271931 0.015731577
0.041039914 -0.04834352 0.090974346 0.12897994 0.098902985 0.013241007 0.02736399 0.06261253
0.022781948 -0.057884175 -0.094842866 -0.008582365 -0.01752691 0.08659789 -0.07546571 0.03287522
-0.09224681 -0.045863844 0.011557801 -0.11576037 0.09487365 0.06168372 -0.059053406 0.0829621
-0.021602841 0.032018125 -0.057006825 -0.12809628 0.008256113 0.045040924 0.02197929 -0.0141729675
-0.022636428 -0.03801824 -0.007863152 -0.09292882 -0.084862396 -0.027790949 0.03217312 0.063666746
0.016730838 0.023135003 0.069227025 -0.0536776 -0.052293174 0.119437225 0.11368244 0.054970767
-0.04787172 0.075024255 -0.03651224 0.07982523 -0.0018235788 0.029583791 -0.14365439 -0.06024166
0.040313866 0.060482033 -0.06490911 0.056343216 -0.049251687 -0.09035974 -0.017559728 -0.034087487
-0.032814045 0.026171781 -0.09532455 -0.029574187 -0.1217774 0.08687518 -0.0435396 -0.091404594
0.0017027915 -0.024844894 0.0255341 0.0021784785 0.04922319 -0.019789567 -0.03567096 0.004066353
0.042280328 0.12370611 0.037724495 0.05489112 0.069407664 -0.0336762 -0.01630026 -0.07801315
0.002466474 -0.032108136 -0.041513085 0.019810153 -0.090806924 -0.095535405 -0.10549625 -0.09331416
0.06904291 0.0072679617 0.12024129 -0.060107235 -0.015096725 -0.089587495 -0.011520808 0.07790576
-0.04288968 0.040305596 -0.016077554 0.06223461 5.6956233e-06 0.004915533 0.09313998 -0.04494544
-0.07685416 0.050722927 -0.14354284 0.09029334 -0.11016893 0.12322081 -0.121222414 -0.0073835985
0.0069377497 -0.007318808 0.02930107 0.08571473 0.0978201 -0.13906567 0.02330939 -0.052469674
0.07435522 -0.08772396 0.05052452 -0.041322105 -0.05118653 -0.07259637 0.088088766 -0.041587733
0.032431576 0.029140212 0.05204688 -0.017399598 -0.055137824 -0.053444836 -0.13323006 0.10016705
-0.106834516 0.058748584 -0.09127283 0.091406345 0.11201643 -0.096534975 0.073732585 -0.002861631
-0.07975603 0.08249303 0.062239513 0.09814582 -0.072574005 0.12141305 0.11716529 0.061532263
0.0042464444 -0.05454832 0.09164344 0.059689056 -0.03868936 -0.01347679 0.06763919 0.08917807
0.087017685 0.059961643 -0.012212933 -0.045499723 -0.0427214 0.017776143 -0.0075570107 -0.07312304
0.00086353265 -0.11338954 -0.09858132 0.057225622 -0.08055477 0.085442334 -0.047791388 0.00094555743
-0.0498689 0.112532035 -0.0130128525 0.09525393 0.08710676 0.0646986 -0.07597347 -0.05524423
-0.111288615 0.027073003 -0.040082455 0.046880614 0.08143092 0.101901345 -0.10250022 -0.030926911
0.10555272 0.010762627 0.03995339 -0.050020117 -0.021232959 0.009448921 -0.08380385 0.10085365
0.044226874 -0.06296757 -0.017434677 -0.012347055 0.025588516 0.00994561 0.11734757 -0.09682744

features.3.bias f4 [32]
00000000: 1d1f 0f3d e846 4e3d 0efb 3abb 7027 ba3c
00000010: d97c aa3d cb2d 983d c4eb 6f3d 1917 8d3d
00000020: 14dc 90bd 9662 333d 39ce 2b3d 6ded b4bd
00000030: c8e2 a0bd b36b b6bd 5e2e 503d 5419 653d
00000040: f7cf e7b9 02e0 ffbc 2229 b13c 88c4 bebd
00000050: 46c8 0f3d 107f a0bd 7890 95bd f51e aabd
00000060: daef 2dbd fe89 063d 9c39 c1bb 047d 8a3d
00000070: 9c99 95bd 0cbd 4ebd 656d 623d b15e bf3d
0.03494178 0.05036059 -0.0028530988 0.022723883 0.08324594 0.07430609 0.058574453 0.06889171
-0.070732266 0.04379519 0.041944716 -0.08834348 -0.07855755 -0.08907261 0.05082547 0.055932358
-0.000442147 -0.031234745 0.021626059 -0.09314829 0.035103105 -0.07836735 -0.07302946 -0.08306686
-0.04246507 0.032846443 -0.00589676 0.06762126 -0.07304689 -0.050473258 0.055280108 0.09344233

digit_classifier1.fc1.weight f4 [32, 480]
00000000: 5e8d db3c a19f 5ebd f4fe 0a3c 5058 69bd
00000010: 7a91 d0bc 9bd2 34bc 53bb 193c 9b35 d4bc
00000020: a9a5 52bd 52aa 66bd d1ee f7bc 4578 3f3d
00000030: 807f 003c 5eed 2d3c 0332 48bd 9bfc edbc
00000040: b1fa f73c 3140 923c 2793 01bd 5817 05bc
00000050: 7f63 ab3c 4a99 ee3c 976c 47bd 46a7 0dbd
00000060: 1844 bd3b d9b2 bb3c 05bd 83bb ad1f 72bc
00000070: 2a01 27bc 5846 f23c 4c95 c3bc 392a 063d
00000080: 6fb6 a9bc 8c89 853c d43a ffbc 9b14 2a3d
00000090: cdb0 5cbc 16a6 753c e583 88bc 843a 843c
000000a0: 8630 28bc 3f7a 3abc 8d1b 00bc 26fe 243d
000000b0: 743d 963c c5b4 5639 b67a dc3c db42 ab3c
000000c0: 0b23 38bb 1a28 223c b6d7 c0bb 8b63 c9bb
000000d0: a338 16bb 1d18 bb3c e5f4 eabc bf34 c1bc
000000e0: 2e7e 2e3d 2bee 863a 685c 283c 4a93 e43c
000000f0: fd9d 04bd 4ff4 a33c f59f b6bc 2c67 16bc
00000100: e956 a1bc 6308 fa3c f3df 35bd 86b1 223d
00000110: 5632 b43b 958c eabc 2074 59bb 3ca4 f03c
00000120: 811d 063d 685f e639 6733 833c 4495 4ebd
00000130: 4b3a babc 95de 1abd 6b61 aabc c422 87bb
00000140: 17e1 d6bc dd7e d5ba 2ea9 f6bc 55f6 f2bc
00000150: 6be3 3cbc feb1 64bd 41f7 b23c bcb8 b6bc
00000160: e370 bd3c 80e8 013d 0ce4 19bd b3d7 ccbc
00000170: 3805 edbc 1264 ab3c af98 04bd 0189 b0bc
00000180: 02b9 0cbc 2b0f 273c 0775 d1bc 24ab 2a3c
00000190: cca4 3c3c 3825 cf3b 25f4 2c3d 4de7 e5bc
000001a0: ab3a 53bc 89a8 7ebc 820e 88bc e3aa 8a3b
000001b0: 4a13 ac3c 91fd 37bd a872 443c 9e51 84ba
000001c0: 768c d43c 592b 4b3c 5542 b3bc ad01 97bc
000001d0: db67 2dbd d2bb f7ba 189e c23c 2a6f 753b
000001e0: db56 cc3c d553 f73c b250 50bb 59ef b2bc
000001f0: 6182 52bd 5914 a8bc 7a6a db3c 2321 e33c
00000200: 0e7d e0bc 61ea d03c 663d d23c b384 50bd
00000210: e368 69bd b01b 0ebd 6bd2 87bc 286c bb3b
00000220: 7848 ea3b 25e4 8a3c 328d 0cbd 7f1b 983c
00000230: 90d2 cbba 9ab7 35bd 5929 3bbd acc4 8b3b
00000240: 8c28 fa3c 341e 2dbd 17b7 d6bb 37fb 61bd
00000250: 5e90 913c 920d c43a c5ff af39 0d22 473c
00000260: bf0e fd3c f301 2f3d 845c f2bb 9196 3cbc
00000270: 95b4 0a3d 4d16 e03c 44ee dabc 3129 b6bb
00000280: 2795 243d 9ef1 38bc 759c 413d aee0 513b
00000290: 7410 643d 4f9f 73bc 4437 353d 9348 06bc
000002a0: 9f33 353d 3239 183d a08d f83c b366 cf3c
000002b0: 8cae 203d 313c ccbb 2999 34bb 1892 c73c
000002c0: 3039 a7bc c469 703c 8f09 fe3c d2b7 f1bc
000002d0: bead 1b3c 1457 6e3c 17e1 bdbc 7dc3 433d
000002e0: aacf 653c eeea 60bd 37b2 7dbb 01bf a53c
000002f0: 37e3 ac3c ef28 36bb c386 543d 66b9 f0bb
00000300: e96c cbbc ee24 c8bc bf02 92bc af41 de3c
00000310: b6ee 943c 879f d9bc 1abd afbc 85a9 5b3c
00000320: c431 b2bc ad77 5b3d 63b8 5a3d 180f 2dbd
00000330: f41c 1f3d 364a 65bd 8224 d23b 13b1 66bc
00000340: 39b9 3f3c 9d8b 663d fd1c bdbb 3c7a 15bd
00000350: aab7 133c 9d1a 9ebc a896 ed3c a4ce 3cbd
00000360: 1d8f a1bc c111 4ebd e809 1bbd 27b2 ccbc
00000370: ef56 2cbd 475c 30bd 83bf bebc 7dc7 1bbd
00000380: f946 22bd 8191 1bbc 7466 3dbd 1acc 6a3c
00000390: f768 943c ff0c f63c 9f01 0f3b a44a 85bc
000003a0: 9d50 a3bc 21de 09bd 0a55 9c3c e224 5a3c
000003b0: 8003 ac3c 6194 aabc d627 32bd 90d1 553b
000003c0: d5c6 e53c 984b 9dbc d1fc cb3c c509 a63c
000003d0: 51e7 853b 231c c7bc bc60 dfbc eb73 a3bc
000003e0: c517 7cbc d1f1 aebc 131b 67bd 6938 31bd
000003f0: d28f d8bc 2455 bd3c 4b08 e23b 5143 5bbd
0.026800808 -0.054351453 0.008483637 -0.056968987 -0.025459994 -0.01103654 0.0093830405 -0.025904467
-0.051427517 -0.056314774 -0.030265244 0.046745557 0.007842898 0.010615675 -0.04887582 -0.029051116
0.030270906 0.017852874 -0.031634476 -0.008123241 0.020921467 0.029125828 -0.048687544 -0.034583353
0.0057759397 0.02291243 -0.0040203356 -0.01477806 -0.010193149 0.029574558 -0.023874901 0.03275511
-0.020716874 0.016300939 -0.031155981 0.041523557 -0.013469887 0.014993211 -0.016664455 0.016141184
-0.010265475 -0.011381685 -0.007819069 0.040281437 0.01833985 0.00020475972 0.026913982 0.020905903
-0.002809706 0.009897256 -0.0058850897 -0.0061458996 -0.0022921942 0.022838647 -0.028681228 -0.023584722
0.042600803 0.0010294368 0.010275938 0.027902264 -0.032377232 0.020013956 -0.02229307 -0.0091798715
-0.019694762 0.030521577 -0.044403028 0.03972008 0.0054991646 -0.028631488 -0.0033180788 0.029375188
0.03274298 0.00043940102 0.016015721 -0.05043532 -0.022732874 -0.037809927 -0.020798406 -0.0041240174
-0.026230378 -0.0016288419 -0.030109968 -0.029658476 -0.01152883 -0.05583381 0.021846415 -0.022304885
0.023125118 0.03171587 -0.037570998 -0.025005197 -0.028933153 0.02092174 -0.032372173 -0.021549704
-0.008589031 0.010196487 -0.025568498 0.01041678 0.0115139 0.0063215755 0.042225022 -0.028064394
-0.0128924055 -0.015543112 -0.01660848 0.004231797 0.021005291 -0.044919554 0.011990227 -0.0010095125
0.025945883 0.012400472 -0.021882216 -0.018433416 -0.042335372 -0.0018900579 0.023757026 0.0037450292
0.02494376 0.030191341 -0.003178638 -0.021842645 -0.05139387 -0.020517515 0.02678417 0.027725762
-0.02740338 0.025502386 0.025664043 -0.0509078 -0.056984793 -0.034694374 -0.016579827 0.0057196803
0.007149752 0.01695449 -0.03431434 0.018567799 -0.0015550423 -0.04436455 -0.04569373 0.0042653885
0.030536912 -0.042265132 -0.0065525877 -0.055171218 0.017769035 0.0014957658 0.00033569164 0.012154114
0.03089082 0.04272647 -0.0073962826 -0.011510507 0.033863623 0.027354384 -0.026724942 -0.0055591096
0.040181305 -0.011288075 0.04726835 0.0032024789 0.055679753 -0.014869525 0.04424216 -0.008196014
0.044238683 0.03716392 0.03034097 0.025317525 0.03922896 -0.0062327613 -0.002755711 0.024361655
-0.020413011 0.014673654 0.031010417 -0.029506598 0.009501873 0.014547128 -0.02317862 0.047793854
0.014026562 -0.054911546 -0.003871096 0.02023268 0.021104438 -0.0027795394 0.05188633 -0.00734632
-0.024832206 -0.024431672 -0.017823575 0.02713093 0.018180232 -0.026565326 -0.021452475 0.013407116
-0.021752246 0.05358093 0.0533985 -0.042250723 0.03884597 -0.055978976 0.0064130435 -0.014080304
0.011701875 0.05628549 -0.005771278 -0.036493525 0.009015957 -0.0192998 0.029002503 -0.046095505
-0.019721562 -0.0503099 -0.037851244 -0.024987293 -0.042075094 -0.043056753 -0.02328468 -0.038032044
-0.039618466 -0.00949514 -0.046240285 0.014330888 0.018116457 0.030035494 0.0021821035 -0.016270943
-0.0199359 -0.033659104 0.019083519 0.013314458 0.020997763 -0.020822706 -0.04349502 0.003262613
0.028048912 -0.019201085 0.024900826 0.02026833 0.004086413 -0.024305409 -0.027267806 -0.019952735
-0.0153865265 -0.021355541 -0.056422304 -0.043266688 -0.026435766 0.023111887 0.0068979613 -0.053530995

digit_classifier1.fc1.bias f4 [32]
00000000: 19ba 8dbc 7f85 df3c 28c8 acbc 0a02 8dbc
00000010: d124 093c 7e0a cf3c a1f5 ec3c 6c19 033d
00000020: 8d6f f63c 1bf1 823c c6a6 643d e8a3 1dbc
00000030: d354 50bd 3b4e bcbb e7ad 173d 25d4 023d
00000040: f12a bdbc 9c58 523c 41d2 8fbc 55ae 9b3b
00000050: 2edc ddbc 73cb 793c a020 dcba 9ccc 5b3d
00000060: 8567 0d3d 4163 25bd 876f 803c 11c3 383c
00000070: d77a 043d 2a4b eb3c 6a93 ffbb 85f4 26bd
-0.017300652 0.027285336 -0.021091536 -0.017212886 0.008370594 0.025273558 0.028925719 0.032006666
0.030082488 0.015984109 0.05582311 -0.009621598 -0.050862145 -0.0057466305 0.03703108 0.031940598
-0.023091765 0.012838509 -0.017556312 0.0047510066 -0.027082529 0.01524626 -0.0016794391 0.053661928
0.034522552 -0.04037786 0.01567818 0.011276976 0.03234371 0.028722364 -0.0077995555 -0.040760536

digit_classifier1.fc2.weight f4 [10, 32]
00000000: 77cc 18be 77cc 53be 7083 29be 555f 8bbd
00000010: cae3 443d 2451 203e a0e8 7abd 34c9 403e
00000020: 29c1 e33d 37e8 923d a0d7 d43d f88d 57bd
00000030: 6ad5 02bd 5766 43bd e8e6 38be 549f 31bd
00000040: f291 afbd 2af1 2abe 752e f7bd 61c8 2c3e
00000050: affa d7ba a98c 273e e59e 123e c8db b33d
00000060: 3b6d 29be 0ac4 57bd 4f99 ce3d c673 033d
00000070: 94b5 14be c7f3 4d3e 0847 133e c9d1 773d
00000080: 9f9b c3bd c065 e13d f949 0a3e 89b5 813d
00000090: 73cc 9fbd 3e02 ee3c 1b24 1dbe 17ef 98bd
000000a0: 333e e4bd 2cf7 2d3e 9db4 28be 9ab4 363d
000000b0: c1a3 3d3d 9382 103b 244f a43d 597d f0bd
000000c0: 90ec 8f3d 6be5 1e3e 2da7 20be 58b1 e53d
000000d0: 0ee8 febc a77c 1a3d 6ce1 25bd a7c9 4d3d
000000e0: e12e 043e dc8e 43bd 3dfd 29be 6776 bbbc
000000f0: f9a1 103e 33a0 3fbe 3dbf 1d3e 8aac 053c
00000100: 828e c2bd 2f2c 173d 9489 c53d 4b51 1abe
00000110: b4f3 26be 1372 2abe cd82 043e 2e75 34be
00000120: f80d f73d 2807 ee3d 2f31 5a3d 0005 403e
00000130: 8d13 69bd 5bec 94bc 43df 993d 1a1d 09be
00000140: 6d0c 0b3e a55b 88bd dd18 20be 9542 973d
00000150: ef48 81bd 7975 283e 1d8d 30bd a361 133e
00000160: a344 96bc 798b f3bd f26c fbbc 4a53 14bd
00000170: 9e05 9f3d 0b5d 1d3d 0f3b 75bd 1bdc 11be
00000180: 8bbf 3ebe 941a 123e 6304 c0ba 8a2b 90bc
00000190: 54c5 f53d 49d8 843b 6b78 f63b 1c80 0ebe
000001a0: 09a1 2bbe 7707 3bbe 821d 2fbd 849b 30bd
000001b0: 9084 0cbe 7fd7 d03d a80b 51bd c7a2 463d
000001c0: 5722 87bd 295c cabd 8fc2 d3bd 68ca 95bd
000001d0: 675d 6ebd f49d 05be 524b 043e 10c3 d33d
000001e0: 7e6a 083e c587 193e 60fd c8bd 8ed9 883d
000001f0: 1593 d2bd 4706 0f3e a99a afbd df7d 13be
00000200: b49c cbbd a621 e6bc 3dbd 37be 3944 703b
00000210: 5285 4dbc bcfb 3ebe 5e19 043e 12d8 a8bd
00000220: 1b0b 093e 6d83 27bd 717f ab3d 10d3 103e
00000230: 84b4 10be 37ec 953d f7df c93d a642 0d3c
00000240: 7bdb 31be c431 a2bd 53c8 063d d3b4 25be
00000250: 2dd3 173e f56f 07be 14e3 cabd aacf 3b3d
00000260: c2b3 45be c69d c33d 5ff4 f4bc 7b1e 4a3c
00000270: 7219 3cbe d5be 38be 9b1d 21be 0830 41be
00000280: 2ca2 1a3e 5864 b7bd 47a5 923a 00d1 873a
00000290: 571d cdbd 4e07 2ebe 47f9 23be 89d3 ef3c
000002a0: b4fd 9ebd 1965 523d bb5a b33d a7ed 0abd
000002b0: fc0a dcbb cc5e 18bd 0c6d 2bbe 4ec0 f33d
000002c0: 8617 18be 368a 5abd fdd2 253e f7e0 bebd
000002d0: d606 ea3c dd7d a73d 7b1e 21be 649b 42bb
000002e0: 1b05 d1bd d047 f2bd 9e1d 45be d693 c33d
000002f0: 0088 ddbd 6db2 f73d 9247 0c3e 77c8 b9bb
00000300: 98d8 083e 8402 9bbd 8e9b 693d d9d9 d8bc
00000310: 4215 07be 7407 febd b483 0ebe 63d3 3f3c
00000320: 9bdc 35bd 6a1b cb3d 4a9a dc3b 10a2 7cbd
00000330: 81e5 44bd f916 d13d 78f8 07be 956a 263e
00000340: 06b1 b6bc b498 3abb c7bd 1a3e 7911 44be
00000350: 3962 de3d 0b75 d13d 6054 e23d 88a0 9c3c
00000360: d300 bbbd 4cdc 07be b694 b33d 549f ff3c
00000370: f949 c03d 9c1e 913d 0062 05be 1f6b d83d
00000380: 2a7f 373b c40e 42be 12f5 90bc 4f8d d6bd
00000390: e0af 9fbd eb73 bbbd 3724 37be 2805 16be
000003a0: fc5e f73d 918e fbbd df9c 76bd 2d54 4cbd
000003b0: 5771 f63d d751 9b3d c835 d1bd a3f3 5cbb
000003c0: 412c b9bd eb88 6fbc ad15 d0bd 5dff 05be
000003d0: 9488 70bd 896a 27be 0b81 d5bd 7b02 033d
000003e0: 45bf 73bd 2d27 1fbe a424 15be 5d6e eebd
000003f0: b15e 9a3d be4a 17be 61bf 2abd 82d4 b33d
-0.14921747 -0.20683466 -0.16554046 -0.068052925 0.0480688 0.15655953 -0.061257005 0.18826753
0.11120827 0.07173198 0.1039269 -0.052625626 -0.03194181 -0.04770502 -0.18056834 -0.043364838
-0.08572759 -0.1669356 -0.12069408 0.16873313 -0.0016477908 0.16362251 0.14318426 0.08782154
-0.16545574 -0.05267719 0.10087835 0.032092832 -0.14522392 0.20112525 0.14382565 0.0605028
-0.09551167 0.110057354 0.13504781 0.06333453 -0.078026675 0.029053804 -0.15345804 -0.07467478
-0.11144676 0.1698882 -0.16475148 0.04460583 0.046298746 0.0022050485 0.080229074 -0.11742658
0.070275426 0.15517204 -0.15688772 0.11215466 -0.031116512 0.037716534 -0.040498182 0.05024114
0.12908508 -0.047743663 -0.16600509 -0.022883607 0.14124288 -0.18713455 0.15404983 0.008158812
-0.094998375 0.03690737 0.096453816 -0.15070073 -0.16303903 -0.16645078 0.12940522 -0.17622826
0.12063211 0.11622459 0.05326956 0.18751907 -0.05690341 -0.01817911 0.07513287 -0.13390008
0.13578959 -0.06658105 -0.15634485 0.073857464 -0.06312739 0.16451062 -0.043103326 0.14392714
-0.018343275 -0.11891837 -0.030691598 -0.036212243 0.07764743 0.03841881 -0.059870776 -0.1424412
-0.18627755 0.14267951 -0.0014649745 -0.017598886 0.12000528 0.0040541035 0.007521679 -0.13916057
-0.16760649 -0.18264566 -0.04275275 -0.04311706 -0.13722444 0.101973526 -0.051036507 0.04849508
-0.06598347 -0.098808594 -0.103398435 -0.073139966 -0.058194544 -0.13048536 0.12919357 0.103399396
0.13321874 0.14993198 -0.098139524 0.0668212 -0.1028196 0.13967238 -0.08574421 -0.14403485
-0.09941998 -0.028092217 -0.17943282 0.0036661758 -0.012543993 -0.18650717 0.12900302 -0.08244337
0.13383143 -0.04089682 0.08373917 0.14143014 -0.14131361 0.07320445 0.09857171 0.008621847
-0.17368881 -0.07919648 0.032905888 -0.1618226 0.14826651 -0.13226302 -0.09906593 0.04585234
-0.19306853 0.09551577 -0.029901681 0.012336369 -0.18369082 -0.18041547 -0.1573395 -0.18865979
0.15100926 -0.08954686 0.0011188173 0.001036197 -0.10015362 -0.16994974 -0.1601306 0.029275673
-0.07763234 0.051365945 0.0875754 -0.03391805 -0.0067151766 -0.03719978 -0.16740817 0.119019136
-0.14852723 -0.053354464 0.16193767 -0.093202524 0.028567713 0.081783034 -0.15734284 -0.002969467
-0.10206052 -0.118301034 -0.1924958 0.09549682 -0.108169556 0.12094579 0.13699177 -0.005669649
0.13363874 -0.07568839 0.057033114 -0.026471065 -0.13191703 -0.12403765 -0.13917428 0.011708113
-0.04439984 0.09917338 0.00673226 -0.061677992 -0.048070434 0.1020946 -0.13278377 0.16251595
-0.022301208 -0.0028472366 0.15111457 -0.1914729 0.10858578 0.10227402 0.110512495 0.019119516
-0.091310166 -0.1326763 0.08768599 0.031203903 0.09389109 0.070859164 -0.13025665 0.10567307
0.002799938 -0.18950945 -0.017694984 -0.10476171 -0.07797217 -0.09152969 -0.17884909 -0.14650404
0.12078664 -0.12283052 -0.060208198 -0.049884964 0.120333366 0.07583969 -0.10215336 -0.0033714555
-0.09041644 -0.014620046 -0.10160384 -0.13085695 -0.058724 -0.16349234 -0.104250036 0.031984787
-0.05950858 -0.15542288 -0.14564759 -0.11642144 0.07537592 -0.14774606 -0.04168642 0.08780767

digit_classifier1.fc2.bias f4 [10]
00000000: cce5 0c3e 19c7 87bc 5a70 4ebc 9de4 07be
00000010: c5e9 013d fb1e d83d bb57 2dbd a386 12be
00000020: 372f 0f3e 653a 3a3d
0.13759536 -0.01657443 -0.012600029 -0.13270803 0.03171708 0.10552784 -0.042319994 -0.14309172
0.13982855 0.045465846

digit_classifier2.fc1.weight f4 [32, 480]
00000000: 6614 af3b c8a1 4f3d 04d3 c1bc f588 043c
00000010: 7ef6 a73c bbc6 3d3d 7b08 2c3c ac05 9e3b
00000020: f54d 3c3d 1f72 463c 0682 1bbc fb34 493c
00000030: dfc9 633d b3d3 fabc 0338 4e3d 3969 3bbd
00000040: 770e 20bd 195e efbc c09f a03c 9a77 37bb
00000050: 69d7 28bd 7e11 e4bc aa42 a83c a2d1 5e3d
00000060: 4410 0dbc e70a c33a c46d dfbc 0982 003c
00000070: 31be 1c3b d8fd 4dbd 8301 573d 393d 373d
00000080: 410f 413d ab5c 8c3c 9d3c ccb7 6333 373d
00000090: 0512 b4bc 9cd7 ecbc ffa9 fbbb 0408 d43c
000000a0: 186e ac3c 3b73 773c b3ec d6b8 fda5 833b
000000b0: 540b 1bbd e6f6 f7bc f6ed 573a fb98 013d
000000c0: 4653 24bc 7d88 22bc 8b77 053b bfb7 473d
000000d0: 9f55 133d 2b18 3bbc 710c f53b cb90 07bd
000000e0: ba9b b83c 7550 28bc 5794 ee3c 4185 a53c
000000f0: 3d94 7a3c dec7 25bc 04c0 2e3d 4d11 4c3c
00000100: 0bc5 153d e671 013d 3d24 753c c7bd fb3b
00000110: df41 ccbc 7057 363c 58b9 f6bc cd0e ac3b
00000120: 539c 70bc 80dc 4d3d d37b aebc a685 1fbd
00000130: 0ddb f43c e3a0 36bd c1a4 babc dbd8 5ebc
00000140: 9e6e ddbb 8433 223d 9522 0f3d c603 003c
00000150: 0fa1 a4bc 7768 5b3c 6c2b b43a 2fd5 b93c
00000160: 93f4 343d 5d34 e1bc 3b41 573d 0ee3 e1bc
00000170: ff6a 0d3d 8d53 68bc 2e37 37bd 28a0 e73c
00000180: d8d0 3a3d 6fa8 9a3c 0233 25bc 7576 71bc
00000190: cdfe 8abc 1438 133c eda8 083c 5576 573d
000001a0: 1178 ad3c a9dd cdbc 185c 513c 5298 24bd
000001b0: 6838 4d3b 237b 8c3c ad0e b3bc 9542 b43a
000001c0: d84e 41bd d915 fc3c 4aa9 e13c b79f e13c
000001d0: 61f6 ae3a 9168 a53c 9d61 aa3c 5a19 5ebc
000001e0: 3ed2 5a3c a343 edbc 9c52 fc3c a428 363c
000001f0: 4755 97bc e7da 2d3d 61e3 5a3b 7280 3f3c
00000200: 5c93 e73b b264 5d3d cc1a 153d da7a 643d
00000210: 2cbf 00bd c2f5 e5bc 0204 673b d1c1 e2ba
00000220: 5ec4 ffbc a851 923c a7cd e6bc edc0 9fbc
00000230: a488 9f3c 42c7 8b3b 0c1f f13c a090 b6bc
00000240: 449c 8abc f680 483d 8f2f c8bc 0fe2 74ba
00000250: 1da9 ffbc f55f 1cbd 6786 b2bc 033b f83c
00000260: ee5f 9abc 2aa5 5b3d b64d 31bd 78a8 e83c
00000270: 1fc2 4fbd 3c22 00bd 4b9a 4c3d 39d9 0f3c
00000280: 4310 963c 7738 05bd 7610 0e3d ff1f 433d
00000290: 517c afbc 63de a6ba a469 283d 0c49 5d3c
000002a0: 99fc df3c 55c5 ac3c 9e75 c43b beeb 8c3c
000002b0: 842a e63c 9945 1e3d 5e9d a2bc 154b 1f3d
000002c0: 3f92 cbbc 79ed 1a3d b017 983c 95f4 863c
000002d0: 7bae 633c 0cb9 11bd 33af 61bb 626c 89bc
000002e0: f899 903c 03be b03c ae10 c3bc b4df 263d
000002f0: 80dc 7e3c 55dd 223b 405c 08bd 7906 22bd
00000300: 5d29 7a3b e5d8 91bc fb7a e6bc 4dc6 523a
00000310: b58d 3db9 e014 2abb 70df 17bd fc63 3e3c
00000320: 3398 ba3a 2556 15bd 33a9 ba3b eb60 adbc
00000330: 792e 91bc dd4b 95bb 76e4 103c 4631 56bc
00000340: 22e9 f9bc 73f7 773a bc8e e3ba 5889 85bc
00000350: f98d 033d 87a8 d7bc fd19 66bd b1f8 19bd
00000360: f094 af3a 5ffe 063d 7d8f 44bd f6a0 c0bc
00000370: c758 f7bc 9979 8b3c 8ae0 20bd 03d1 193c
00000380: 0d8d 3ebd 2ca8 3fbd 4d87 b2bc 046f 013c
00000390: 8d37 19bd aa2d 8abb 7718 c0bc 9a75 18bd
000003a0: 5dc7 12bc d6c9 c23c b82a c1bc 0f4f 63bd
000003b0: a2a9 ec3c 2a1f 26bd 17a1 cebc 83e2 3ebc
000003c0: 3b7a 61bd 8972 5d3d 34d2 2cbd fc28 f7bc
000003d0: ccba b1bc 7435 d6bb 1df3 ec3c 6f22 3b3c
000003e0: 6adb b33c 72c5 a03c 70b5 88ba e538 f1bc
000003f0: b6ed 9b3c 94a6 5dbd 0636 af3a 90fc 83bc
0.005343008 0.050691396 -0.02366019 0.008089294 0.020503279 0.046332102 0.010500069 0.0048224535
0.045972783 0.0121121695 -0.009491449 0.012280698 0.05561244 -0.030618524 0.050346386 -0.045754645
-0.039076295 -0.029219674 0.019607425 -0.0027994872 -0.041221056 -0.027840372 0.0205396 0.05439914
-0.008609835 0.0014880568 -0.02727402 0.007843503 0.0023917074 -0.050290912 0.052491676 0.04473612
0.047133688 0.017134031 -2.434692e-05 0.04472674 -0.021981249 -0.028911404 -0.007680177 0.025882728
0.02104859 0.015103157 -0.00010248404 0.00401759 -0.0378526 -0.030269098 0.0008237058 0.031640034
-0.01002962 -0.009920237 0.0020365443 0.04875922 0.035970327 -0.011419336 0.00747829 -0.03309707
0.022535194 -0.010273089 0.029123468 0.020205142 0.015294132 -0.010118453 0.04266359 0.012455297
0.036564868 0.031602763 0.014962253 0.0076825353 -0.024933754 0.011129245 -0.030117676 0.005250788
-0.014685708 0.050259113 -0.021299278 -0.038945816 0.029889608 -0.044587027 -0.022783639 -0.013601507
-0.0067575714 0.03959991 0.03494509 0.0078134 -0.02009633 0.013391606 0.0013745851 0.022684662
0.044178557 -0.02749079 0.052552443 -0.027574088 0.034525868 -0.014180076 -0.044730358 0.02827461
0.045609325 0.018879144 -0.010082962 -0.014737715 -0.016967202 0.008985538 0.008341056 0.052603085
0.021175416 -0.02513011 0.0127783045 -0.040184326 0.0031314138 0.01714856 -0.021857584 0.0013752753
-0.047194332 0.030772137 0.027546544 0.027541978 0.0013348573 0.020191463 0.020798499 -0.013555849
0.01335579 -0.028962916 0.03080111 0.011118088 -0.01847328 0.04244509 0.0033399689 0.011688339
0.007067127 0.05405111 0.03640251 0.055781223 -0.031432316 -0.028071288 0.0035250192 -0.0017300193
-0.031221565 0.017861202 -0.028174235 -0.019501174 0.019474335 0.0042656967 0.02943375 -0.02228576
-0.016920216 0.04895111 -0.02443674 -0.00093415467 -0.03120857 -0.03817745 -0.021792604 0.030301576
-0.018844571 0.05362431 -0.043287 0.028400645 -0.050722238 -0.03128265 0.049951833 0.008779817
0.018318301 -0.032524552 0.034683667 0.047637936 -0.021421583 -0.0012731071 0.04111637 0.013506185
0.027342128 0.021090189 0.0059954664 0.017202254 0.028096445 0.038640592 -0.01985043 0.038889963
-0.024850009 0.037824128 0.018565983 0.016474048 0.01389658 -0.035576865 -0.0034436702 -0.016775314
0.017651543 0.02157498 -0.023811664 0.040740684 0.015555501 0.0024851162 -0.0332911 -0.039556954
0.0038171627 -0.017803619 -0.028134814 0.00080404134 -0.00018077235 -0.0025952384 -0.03707832 0.011620518
0.0014236033 -0.036459107 0.0056964396 -0.021164378 -0.017722355 -0.0045561627 0.008843532 -0.013073271
-0.030506674 0.0009459175 -0.0017361264 -0.016300842 0.032117818 -0.026325477 -0.056177128 -0.037590686
0.0013395827 0.03295743 -0.047988404 -0.023514252 -0.0301937 0.017025756 -0.039276637 0.009388211
-0.046521235 -0.04679124 -0.021793032 0.007900003 -0.037406493 -0.0042168694 -0.023449166 -0.03722153
-0.008958665 0.023777883 -0.02357994 -0.055495318 0.028889481 -0.040557064 -0.025223298 -0.011650684
-0.05504821 0.054064307 -0.042192653 -0.03017091 -0.021695517 -0.006537134 0.02892452 0.011421784
0.02195521 0.0196254 -0.0010430049 -0.029446075 0.019034248 -0.05411394 0.0013367541 -0.016111642

digit_classifier2.fc1.bias f4 [32]
00000000: 4a81 f83c 94d7 0f3d 1c2e e5bb a9c4 2a3c
00000010: d686 15bd 2563 183c 4bbd 80bc 7e59 f43c
00000020: 55e4 01bd 9351 263d 9644 b6bc 42ab ffbc
00000030: 29ed 143d a70c 7ebc f48c 45bb a5d7 fc3c
00000040: 7e51 60bd 1c0a 41bd 6044 51bc 80dd d2bb
00000050: 4fd9 9c3c 362e 5d3d 99c0 d2bc 9700 d83c
00000060: 5ef5 23bc d3cd 853c 3090 cbbc 6753 e03b
00000070: 5995 913c f7e2 863c e27f 82bc d418 06bd
0.030335087 0.0351177 -0.006994022 0.010422864 -0.036505543 0.009300982 -0.015715262 0.02982783
-0.031711895 0.04060514 -0.022249501 -0.031209592 0.036358986 -0.015505946 -0.003014383 0.030864546
-0.054765217 -0.04712878 -0.0127726495 -0.0064350963 0.01914659 0.05399915 -0.025726603 0.026367469
-0.010007231 0.016333496 -0.024849027 0.00684588 0.01777141 0.016465647 -0.01593012 -0.03273852
