model/LDD/best_digit_model.pth (torch, 184546 bytes, 24 tensors)

features.0.fused_conv.0.weight f4 [16, 1, 3, 3]
00000000: 2fc4 15be d50c 5ebe 9c0d b53e 6c9b a0be
00000010: 9aec 4dbd 753a e23d dc2a 2bbd 7c5e a2be
00000020: 0ef3 9e3d b163 f33d 2c78 f1bd 7f10 a33e
00000030: 12af 763e 3c5f 1a3e 096e 7abe 06c8 6bbe
00000040: 0a1f 943e e1f8 6d3e e442 c0bd b0e7 8f3e
00000050: f78f 993e 07b8 0abd 208e 8b3e d163 81bd
00000060: a7c9 313e f391 9b3e dc77 043e 1e04 cc3b
00000070: b9c2 46be 1446 a4bd 7a91 61be 1d26 97be
00000080: 8801 33be bc82 25bc ec99 6dbe a8a7 3ebe
00000090: a2cc 4dbe 1e63 65be ee52 75be 9b0f d93c
000000a0: 88ca 903e 59fa a93e 3b26 a53e da9a 7bbd
000000b0: 8881 a0be 51b9 bebd 9a49 87bd 4435 3abe
000000c0: 0b64 ff3d f91a a23e 0a1e 0cbe bd30 9c3e
000000d0: 52d8 acbe c483 26be bd2f 813e 9fd2 eb3d
000000e0: e5b1 5b3e 3ef9 64be 4b56 14be 22dd a0bd
000000f0: a377 943e c4d9 b2be 8692 973d 0bab 753e
00000100: 6b71 0e3e cb6a 4e3e 0c85 55bc 8f8e 653d
00000110: 882e 03bd 4bf5 2abe 93f9 5c3e 5194 abbe
00000120: af07 8abc 46d7 843e 507e 73be 23e6 c8bd
00000130: e4ad 3cbd 57d9 ac3e 58d2 953e 12db 263e
00000140: 7577 053e 39dc 3bbd 82b5 983e 7747 e6bd
00000150: 42ef 323e 45b5 44be db3e 923c 235e 4dbe
00000160: 4277 9c3e 3fb2 1bbe 19e2 abbe 25af 463e
00000170: 212c 553d c790 933e e7ad 94bd dc89 613e
00000180: b1a1 623d fc68 913e c156 ba3d cd0c a93d
00000190: 719e 303e 1a48 173e c5fb 883e b71e 14be
000001a0: 0be2 0d3d 5655 94be f940 0dbe 1295 d1bc
000001b0: 00df 09be 7042 3e3e 72cf 19be ea63 9bbd
000001c0: 5730 83be e0c3 a8be 8a94 64be 234e 8ebe
000001d0: 8df3 783e 5f94 d2bd f90e 5e3e a2d6 883c
000001e0: 5984 88be b51d 7cbe 1b90 863d 2181 a9be
000001f0: bbca 07be 19b5 ad3d ac2c a03d 9390 d73d
00000200: 81cf bdbd 6324 40be 06ab d33d 1359 ea3c
00000210: 6669 21be 8656 113e 6349 c9bd 5a23 a13e
00000220: 68be a2bd 0fa9 33be 2fb0 63bd 1000 30be
00000230: a8ff 0b3e 8895 513c 02b0 4d3e b240 90be
-0.1462562 -0.21684583 0.35361946 -0.31368577 -0.05027447 0.11046306 -0.04178892 -0.3171271
0.07761203 0.11884249 -0.11790499 0.31848523 0.24090222 0.15075392 -0.24456038 -0.23025522
0.2892993 0.23239471 -0.093877584 0.2810645 0.2999265 -0.03386691 0.2725687 -0.063178666
0.1736208 0.30384788 0.12936348 0.0062260767 -0.19410218 -0.08021179 -0.22028151 -0.29521266
-0.17481053 -0.01010197 -0.23203248 -0.18618643 -0.20097592 -0.22401091 -0.23957416 0.0264967
0.2827952 0.33198813 0.3225573 -0.061426975 -0.31348825 -0.0931269 -0.06605835 -0.18184382
0.124702536 0.31661204 -0.13683334 0.30505934 -0.3375879 -0.16261202 0.25231734 0.11514782
0.2145458 -0.22360703 -0.14486043 -0.07854678 0.28997526 -0.34931767 0.07400994 0.23991029
0.13910453 0.20157926 -0.013032209 0.056044158 -0.032026798 -0.16695134 0.2157958 -0.33511594
-0.016849367 0.2594549 -0.23778653 -0.0980952 -0.046064273 0.33759567 0.29262042 0.16294506
0.1303385 -0.045864318 0.2982598 -0.112440996 0.17474082 -0.19209774 0.017852237 -0.20055442
0.30559736 -0.15204714 -0.33570936 0.1940275 0.052044038 0.28821394 -0.07259732 0.22025245
0.055329982 0.2840041 0.09098578 0.08254395 0.1724794 0.14773598 0.26754585 -0.14464842
0.0346394 -0.28971356 -0.13794316 -0.025583778 -0.13463974 0.18580031 -0.1502054 -0.075874165
-0.25622818 -0.3296194 -0.22322288 -0.2779399 0.24311657 -0.10282206 0.21685399 0.016703907
-0.26663473 -0.24620707 0.06570455 -0.3310633 -0.1326093 0.08481807 0.078210205 0.10525622
-0.09268094 -0.1876388 0.103353545 0.028606927 -0.15762863 0.14193162 -0.098284505 0.31472284
-0.07946473 -0.1754496 -0.055587944 -0.17187524 0.13671744 0.012791999 0.20086673 -0.2817436

features.0.fused_conv.1.weight f4 [16]
00000000: bef8 7f3f 19c2 833f 4e82 7e3f 04b0 7c3f
00000010: d00c 803f c739 7d3f e98d 753f df49 823f
00000020: f01a 833f d7a6 7e3f 0821 803f 8d4a 803f
00000030: f8ca 803f 135c 803f b9a9 7d3f 6568 7c3f
0.99988925 1.0293609 0.9941758 0.9870608 1.000391 0.98916286 0.9591966 1.0178794
1.0242596 0.9947333 1.001008 1.0022751 1.0061941 1.0028099 0.990871 0.98596793

features.0.fused_conv.1.bias f4 [16]
00000000: 0c07 d63c 8e88 933c 2e8d a4bc 2ccc 8e3b
00000010: 694d 04bc 843d 033d eb65 ba3b 1e22 c83c
00000020: 40d1 d63c aa5e 553a cfd8 6cbc 937f 33bb
00000030: 83a3 af3c 04d2 3d3c dc57 043d f927 68bb
0.026126407 0.01800945 -0.020086851 0.0043578353 -0.008075097 0.032041088 0.005688419 0.02443033
0.026222825 0.0008139411 -0.014455988 -0.0027389273 0.021440273 0.011585716 0.03231035 -0.0035424216

features.0.fused_conv.1.running_mean f4 [16]
00000000: 16fa 02bd 757d 2d3d ebb8 923d fc03 9fbd
00000010: 2fb5 0aba f752 48bc fdde 563b ecb6 233c
00000020: 5012 423d 7e52 a13b f20c 433d 0097 40ba
00000030: 04c3 68bd 122e 27bd 2f75 92bb 9f10 dabb
-0.03197678 0.042355973 0.071641766 -0.07764432 -0.00052912807 -0.012226812 0.003278672 0.009992342
0.047380745 0.004923164 0.047619767 -0.00073467195 -0.056826606 -0.04081542 -0.004469536 -0.0066548134

features.0.fused_conv.1.running_var f4 [16]
00000000: e5b3 be3e e9e1 a73e dabc 6b3f faa9 843f
00000010: 7253 0f3e a952 3b3e aea5 ec3d 4f83 553e
00000020: 873a c13e b696 923d 7a7f ea3e f05e 143e
00000030: e1e7 1e3f f9ea d23e 05b1 6b3d f3b2 df3d
0.37246624 0.32789543 0.9208504 1.0364373 0.13996676 0.18293251 0.115550384 0.20850872
0.37739965 0.07157652 0.45800382 0.14489341 0.6207257 0.41194895 0.057541866 0.10922804

features.1.fused_conv.0.weight f4 [32, 8, 3, 3]
00000000: e06a bd3c 5539 e93d d253 c8bd eb5c 083d
00000010: 30f2 fabc 30a8 f6bc 2389 dabd 5f5a 60bc
00000020: 21f4 f03c 3e52 893d cc6d bebd 2eca 733d
00000030: a2ab 433d d9b8 e9bd b7b3 78bd eb21 de3d
00000040: b256 853c 0bcd f4bd a377 f8bd eaab 9dbd
00000050: a026 8abc 1644 b4bd e02a ccbd a317 8f3d
00000060: 387a 1c3d 8875 1eba 43ba bfbd 3398 57bd
00000070: dcc1 9d3b 30b6 8e3d 7e7e 9b3d 58af b0bd
00000080: b0af 89bd d60e cbbd b840 fc3d 936a c13d
00000090: d3de c43d 25ad 90bd d840 933c 6b17 40bd
000000a0: b349 77bd d27a a7bd 4adf 9bbd e2e1 42bb
000000b0: 01ff 223d dced de3c 9b43 683d cff6 69bd
000000c0: c54d ac3d 5179 87bd e405 c3bd ad5c fb3c
000000d0: 92f7 59bc fa24 b43d 8b35 203c 35f1 01be
000000e0: c2d2 5d3b 3537 4dbc b002 d93c 58d6 aabd
000000f0: eb90 ffbb 5e52 c93d e596 ae3d 37d3 0ebe
00000100: b9db 15be 71a0 0abd 5684 bb3d 374e 51bc
00000110: ecdb f73d d852 a6bd 8403 72bd 48f5 913d
00000120: 6c1f 803d c393 ecbd b8d2 ecbb a942 003e
00000130: 6cc6 a73c 328d 94bd d195 783c 3808 e8bd
00000140: 8ce6 1b3d bb6b 2f3c e4f8 053d 04b8 8dbd
00000150: 5aa9 ed3c 8779 b6bb 39a1 0cbe b0f6 b2bd
00000160: 00ab 153e 057b 8d3d fc49 9e3d 6ba4 aa3d
00000170: 8873 943d 1bfc 0e3d ffe0 a5bd 8cc3 0cbe
00000180: b512 2a3d 0289 aa3d 1b06 0bbc 7b3c 473d
00000190: e195 513c fe41 29bd 7b3a 363c 2d86 82ba
000001a0: 83bb f93c 6ed1 da3d d8b6 fdbd 362f f2bd
000001b0: 9bd3 dfbb 6597 e7bb a24e 4cbd 50a3 4d3d
000001c0: 7065 a43c 76be 063d ed84 af3d 78ab 293c
000001d0: e3c2 d53d 60ae 253d c852 483c fdca 783d
000001e0: 6627 0ebc 1bb8 57bc 56a9 b73c d681 02be
000001f0: 06c2 aa3d ca36 3bbd 6bb1 cc3d c5c3 66bc
00000200: 4a3a bf3d 643c 7cba 9ae0 5e3d b929 3ebd
00000210: 28ef 3bbd 9258 973d 0b77 1abd e823 ebbb
00000220: af0b bdbd 90d6 d13d f0da 493c ff19 ec3d
00000230: c57c f5bd c927 dfbd 7ee7 f63c 4687 22bd
00000240: b972 a2bd b3c2 ebbc 6bf3 233d 1c55 bc3a
00000250: f0e4 423d b96e 3abb b512 483d 0e7c 043e
00000260: 5446 023e 204d 54bd 3f00 4bbd 22d3 4a3d
00000270: 5d3e acbd e482 55bd a95a 1dbd e37e eebd
00000280: 14cf a93d 37b2 063e e9bc 323d 6533 eb3b
00000290: 3886 a1bd 1efa 51bc a20e b6bd 0028 b43d
000002a0: 8304 68bc 9e79 b9bc c39c 42bc b293 e5bc
000002b0: c627 3fbd d15e 033c d74b 5f3c bc90 073c
000002c0: df19 e03c 5bad 8339 01e9 96bd d5d8 a0bd
000002d0: 0511 a83d 85ca 7dbd 728d ef3d 987d a83d
000002e0: 144b 02be 0015 9bbd e514 d73d 0461 b4bd
000002f0: 9cc5 cb3d 575d 47ba 64c3 7cb9 f739 c63d
00000300: 39da b13c 1ac0 723d b703 a83d b7ae 6e3c
00000310: fa5c 97bd 6fba f5bd a5f9 193c 4649 c7bd
00000320: f277 b3bd 294c 0c3d 619c f23d b22d c0bb
00000330: 4eb5 843c 60e5 d7bc 87d4 8f3d 2a98 82bd
00000340: e240 8dbd a316 6cbd 636a 833d 1d77 aa3d
00000350: 277d 36bd 62bb ab3d b2f8 abbd edf4 cabb
00000360: 554d 5e3d 0a95 bd3d 1e4b a7bb 172b 423c
00000370: 2c2f 8fbd 77bd 973d 2946 acbd fa7b 143c
00000380: 9773 253d 29e6 06be 606c 4e3d 989a 973d
00000390: 8351 88bc 2300 c3bd 9f2e 26bd b6cf d2bc
000003a0: 708c 3a3d c286 8fbc 0fb6 143d 0050 0abc
000003b0: 6392 89bc c572 0ebe eb02 e33c 245a 4ebc
000003c0: c279 c83c 1a7c 3a3c 9183 bc3b 6a98 1cbb
000003d0: 5e8b bbbc d1b9 053e ea40 a9bc c82b b2bd
000003e0: f1aa 7f3d ab50 98bd 5ec4 013e 7876 963d
000003f0: 261d 94bd ef7d a6bd 9515 483d 26ac 213d
0.023122251 0.11387888 -0.097816125 0.03329174 -0.030633062 -0.030109495 -0.10670688 -0.013693421
0.029413285 0.067051396 -0.09298286 0.059518985 0.047771104 -0.1141221 -0.060718264 0.10846313
0.016276691 -0.11953171 -0.12132194 -0.07698806 -0.016864121 -0.08802049 -0.09969115 0.0698693
0.038202494 -0.0006044735 -0.093616985 -0.052635383 0.0048143696 0.06968343 0.07592486 -0.08627194
-0.06722963 -0.09914939 0.123170316 0.094441555 0.09612813 -0.07064275 0.017975256 -0.046897333
-0.06037302 -0.08177723 -0.076109484 -0.0029736687 0.039793972 0.02721303 0.0567051 -0.05712014
0.08413271 -0.06614936 -0.09522608 0.03068384 -0.013303654 0.08796115 0.009778391 -0.1268967
0.0033847545 -0.012525369 0.02649054 -0.08341664 -0.007799258 0.098301634 0.085248746 -0.1394776
-0.14634599 -0.033844415 0.091561005 -0.0127749955 0.12102494 -0.0812127 -0.059085384 0.07126862
0.06255993 -0.11551621 -0.007227268 0.12525429 0.020480357 -0.07253493 0.015172438 -0.113296926
0.038061664 0.010706837 0.032708064 -0.06919864 0.029011417 -0.0055686864 -0.13733377 -0.08738458
0.14616013 0.0690823 0.07728955 0.083321415 0.07248598 0.034908395 -0.08099555 -0.1374647
0.041521747 0.083269134 -0.008485342 0.048641663 0.012792082 -0.0413227 0.011122341 -0.00099582
0.03048492 0.10684477 -0.1238839 -0.11825411 -0.0068306453 -0.007067608 -0.049879678 0.050204575
0.0200679 0.03289648 0.085702755 0.010355823 0.10437562 0.0404495 0.012226768 0.06074046
-0.0086763855 -0.013166453 0.022419613 -0.12744841 0.08337788 -0.045706548 0.09994777 -0.014084761
0.0933729 -0.0009622036 0.054413415 -0.04642651 -0.045882374 0.0738994 -0.037711184 -0.007175911
-0.09230744 0.10246003 0.012320265 0.11528396 -0.119866885 -0.1089626 0.030139681 -0.039679788
-0.07932038 -0.028779363 0.040027063 0.0014368626 0.047581613 -0.0028447344 0.048845965 0.12937948
0.1272214 -0.051831365 -0.04956078 0.04951776 -0.08410332 -0.05212678 -0.03841654 -0.116452955
0.0829145 0.13153921 0.04363719 0.0071777576 -0.07886928 -0.01281598 -0.0888951 0.08796692
-0.014161232 -0.022641 -0.011878195 -0.028024528 -0.04666879 0.008018211 0.0136289215 0.008274253
0.027356086 0.00025115427 -0.07368661 -0.078538574 0.08206371 -0.061960716 0.116969004 0.0822708
-0.12723953 -0.07572365 0.10502032 -0.08807567 0.099498 -0.0007605156 -0.00024105381 0.09679025
0.021710502 0.059265234 0.082038336 0.014568022 -0.07390781 -0.1199845 0.009397899 -0.09730773
-0.08763112 0.03425232 0.11846233 -0.0058648223 0.016199734 -0.026354492 0.07022958 -0.06376679
-0.06897141 -0.057638776 0.06416776 0.083235 -0.04455295 0.0838535 -0.08397044 -0.006193748
0.05427297 0.092569426 -0.00510539 0.011851094 -0.06991419 0.074091844 -0.084118195 0.009062761
0.04039344 -0.13173737 0.050396323 0.07402533 -0.01664043 -0.095215105 -0.040571805 -0.02573381
0.045544088 -0.017520312 0.036306437 -0.008441925 -0.016793435 -0.13910969 0.027711352 -0.012594733
0.024472121 0.011382127 0.0057529886 -0.0023894557 -0.022893604 0.13059165 -0.020660836 -0.08699757
0.06241888 -0.07437261 0.12672564 0.07346815 -0.07232122 -0.08129489 0.048848707 0.039470814

features.1.fused_conv.1.weight f4 [32]
00000000: 364c 7b3f 67c7 7f3f cba5 783f 2158 7f3f
00000010: 35ac 803f a503 813f c026 7d3f 3ee8 7b3f
00000020: 398a 7a3f 4cc1 823f 9e05 803f 8b91 843f
00000030: e1ba 7d3f 4396 833f 6155 823f c88f 803f
00000040: 4c36 7d3f 8157 7a3f ad6c 7a3f ae39 7f3f
00000050: 5530 7f3f c744 7a3f 0990 823f 606e 7e3f
00000060: 2a6a 7b3f 50cf 793f dc0b 843f 769a 843f
00000070: f72a 853f 5c85 823f 8f74 7a3f 6ea8 823f
0.98163164 0.9991364 0.9712798 0.9974385 1.0052553 1.0079237 0.9888725 0.9840125
0.9786716 1.021524 1.0001714 1.0356916 0.9911328 1.0280231 1.0182306 1.0043879
0.98910975 0.9778977 0.97822076 0.9969739 0.99683124 0.97761196 1.0200206 0.9938717
0.9820887 0.9758196 1.0316119 1.0359638 1.0403737 1.0196948 0.97834104 1.0207651

features.1.fused_conv.1.bias f4 [32]
00000000: 7a3e 80bb 9665 d6bc 6b30 f1bb d367 10bd
00000010: 73cf 543c e76e a2bb 39b7 cebc 4e7e 8cbc
00000020: 2ac3 823b c2ca be3c 58e0 22bc 2191 8c3c
00000030: 4a49 a1bc 067a 433c ee90 313d 5182 673b
00000040: f011 3d3c 8d1e 8ebc 1079 02bd 03ac 083c
00000050: a468 6f3c f0a8 43bc ac0f ffbb 3ac8 00bc
00000060: 178c 29bb c43f 36bb f57d 293a 5b70 00bc
00000070: c166 c83b 9805 ce3c 4cbc 04bd 3f2a a13c
-0.003913698 -0.026171487 -0.007360508 -0.035255264 0.012988913 -0.0049570682 -0.025233852 -0.01715007
0.0039905505 0.023290042 -0.009941183 0.017159047 -0.019688267 0.011930948 0.043351106 0.0035325477
0.011539921 -0.017348552 -0.031853735 0.008341792 0.014612351 -0.011942133 -0.0077838507 -0.007860238
-0.0025870854 -0.0027809003 0.00064656074 -0.007839288 0.006115765 0.025149152 -0.032406136 0.019673465

features.1.fused_conv.1.running_mean f4 [32]
00000000: 6813 f4be 85f3 9e3e c329 643d aad5 3a3e
00000010: 5886 47be c891 aebd f93a 54be 28e9 ca3e
00000020: 7bad 1a3d 241b 55be e463 003f 3062 36bd
00000030: c26b 56be b9b7 8a3f 0a25 cc3e 9677 86be
00000040: b750 c2be bb98 99be 5f61 63be efc6 333e
00000050: e828 2dbe d2fb 953e a687 bbbe 87e3 793e
00000060: 7c85 16bd bcc4 c23e c177 5abf af28 ab3e
00000070: 0cd3 b3be 7fb5 873e 83aa 14be efbd c0bd
-0.47671056 0.31045166 0.05570389 0.18245569 -0.19484842 -0.08523899 -0.20725621 0.3963101
0.0377631 -0.20811135 0.5015242 -0.044527233 -0.20939544 1.0837318 0.3987201 -0.26263112
-0.37952206 -0.29999337 -0.22205113 0.17556356 -0.16910136 0.29293686 -0.3662693 0.24403201
-0.036748394 0.3804072 -0.8533898 0.33429477 -0.35121953 0.26505658 -0.1451817 -0.09411227

features.1.fused_conv.1.running_var f4 [32]
00000000: d8ed 3c3e a950 603e fd72 863e 3782 853e
00000010: 26d8 8a3e ea3b 513e edbd 1a3e 7760 5f3e
00000020: addd 283e 5832 183e 3ec2 0c3e 976d 1d3e
00000030: 7369 683e c517 5f3e ce0b 353e f112 843e
00000040: ad36 313e 1d69 843e 4b9c 7c3e 6e16 c23e
00000050: e2e7 3c3e 0b7e 113e 39c2 143e 1f85 243e
00000060: 9af4 453e a95e 1d3e 992c 7b3e 7572 a53e
00000070: 52f3 a63e 46b3 c43e 712a 8e3e 1110 2d3e
0.18450105 0.2190577 0.26259604 0.2607591 0.27118033 0.20433012 0.15111513 0.21814142
0.16490813 0.14862955 0.13745973 0.15373836 0.22696476 0.21786411 0.17680284 0.257957
0.17306013 0.25861445 0.24668996 0.37907737 0.18447831 0.14208238 0.14527215 0.16066407
0.1933159 0.15368141 0.24528731 0.32313886 0.32607514 0.38418025 0.27766755 0.1690066

features.2.fused_conv.0.weight f4 [64, 16, 3, 3]
00000000: e7d2 253d 2f21 58bd d636 df3d 9200 8d3d
00000010: ec92 e03b 69d0 8abc a575 073d 17df 92bc
00000020: 9ec1 e9bc f6b8 b1bd fc18 c2bc 34cc bdba
00000030: dbc2 253d 44ce 59bc 319f 943c 21c8 67bd
00000040: f333 233d a90f 8c3c 8435 88bd 6c29 c7bd
00000050: 737c 963d 817e fa3c 4c59 a83d d074 4e3c
00000060: b682 4d3d dfdc bdbd 97df 35bd 9dbb d83d
00000070: 12ed 8bbd cab5 0ebd 8867 b53c 846c 9abc
00000080: b1a6 e3bd cf5a 003d 28fb 8abd 1be8 03bd
00000090: 633d 813d 4261 793d a19e 393d d4fe a43d
000000a0: 2f02 82bd b7da a33d 023e bb3c 6688 ee3c
000000b0: 40d5 8e3a 1328 8d3d 178b 96bd 035c 8c3d
000000c0: a38d d9bc 8507 d6bc c3e7 4b3d 3002 963d
000000d0: d5ac 513d a6cd b63d 7004 6dbd 2969 943d
000000e0: ba78 023d 52ce 023c 2923 5a3d 7a1e cc3c
000000f0: 8343 e33c 34ab 5bbd 7abb 9abd f6d8 8c3c
00000100: 7b5a 3c3d 7f71 2b3d a156 cdbc e95d ffbc
00000110: 0a18 a7ba 69fa 3c3d c1eb 233d e873 0b3d
00000120: b90a 4e3d d0ec 993c 7e20 5e3d fb24 68bd
00000130: 6f4d ab3d 4d96 133d 625f f2bc f601 343c
00000140: f9b7 603c 1a14 a3bd 2a5e 0a3d f18c 4ebd
00000150: 466b 81bd 5b3e 6cbd 6b13 7f3d 68df 48bd
00000160: d848 abbb e454 973d 302f 1f3c d958 9c3a
00000170: bfa5 c3bc f0f1 5e3d a597 77bc b2bc 57bc
00000180: 5377 e1bc 16ea bcbc 3ee8 37bd 2325 083c
00000190: f082 9cbc 7dac b53d 593f 453d 944f 2ebd
000001a0: 7968 363d 6bbe c7bb 5a90 d3ba 68d7 56bd
000001b0: e7e0 82bd ad9f f9bd c06a 3fbd b908 bcbb
000001c0: b094 cabc 90e5 9fbd 94c5 993d 09bd 0cbd
000001d0: 8328 403d f759 aa3d 9987 cabd f139 20bd
000001e0: 3d4d a1bc a80a c0bd 099d dcbd 720a 623d
000001f0: beb3 4dbc 2d32 b83d 8ce3 a4bc 0a6a f7bc
00000200: 0027 8bbd 59ea b43c 53cf 2dbd fba6 bbbc
00000210: b904 50bd e653 1ebd 7931 893d db0e 70bd
00000220: 231e 063d ac0b 87bd 41ed 51bd a7b3 d73c
00000230: 3b0c d6bc 7afe 40bd 4567 033d 47b3 d13d
00000240: 7f85 fa3b 6003 143d 8fe0 2cbc 5691 c3bc
00000250: c5a3 633c 8ac1 16bd eb51 743d f13a 023d
00000260: 26d7 03bc 2b49 093c c78e 3f3d e963 1cbd
00000270: fe5d a43b 4698 223c c94b a73d 789d b5bd
00000280: 5475 01bd d48b f73a e879 45bd 95a8 7cbd
00000290: 2aca b1bd 21b0 c0bb 9bf1 153d 5c47 d73c
000002a0: 7acf 843d 3c2e bdbd 3ea9 45bc 4829 d43d
000002b0: f22d c2bc d64f 333d 3226 1fbd 2d35 803d
000002c0: 5b23 133d 4b1e 68bc 006a 3ebd 78b4 423d
000002d0: dbad a5bd 49f0 f0ba 97be 0cbc 47c9 2ebd
000002e0: 1df8 923b 64d6 823d a079 9b3d 648d 7b3d
000002f0: d421 1c3d fb25 4f3d db97 68ba b6c2 90bd
00000300: 12a8 9f3c 5fb9 363c caa6 0abd a60d ba3d
00000310: 8ba8 e83c 53e7 a63d 21a4 613d 39e2 fa3a
00000320: 2bed efbc f6d3 5dbc 5e54 57bc d945 30bd
00000330: 86f4 b1bd abfa c5bd 5f79 cd3c 8084 96bd
00000340: 93e9 ca3d 5976 363c c0d8 a2bb 7e53 7a3d
00000350: 787c 243c 301a 883c fe38 73ba bf94 853c
00000360: 7178 3a3d 828a 11bc 7de3 67bd ca38 13bd
00000370: eaf1 84bd 8299 8c3d 068a 903d 5fdb 553b
00000380: 6884 82bd 66e0 3fbc 0475 9abc e50a 51bd
00000390: a70e 00bd 763e dc3c a201 acbb a8e7 c1bd
000003a0: 3265 91bd a3ef ef3b 1de8 d2bd 9a71 403c
000003b0: 4a19 683c 7188 bebb 03fd aebd c738 f73c
000003c0: 7cdb 073d 726e 353c 47fd 2e3c 443c b0bc
000003d0: a443 abbd a562 333c e7f4 52bd 41e4 bdbc
000003e0: a05c 1b3d e164 8dbd 1878 c2bd 241f df3b
000003f0: ad0e c03c b231 0a3d 3f38 61bb c6c2 973c
0.040484335 -0.05276602 0.10899131 0.068848744 0.006853452 -0.01694508 0.03307118 -0.017928643
-0.028534707 -0.086778566 -0.023693554 -0.0014480413 0.04046903 -0.013293806 0.018142315 -0.056587342
0.039844465 0.017097311 -0.06650832 -0.097246975 0.073479556 0.0305779 0.08220157 0.012601092
0.050173484 -0.092706434 -0.044402685 0.105826594 -0.06832327 -0.034841336 0.022144094 -0.018850572
-0.11115778 0.0313366 -0.067861855 -0.032203775 0.06310537 0.060883768 0.045317296 0.08056417
-0.06348073 0.08000701 0.022856716 0.029117774 0.0010897294 0.06892409 -0.07350748 0.06853487
-0.026556795 -0.026126632 0.049781572 0.07324636 0.051190216 0.08925943 -0.05786556 0.0724662
0.031853415 0.007983761 0.053256188 0.024916876 0.027742153 -0.05363007 -0.075552896 0.017193299
0.045984726 0.041856285 -0.025065722 -0.03117271 -0.0012748253 0.046137247 0.040019754 0.034046084
0.050303195 0.018789679 0.054230206 -0.056675892 0.08364379 0.03603201 -0.029586498 0.010986796
0.0137157375 -0.079628184 0.033781208 -0.05042738 -0.06319289 -0.057676654 0.062274378 -0.04904118
-0.0052271895 0.073892385 0.00971584 0.0011928334 -0.023882745 0.05442995 -0.0151118385 -0.013167547
-0.027522719 -0.02306084 -0.044899218 0.008309635 -0.019105405 0.0887079 0.048156116 -0.04255636
0.044533227 -0.0060956976 -0.0016141043 -0.05245152 -0.06390553 -0.12188659 -0.046732664 -0.0057383445
-0.024729103 -0.078074574 0.07508388 -0.034359965 0.046913635 0.08317941 -0.098891445 -0.039117757
-0.01969015 -0.093770325 -0.107721396 0.055185743 -0.012555061 0.08993945 -0.020128034 -0.03020193
-0.06794548 0.022084402 -0.042434048 -0.02290677 -0.050785754 -0.03865423 0.06698889 -0.058607917
0.032743584 -0.06594023 -0.051251654 0.026330782 -0.026128879 -0.047117688 0.032080907 0.102392726
0.0076453085 0.03613603 -0.010551586 -0.023873013 0.013894026 -0.036805667 0.059648436 0.031794492
-0.008046901 0.008379261 0.046767022 -0.03818122 0.0050160876 0.009924 0.08168752 -0.088679254
-0.031606033 0.0018886277 -0.048211962 -0.06168421 -0.08681138 -0.005880371 0.036607366 0.026279144
0.064848855 -0.09237334 -0.012064276 0.10359436 -0.023703549 0.04377731 -0.038854785 0.062601425
0.03592239 -0.014167379 -0.04648781 0.04753539 -0.08089801 -0.0018382157 -0.008590362 -0.04267242
0.004485144 0.06388548 0.075915575 0.061414137 0.0381182 0.05057333 -0.0008872726 -0.07068388
0.019489322 0.011152594 -0.03385047 0.090846345 0.02840068 0.0814959 0.055088166 0.0019140906
-0.029287895 -0.013539305 -0.013142673 -0.043035362 -0.08689217 -0.09666952 0.025082288 -0.07349491
0.09907832 0.011136615 -0.0049696863 0.06111478 0.010039441 0.01661405 -0.0009278207 0.01630628
0.045525018 -0.0088831205 -0.056613434 -0.03594283 -0.06491454 0.06865217 0.07057576 0.0032631976
-0.06372911 -0.011711216 -0.018854626 -0.05103578 -0.031263974 0.026885252 -0.005249218 -0.09468013
-0.070993796 0.007322268 -0.10298178 0.011745835 0.014166186 -0.005814605 -0.08544352 0.03017844
0.0331683 0.0110736955 0.010680503 -0.021513112 -0.08362511 0.010948812 -0.05150309 -0.023180129
0.03793013 -0.06904007 -0.09495562 0.006809132 0.023444498 0.0337388 -0.00343658 0.018525492

features.2.fused_conv.1.weight f4 [64]
00000000: 15fd 803f 401c 7e3f 75dd 813f ce17 813f
00000010: 16b9 813f 659a 7a3f 481d 833f 6fc8 853f
00000020: c915 833f 2f0f 803f 9079 7f3f 8c43 7d3f
00000030: ed6a 803f aaf5 783f bc24 743f bf81 823f
00000040: f4c6 753f 5d34 763f 11f8 7c3f 57ff 7f3f
00000050: 3368 7b3f 3da4 7a3f 383a 7f3f 6d45 833f
00000060: 3de3 803f 639e 7b3f b253 7e3f c066 793f
00000070: 873c 7d3f 7d78 793f 8b89 843f 4bd1 813f
00000080: d9ae 7d3f 684b 823f 80a6 7f3f d527 7f3f
00000090: 3029 793f 1b33 793f 0bf1 853f 0933 833f
000000a0: a252 7b3f 0a89 803f f3ad 833f 3440 7d3f
000000b0: 1c4e 823f 4f40 833f 48de 7c3f 4705 7b3f
000000c0: d9b3 7c3f 2e13 7d3f 5488 7a3f c812 813f
000000d0: 253d 783f 0e3e 743f b13f 843f fae3 843f
000000e0: 582e 793f afff 7a3f 4dd1 7c3f 2fc6 813f
000000f0: 476a 823f 35e7 823f ecd6 783f ae14 813f
1.0077235 0.99261856 1.0145708 1.008539 1.0134609 0.9789184 1.0243311 1.0451792
1.0241023 1.0004634 0.99794865 0.98931193 1.0032631 0.97249854 0.9536855 1.0195845
0.96006703 0.9617365 0.9881602 0.9999899 0.9820587 0.9790686 0.9969821 1.0255562
1.0069348 0.98288554 0.9934646 0.9742241 0.9892048 0.97449476 1.0354475 1.0141996
0.9909492 1.0179262 0.99863434 0.99670154 0.9732847 0.97343606 1.0464185 1.024995
0.9817296 1.0041821 1.028746 0.9892609 1.0180087 1.0254 0.98776674 0.9805493
0.98711926 0.9885739 0.9786427 1.0083857 0.969683 0.9540719 1.0331937 1.0382073
0.9733634 0.9804639 0.9875687 1.0138606 1.0188683 1.0226809 0.97202945 1.0084436

features.2.fused_conv.1.bias f4 [64]
00000000: 6cdf 59bc 9415 7bbc 8499 8dbb 6e54 0cbd
00000010: bb74 9dbc 5041 9dbc d4a4 88bb 00c9 223c
00000020: 2e84 94bc 649a e7bb d641 87bc c769 c5bb
00000030: 95b2 ecbb a965 11bd 2ee6 3fbd 86f1 843b
00000040: efa4 f9bc 1751 0ebd b3a8 e8bc 4e70 063c
00000050: 39e0 0dbc 0752 36bb cda0 7dbc e6cb ecbb
00000060: 0ef9 02bd a239 8ebc ad94 f5bb 7bd9 e0ba
00000070: 18ee a1bc c976 10bd 9e3f 593c 4958 183d
00000080: 8bad 0abc 4a91 c23c efeb 483c ef3b 26bc
00000090: 07f7 62bc 63d1 8fbc 8ffd 1c3c 86b3 93bc
000000a0: 597e 933b 5fbf 3e3b d9ce 343c 3d6f b1bc
000000b0: 845b 23bb aa0c c2ba 9738 5dbc ea06 30bc
000000c0: dc0d c5bc 9c7d d0bc 8f95 aebc b4ee f4bb
000000d0: f8b3 1cbd 808a 8fbc 7dd4 ac3c 727b 78bc
000000e0: f5b8 34bc 400c 4bbc 2bee acbb 934e b4bb
000000f0: d123 3f3c 49d0 19bc aa71 c4bc 656c 593b
-0.013297897 -0.015324969 -0.004321279 -0.034260206 -0.0192207 -0.019196182 -0.0041700397 0.009935617
-0.018129434 -0.0070679653 -0.016510885 -0.0060245725 -0.007223437 -0.03549734 -0.046850376 0.004057112
-0.030474154 -0.034745302 -0.028400755 0.008205486 -0.008659416 -0.0027819888 -0.015480232 -0.007226455
-0.0319758 -0.017361466 -0.00749453 -0.0017154658 -0.019766852 -0.035269532 0.013259796 0.03719357
-0.008464227 0.02375092 0.012263282 -0.010146125 -0.013852841 -0.017555898 0.009581937 -0.01802994
0.004501146 0.0029105765 0.011035644 -0.021659488 -0.0024926374 -0.00148048 -0.013502262 -0.010743836
-0.02405446 -0.02545052 -0.02131155 -0.0074747447 -0.03825757 -0.017522097 0.021097416 -0.01516615
-0.011030425 -0.012393057 -0.0052774153 -0.005502531 0.011666254 -0.009388038 -0.02397998 0.003317618

features.2.fused_conv.1.running_mean f4 [64]
00000000: e764 e5bc 3ba0 a93b c157 f5be 8655 c13e
00000010: 2815 613f 64e8 563e 32fc 143f aac0 4abe
00000020: cbc0 e23e 9181 863e a943 123f 1a43 8cbf
00000030: d938 fe3e 063d 843f 7740 8f3f 67ed 3f3f
00000040: 582c 013f 5027 95bd 3495 4cbf eaec 3b3f
00000050: 6b2f b7be 1c77 2fbf 5d7e ca3e d05b 173e
00000060: 37e6 a83d 8c8f ce3e b757 00bd 1486 a5be
00000070: 3b78 44be 6640 41bf 334d 8d3d afa3 cebe
00000080: 8ff6 8fbd 7765 9f3f 35df 7dbe f1a7 88be
00000090: 4340 cdbe 3755 c13e a46a 5d3d 9971 963f
000000a0: 9f2d 2e3e 8b1d e3bb 22e9 aebe c209 c33d
000000b0: 8502 04bf e8d3 51bf 509a 45be d737 6abe
000000c0: ba55 223f f0e0 233e 4e2f 91bd 95e1 0cbe
000000d0: e48a 6a3e 7686 01bd a4de 38bf 1789 c5be
000000e0: 0f4e 16bf fa10 a6bd 9b13 fe3d 927e 063f
000000f0: c18a 00bf 38a2 983d a556 be3d 280f 393f
-0.028002216 0.0051765717 -0.47918513 0.37760562 0.87922907 0.20987087 0.5819732 -0.19800058
0.44287714 0.26270726 0.5713449 -1.0957978 0.49652746 1.0331123 1.1191548 0.7497162
0.5045829 -0.07282889 -0.79915166 0.7340838 -0.35778365 -0.6854112 0.39549533 0.14781117
0.08247035 0.40343893 -0.03133365 -0.32328856 -0.1918649 -0.7548889 0.0689949 -0.40359256
-0.07029449 1.245284 -0.24792178 -0.2669063 -0.4008809 0.37760326 0.05405678 1.1753417
0.1700959 -0.006931012 -0.3416224 0.095233455 -0.51566344 -0.8196397 -0.19297147 -0.22872864
0.6341206 0.16003776 -0.07089101 -0.13757928 0.22904545 -0.031622373 -0.7221472 -0.38581154
-0.5871286 -0.08108707 0.12406083 0.5253688 -0.5021172 0.07452816 0.0929387 0.7228875

features.2.fused_conv.1.running_var f4 [64]
00000000: a4b4 a23e 2242 773e 6cca 4f3e caf9 953e
00000010: 7cde 9e3e 9445 a43e cf0c 643e 62e4 8e3e
00000020: 89ca 983e d935 ae3e fdb0 a03e ea6e 9f3e
00000030: b741 973e c54c c93e 7200 a73e daa3 843e
00000040: 7298 823e 3f62 ae3e f34c 993e 0861 8e3e
00000050: 558c a33e 3b26 943e 5fce 993e bf68 943e
00000060: 92a6 863e 4dfa b53e 127d 813e 2e09 913e
00000070: ab5e 8f3e 9193 733e 6003 813e 522c 9a3e
00000080: 7b3f c83e ccfe 773e 26a1 993e bf3d 4d3e
00000090: de1c 723e c330 603e e6c1 593e a84c 893e
000000a0: 5abf 6d3e d1b3 9f3e 0fba 763e ec91 703e
000000b0: 99ee 933e 1fc1 933e d141 b03e 8417 a43e
000000c0: fb9d 7a3e ec03 793e 5ee2 bd3e 8edd 803e
000000d0: 7cc4 8f3e 7692 8d3e e53a 9d3e 4240 bf3e
000000e0: dbf6 993e 7d8e 9d3e 6f64 a63e 28ab c43e
000000f0: 1603 b03e ee39 993e 9581 ac3e 32b4 723e
0.31778443 0.24146321 0.20292062 0.29292136 0.31029117 0.32084334 0.22270511 0.27908617
0.29842022 0.34025458 0.3138503 0.31139308 0.29542324 0.39316383 0.32617527 0.2590626
0.25506932 0.3405933 0.2994152 0.27808404 0.31943002 0.28935418 0.3004026 0.28986165
0.26298958 0.35542527 0.25290734 0.28327316 0.28001913 0.23786761 0.25197887 0.3011194
0.39110932 0.24218291 0.3000576 0.20043086 0.23643824 0.21893601 0.21265373 0.26816297
0.23217526 0.31191877 0.24094413 0.23493165 0.28892973 0.28858277 0.34425214 0.3204919
0.24474327 0.24317902 0.37086767 0.25169033 0.28079593 0.27650803 0.30708995 0.37353712
0.30071148 0.30772772 0.324985 0.38411832 0.34377354 0.2992701 0.33692613 0.23701552

features.3.fused_conv.0.weight f4 [64, 32, 3, 3]
00000000: c651 f03c 9e1c babc 0bfa 8cbd 8bdb 1b3d
00000010: 60d0 823d 2f04 223b d225 503d f434 9a3d
00000020: 9114 72bd 3109 d2bc d1c0 043c 133b 663d
00000030: 3c22 aabb 7305 71bc c399 823d e1a0 16bb
00000040: f8f6 5c3d fadb c1bc 6827 173d 7fd3 4e3d
00000050: 5abd 193d 3abc bc3c 458c d43d 7ecf 433d
00000060: 19ff 6e3c 1a5a 4bbc 5d0c df3c 0daf 38bb
00000070: ff30 1cbc c096 8c3d 0c6a bcbc 185c 633d
00000080: aa61 913d 8c99 65bc cfbb 073c 086d 10bd
00000090: d0e4 27bc 4254 ffbc bfe0 ae3d 88f7 d4bc
000000a0: 9133 473d 4455 11bd f896 8d3d f166 09bd
000000b0: 02db c23c 1528 fbbb 7d26 903d 4608 cab9
000000c0: 25e1 f5bb 2548 843d 6aa3 c03c 08ab ab3d
000000d0: 3843 4dbc 4d55 8f3c 9bf8 18bb 8431 debc
000000e0: 368d 0abc fe3c 0cbc a8ac 19bd afd9 39bb
000000f0: 19bc f0bc 5da6 34bd c3eb 5abd 7379 623d
00000100: 15ba 76bd ce90 38bd 4536 55bd 4ec4 7abd
00000110: e1c6 1e3c 77dc 873c f9b1 49bd 878b 3bbd
00000120: 7798 cbbd f94c 06bd 9eab a9bd ee0c 7ebd
00000130: a33d 8b3d 8de9 0b3d dcf0 5dbc 93c5 bb3d
00000140: f2ed f93b ed74 a63c fc56 923d c01b a1bd
00000150: c318 cfbb 4258 403d 5b63 f7bc 5704 0e3d
00000160: 86c7 3dbd 22b4 d3bb 9837 493b a9ab d53b
00000170: e348 353a 6c92 6a3d ccc5 23bc d78f 513d
00000180: dbd9 ce3c 3201 983c 6717 f7ba 9266 0b3d
00000190: a4d1 9d3c cc5f 683c 18fc 1fbc f8ed 453c
000001a0: 66b2 29bc 18fe 183d 96e9 533d 4f52 09bc
000001b0: f521 f43b f246 ddbc 13e4 063d e306 a4bc
000001c0: b774 a73c a757 6a3d 1346 4bbc 9d02 aa3c
000001d0: 41bb 9ebd a0cc 2cbc f310 efbc 2e11 cb3d
000001e0: 5970 99bc edf9 2b3b 7b34 7b3d 3011 b0bc
000001f0: 26e5 1d3d 27a7 bcbc 12dd 05bd 1352 e7bb
00000200: 5e48 c43c 91cc a6bc c7c6 343d 4111 9cbc
00000210: 8605 d83c 6246 c23c f537 1ebd a889 c43c
00000220: df5b 963c 072f ecbc f7a6 82bd 7f38 093d
00000230: a373 d93c 5a60 ae3c 3f94 07bd 687b 44bd
00000240: 22cc 6fbc 5967 2f3d 0687 a93c 3c1c 70bd
00000250: 48f4 ddbc 818f 8d3d 5442 533d aaae 80bc
00000260: 1f83 89bc 6a53 323c 6895 90bc b20d 513d
00000270: e776 78bc a6db 933d f3ae 053c e448 123d
00000280: 5b68 373d f880 293c 3994 81b9 736b 1cbd
00000290: b576 163c c7f0 2fbd f33f 383d a3fe 21bd
000002a0: f5d9 133d b797 0f3d dda3 643c 165d 653c
000002b0: 248b b4bc e8f0 af3d 9d78 293d bb91 a7bc
000002c0: 640a 283d 541f a03b 2d51 2fbc 33fb 3c3d
000002d0: 7b42 1b3d c718 103c 2e6c bbbb 9215 1e3d
000002e0: 8ba8 0d3b fc19 30bd f7f1 3dbc 86d5 59bd
000002f0: 2ea8 01bd 34b3 503d defe 3c3d 8c05 103b
00000300: 4e73 a4bc c9c4 4f3c ace3 173b 6f2a 8c3d
00000310: d8ec 193d e488 70bd 6924 84bc 1890 24bd
00000320: 4af9 c03b 07fe 4ebc 883f fa3a edf2 fe3c
00000330: 56b6 363d 48fc 373d 6c44 20bb 7c1c 4ebc
00000340: c93f 5abd 54e0 593d 4036 8cbc b30c 5c3d
00000350: bc03 4fbc 6e23 353d c303 30bd 9b87 92bc
00000360: 9b45 81bc 3c69 02bd d866 8e3d 18e2 733d
00000370: cddd 683d 5fd5 323d dcdb a1bc c0ea 16bd
00000380: e04c 36bd f2c9 11bd 54c7 9a3c 2203 4c3c
00000390: 99a8 143d 04bf 75bc 41a2 ec3c d544 543d
000003a0: c892 03bd d719 07bd a0d1 523c 1c8e 7fbd
000003b0: eff9 5e3c 598e 83bc a6ce ce3c 438d 51bd
000003c0: 702f 86bd 40d2 13bd d156 eabc fff9 20bd
000003d0: c8df 943b 6282 91bb 085c 1c3c c696 533d
000003e0: eba1 b3bc 10ee 95bc 921b 13bc b635 1abd
000003f0: f1da 623d 17c9 f13c 5836 fabb 2f31 0c3c
0.029335868 -0.022718724 -0.068836294 0.03805117 0.063874006 0.0024721732 0.05081732 0.07529631
-0.059101645 -0.025639148 0.008102612 0.05620868 -0.0051920693 -0.014710772 0.06376984 -0.0022984075
0.053946465 -0.023664463 0.036902815 0.050494667 0.037534095 0.023038972 0.10378317 0.0478053
0.014587187 -0.012411619 0.027227575 -0.002818051 -0.009533166 0.06864691 -0.022999786 0.05550775
0.07098706 -0.014013659 0.008284523 -0.03526023 -0.010247424 -0.031168107 0.08538961 -0.025996938
0.048633162 -0.035481706 0.06913561 -0.03354544 0.023786072 -0.0076646903 0.07038591 -0.00038534607
-0.007503646 0.06459073 0.023515422 0.08382231 -0.012528233 0.01749673 -0.002334154 -0.02712322
-0.008456519 -0.008559464 -0.037518173 -0.002835851 -0.029386567 -0.04410397 -0.053447496 0.055291604
-0.060236055 -0.04505997 -0.05205371 -0.061222367 0.009690971 0.016584618 -0.049241994 -0.04578736
-0.0994119 -0.03278825 -0.082846865 -0.06202405 0.06798866 0.03415828 -0.013546195 0.09168544
0.0076272422 0.020319426 0.07145497 -0.07866621 -0.0063200905 0.04695917 -0.030198744 0.034672108
-0.04633286 -0.0064606825 0.0030703302 0.0065207076 0.0006915463 0.057268545 -0.009995889 0.051162567
0.025250366 0.018555257 -0.0018851579 0.034033366 0.019265004 0.014182996 -0.009764694 0.012080662
-0.010357475 0.037351698 0.051736437 -0.00838144 0.007450337 -0.027011368 0.032932352 -0.020022815
0.020441396 0.057212498 -0.012406844 0.0207532 -0.077505596 -0.010546833 -0.029182887 0.09915386
-0.01873033 0.0026241497 0.061329346 -0.02149257 0.03854861 -0.023028923 -0.032681532 -0.0070593446
0.023960289 -0.020361217 0.04413488 -0.019051196 0.026369821 0.023715202 -0.038627584 0.02399142
0.018354354 -0.028831018 -0.06379502 0.033501144 0.026544398 0.021286178 -0.033100363 -0.047969252
-0.014636071 0.04282317 0.020694267 -0.058620676 -0.027094021 0.06912137 0.051576927 -0.015708286
-0.016786156 0.010884145 -0.017649367 0.05103845 -0.015165067 0.07219629 0.008159387 0.035714045
0.044777256 0.01034569 -0.00024715232 -0.03818841 0.009183575 -0.042954233 0.04498286 -0.03954948
0.036096532 0.035056796 0.013955084 0.013999244 -0.022039004 0.08590871 0.04137479 -0.020455232
0.041025534 0.004886547 -0.010700506 0.046138 0.037905198 0.00879497 -0.005719683 0.03859479
0.0021615352 -0.04299353 -0.011593333 -0.053182147 -0.03165453 0.05095215 0.046141498 0.0021975962
-0.020074513 0.012681195 0.0023176474 0.06844031 0.037579387 -0.0587243 -0.016130643 -0.04017648
0.0058890926 -0.012633807 0.001909242 0.031121695 0.044607483 0.04491833 -0.0024454845 -0.012580033
-0.053283487 0.05319245 -0.017115712 0.05372305 -0.012635168 0.04422324 -0.042972337 -0.017886927
-0.01578026 -0.03183864 0.0695321 0.05954179 0.05685215 0.043660518 -0.019758157 -0.03684497
-0.044506907 -0.03559298 0.018893875 0.012451919 0.0362936 -0.014999155 0.028885962 0.051823456
-0.032122403 -0.032983627 0.012867361 -0.062391385 0.0136093935 -0.016059088 0.025245022 -0.05116011
-0.06552017 -0.036089182 -0.02860585 -0.039300915 0.0045432784 -0.0044405917 0.009543426 0.05165746
-0.021927794 -0.018301994 -0.008978741 -0.03764888 0.05538458 0.029514832 -0.007635873 0.008556648

features.3.fused_conv.1.weight f4 [64]
00000000: 7aae 853f 7063 873f 33f9 863f f2a3 843f
00000010: d539 843f ea3c 863f 8b3f 863f 7c43 843f
00000020: b62c 873f 20e2 853f 2008 843f d983 863f
00000030: 9b1b 843f 6680 863f dafa 853f 003c 873f
00000040: 7564 853f d5ab 853f 780a 873f 1fcf 853f
00000050: fa94 853f bbdf 833f 14ca 853f 271a 853f
00000060: f912 863f e1cf 863f eb16 853f 250b 853f
00000070: 97e6 853f d81a 863f 35d7 863f eb7a 863f
00000080: b32c 863f a95a 863f 64d5 843f 3adc 863f
00000090: 313a 873f 6ad4 853f 2e8e 863f be23 853f
000000a0: 392e 873f bf0a 853f 140e 873f 14fd 833f
000000b0: 3139 873f 0b0c 843f 9be5 863f faf0 863f
000000c0: 128f 843f 95c9 863f b776 853f c2da 853f
000000d0: 5027 853f eb1a 853f cbef 833f 0ebd 863f
000000e0: bc87 863f e93d 863f dc87 863f 8567 873f
000000f0: b5fc 843f a55b 863f 5f2e 853f 3a1d 833f
1.0443871 1.0577221 1.05448 1.0362532 1.0330149 1.048734 1.0488142 1.0333095
1.056052 1.0459633 1.031498 1.0508987 1.0320925 1.0507934 1.0467179 1.0565186
1.0421282 1.0443064 1.055007 1.0453833 1.0436089 1.0302652 1.0452294 1.0398606
1.047454 1.053219 1.0397619 1.0394026 1.0460995 1.0476942 1.0534426 1.0506262
1.0482391 1.0496417 1.0377622 1.0535958 1.0564634 1.0455449 1.051214 1.0401533
1.0560981 1.0393904 1.0551171 1.0311608 1.0564328 1.0316175 1.053882 1.054229
1.0356162 1.0530268 1.0426854 1.0457385 1.0402622 1.039884 1.0307554 1.0526445
1.0510173 1.0487643 1.0510211 1.0578467 1.038962 1.0496718 1.0404776 1.0243294

features.3.fused_conv.1.bias f4 [64]
00000000: d4d9 013d 7623 163d 5f0d bd3c de85 2c3c
00000010: d3b3 2a3c 26f3 833c 7068 143d 7153 3cbc
00000020: 0f52 ef3c 9d9e e13b 8405 4b3c 842b 2f3d
00000030: 22a5 923b 5dae 733c 0d8f be3c cc65 373d
00000040: f466 e13c 4917 d33c ba30 bd3c 35c0 e53c
00000050: e4c4 8d3c ad2a 04bc d9cd 843c 95fb ec3c
00000060: f024 b33c 2dae 173d b12d 623c 5168 78ba
00000070: a68d 1c3d 1a50 923c 6604 c43c b95a f53c
00000080: 887a 143d 80d6 e83c 2784 c13a e7c3 df3c
00000090: 7d99 323d d48a bd3c 9d6d 123d 2c9a 163c
000000a0: cd18 da3c 244c 653c d515 253d dd3c 763c
000000b0: 99a8 543c c9b0 343c 6db9 2e3d b94a 1b3d
000000c0: 332a 8a3c 3f6d 2d3d ca81 483c 3b04 d63c
000000d0: 87a4 ed3c e157 103c 474a 1f3c fb4e cb3c
000000e0: a108 c83c 86b4 543c 9ae4 0f3d 4503 c93c
000000f0: 91fb 683c de22 cf3c 5a91 e43c 62d7 a0ba
0.031701878 0.036654912 0.023077665 0.010529963 0.01041885 0.016107153 0.03623241 -0.011494503
0.029213933 0.0068853633 0.012391452 0.04276611 0.004475252 0.014873114 0.023261571 0.044774815
0.027514912 0.02576794 0.023094524 0.028045753 0.017305799 -0.008066815 0.016211437 0.028928557
0.0218682 0.03703134 0.013804839 -0.00094759936 0.038221024 0.017860461 0.023927879 0.029950486
0.036249667 0.028422594 0.0014764116 0.027315093 0.04360341 0.023137487 0.035749067 0.009192031
0.026623154 0.013995204 0.040304024 0.015029159 0.01297965 0.011028477 0.042657305 0.037913058
0.016865825 0.042340513 0.012237975 0.026125064 0.029009117 0.008810014 0.009722299 0.024817934
0.024418177 0.012982493 0.03513012 0.024537692 0.014220134 0.02528518 0.02790134 -0.001227122

features.3.fused_conv.1.running_mean f4 [64]
00000000: dc46 703f d02a 713d bab8 a73e 3063 ea3e
00000010: 5a45 9b3d 304e 983e 8135 753d c8fa 61bc
00000020: 171f 533f 59ec cf3e 9a65 403f 3ea6 963e
00000030: b4b0 e13e 56e7 6dbf b489 af3c 019e fe3d
00000040: f15a 0dbe ac7a 643e d97f f23e 918c e33e
00000050: 4bc5 c83e dcf1 fabd f831 243e 7aca 9c3e
00000060: 0e96 2bbd e252 5a3e 42f4 b9be 0572 bd3e
00000070: 8015 223e f47f 023e d176 203f 1463 163f
00000080: ecb5 2cbd 6ed3 30be 7213 5f3f 6865 6b3f
00000090: 7006 eabd f456 1c3f eccb 43be 17e4 8bbe
000000a0: d48c f33c 134c 003d 8544 c93c bb97 843c
000000b0: f3eb 5d3f 8c26 e73e b5d1 0b3f 28d4 f3bd
000000c0: 8d5b 16bf e77d 373f 9c47 083f ec8e cbbd
000000d0: 3aaf 6e3d 5dbf c43e c3bf 133e d464 923e
000000e0: 61c0 b03d 6d5a 183f 6e9b 6f3e ff7a 423e
000000f0: 1ef7 86be 9ee1 2e3f 9ed8 82bc 1f7c 883e
0.9385812 0.05887872 0.32758123 0.457788 0.07581587 0.29747152 0.05986548 -0.013792701
0.82469314 0.40610006 0.7515503 0.29423708 0.44080126 -0.92931116 0.021427967 0.124324806
-0.13804223 0.2231242 0.47363165 0.4444318 0.39213023 -0.12253162 0.16034687 0.30623227
-0.04189115 0.2132068 -0.36319166 0.37001052 0.15828514 0.12744123 0.626813 0.5874493
-0.04216568 -0.17268154 0.87139046 0.9195161 -0.11427009 0.6107018 -0.19120759 -0.27322456
0.029730238 0.03132255 0.024568805 0.016185632 0.86688155 0.45146596 0.5461686 -0.119057
-0.58733445 0.71676487 0.5323427 -0.099393696 0.058272578 0.3842725 0.1442862 0.2859255
0.08630443 0.5951298 0.23399135 0.18992232 -0.2636041 0.68313015 -0.015972432 0.26657197

features.3.fused_conv.1.running_var f4 [64]
00000000: b140 ac3e 5d7e 813e 58ad 873e f213 9b3e
00000010: 76ba 8e3e eaa9 883e e5f7 c63e 9504 933e
00000020: b249 a03e f9fc b43e dd1a 933e b5a3 bc3e
00000030: fdae 863e cc21 8d3e 5e99 943e 6e63 b03e
00000040: d2be c93e f939 993e e17d b93e 605c 9d3e
00000050: 47cf b83e 7f0e ae3e 5f80 993e 1606 c33e
00000060: 4b4f c33e ec9c 963e 8c8b ab3e 8239 993e
00000070: df10 c63e a29d bb3e 87b7 ae3e d729 b13e
00000080: ad75 993e cb98 753e fe89 bb3e 5e83 843e
00000090: 4259 b53e a0b7 e13e d280 be3e a4ab 9c3e
000000a0: ed19 a63e 631b 913e 7407 9e3e c649 6b3e
000000b0: afa9 963e a7a4 953e 132f ce3e 7d13 ac3e
000000c0: 29bf 8d3e a1cc 9b3e 59a7 aa3e 38a5 763e
000000d0: f78b ba3e 0dea b93e 9632 a63e 4f75 903e
000000e0: 7e24 cd3e f821 a93e 496e c43e fcf6 a03e
000000f0: e8ef 873e 09b0 b63e 669e 0a3f 5ad4 ab3e
0.33643106 0.2529172 0.26499438 0.30288655 0.27876633 0.26692134 0.38861004 0.28714433
0.31306225 0.35349253 0.28731433 0.3684365 0.2630538 0.27564847 0.2902326 0.3445086
0.39403397 0.29927042 0.3622885 0.3073454 0.3609564 0.33995435 0.29980752 0.3809058
0.38146433 0.29416597 0.33504903 0.29926687 0.38684747 0.36643702 0.34124395 0.34602234
0.29972592 0.23984067 0.36628717 0.25881475 0.3541966 0.44085407 0.37207657 0.305997
0.32441655 0.28341207 0.3086506 0.22977361 0.29426333 0.29227182 0.4027029 0.33608618
0.27684906 0.30429557 0.333308 0.24086463 0.3643491 0.3631138 0.3246047 0.282145
0.40066904 0.3303373 0.3836539 0.31438434 0.2655022 0.3568118 0.54147947 0.3356045

digit_classifier.classifier.0.weight f4 [32, 384]
00000000: 6695 183d f088 8a3c 5ddc ee3c 5563 82bc
00000010: 158c 833d a690 c4bc 3a99 dcbc d9f3 7b3d
00000020: bd46 f53b 74e2 b2bc 60e3 25bd 2e86 d0bc
00000030: 07e6 cfbc dfd6 a7bc b01c 713c be08 8d3d
00000040: af44 cc3c 8045 c33d 7c3d 03bc 9a5e 433d
00000050: a86d 5fbc 2e5a 97bc e9dc 163c d5fa 863d
00000060: 72ff b2bb ce63 3bbd a36b 953c 4dc9 72bd
00000070: c8d6 93bd 0362 88bc 4e21 193c 2a4f 483d
00000080: 673e 0b3d ec9e 7d3d 28b0 493d a1a3 71bd
00000090: b87a 823d b216 923c 308c 233d a91a 4c3d
000000a0: 08f2 2d3c 45b3 da39 16d9 85bc dff7 febc
000000b0: afef 78bc 2089 0fbd a40e 813d f6ab 83bd
000000c0: 5f0e 083c d4ce d93c 932d 793d b375 8c3c
000000d0: 5a3c 20bc 8042 163b c194 453d b902 bcbb
000000e0: e143 8238 7103 d4bb bf1a 4a3c 8474 d1bc
000000f0: 1e8f 44bd 0325 f8bc da0f 3e3d c938 65bd
00000100: 1c32 273c c4be 1a3d 69c7 abbd 9914 603d
00000110: d930 f2bb ca03 703d 9bb9 a53c 34d0 b43d
00000120: 2aac 813b 1d4b 583d f358 54bc 87e3 03bd
00000130: 9133 a83d 4813 bcba f485 1c3d 4b24 f53c
00000140: 5065 0cbd 7514 593c 48f2 9b3d c57c c33c
00000150: 403d 713c f7da 993c eacf f53c f68c d9bc
00000160: ca70 26bd 94a4 7b3d 2c66 1cbd e462 33bd
00000170: 4b36 5cbd 272c 9bbd a839 71bd 1373 ad3c
00000180: 7b99 10bd 06a3 f03c f470 cd3b ab4f a5bb
00000190: 0205 853d 74ec 1dbd e707 6a3c 1565 303c
000001a0: a5da 123b 5fb6 44bc 363a bbbc e0fc ae3d
000001b0: e8f3 aebc 2bd5 753d 2678 953b 97d9 3d3d
000001c0: 1552 553d 8dcc cb3c a85a db3c 3d93 d93c
000001d0: 4692 223d f418 dbbc de6f 723d c6c8 073b
000001e0: b512 aabd 4ec6 4ebd 7143 eebc 3e3c f6bc
000001f0: f1e5 77bd 76e7 ea3c fa44 5f3c 650d 31bd
00000200: 4ad3 5ebd ed8f b53d fe9a aa3d 451a 093d
00000210: 4595 8a3d 91e7 853d 21ed 05bd 573d 433d
00000220: ceb2 9c3d 1282 8f3d a528 173d 0487 33bc
00000230: d1e0 d8bb c192 0abc 8ff6 1a3d 9441 793d
00000240: 36cf f4ba 12ce 803d 485c f13c c12e ba3c
00000250: c70a a03c 4700 33bd 7ebc 783d 7672 2c3c
00000260: e2be 5c3d 63a1 193d 1c53 3c3d bc42 9f3d
00000270: 6b49 c53c 59f9 87bb d61f 233d 6662 803d
00000280: 1099 1b3b 03bc c93c 3280 6d3c 415e 603c
00000290: 694e 9abc f44d 30bd 6493 663d 5d1c 8abc
000002a0: de81 463d 9271 9c3c 06cb 89bd 52e5 34bc
000002b0: db97 093d 40b0 813c f9b8 cb3c cd86 813d
000002c0: aee4 373d 8eb4 38bc 5747 3dbd ee65 273d
000002d0: 9086 8cbc 1ee8 853d e715 4b3d 993f 1ebd
000002e0: ee8c 1fbc 0520 283d f5e3 f33c e430 563d
000002f0: ecb7 823c 201a 153d a7df 8abb b16f 3ebd
00000300: c26f 203c a0aa 213d d52c 443d fe4d 89bd
00000310: a12e 803d 0ad0 c0bb 994e f03c 75f0 6d3d
00000320: 4861 6b3c 68f2 c43c 5408 123b a7e4 87bd
00000330: 59ac 863d cd63 ca3b c373 813d 0536 babc
00000340: 2296 3dbd b79a 163d af6f 38bd b483 3e3c
00000350: d61f aebc ef82 94bd 9851 893d 9ff9 753c
00000360: 2801 58bd 23b4 083c e55d 743c 93b0 e63b
00000370: 3196 183b 355c e33c da03 203d 3d0d f33c
00000380: 8fa2 01bd b82a 8ebd 1f1b e0bb 250b 303d
00000390: 88e3 873d 573c 03bc 77bc a2bc 9720 5d3c
000003a0: 1c6d 45bd 2324 ea3a 49ce 5fbd b6be 93bc
000003b0: 6329 e0bc 1ae5 33bd 4d47 e1bb 4ebc 61bd
000003c0: 9c52 b0bc e004 103d ee6f a6bc 7b27 593d
000003d0: 8bbf a3bc 60b1 3a3d f9aa d43c 5766 6bbd
000003e0: 2b81 3cbd a1e7 95bc 17a7 783d 4a1f af3d
000003f0: ac2e 9c3c b4c5 163d 2cc4 6c3d d486 6d3d
0.037251852 0.016911 0.029157812 -0.015916506 0.06423203 -0.023994755 -0.026928533 0.061511848
0.0074852393 -0.021836497 -0.040500045 -0.025454607 -0.02537824 -0.0204882 0.014716312 0.06886433
0.024935095 0.095347404 -0.0080102645 0.04769764 -0.013636984 -0.018475618 0.0092079425 0.06590811
-0.0054625804 -0.045749478 0.018239802 -0.059274007 -0.07218701 -0.016648298 0.009346319 0.04890362
0.03399506 0.061919138 0.04924026 -0.05899394 0.06371063 0.017833088 0.039928615 0.049830113
0.010616787 0.00041713766 -0.016338866 -0.031124054 -0.015193864 -0.035042882 0.063016206 -0.06429283
0.008304208 0.026587881 0.06083448 0.017145967 -0.009780014 0.002292782 0.048237566 -0.0057376293
6.2115265e-05 -0.006470137 0.012335478 -0.025568254 -0.04798805 -0.030291086 0.046401836 -0.055962358
0.010204818 0.037779585 -0.08387644 0.054707143 -0.007391077 0.058597364 0.020230105 0.08828774
0.003957291 0.05280601 -0.01296066 -0.03219941 0.082129605 -0.0014349008 0.038213685 0.029924532
-0.034276307 0.013249506 0.07614571 0.023863206 0.014724076 0.018781168 0.030006368 -0.026556473
-0.040634908 0.06143625 -0.038183376 -0.04379548 -0.053762715 -0.07576781 -0.058892876 0.021173036
-0.03530262 0.02937461 0.0062695686 -0.0050448976 0.06495096 -0.038555577 0.014284111 0.010766287
0.0022408154 -0.012006371 -0.022854906 0.08544326 -0.021356538 0.060017746 0.004561442 0.046350088
0.052080233 0.02487781 0.026776627 0.026559466 0.03969028 -0.026745297 0.059188716 0.0020719036
-0.08304349 -0.050482087 -0.029084893 -0.030058023 -0.060522024 0.028674822 0.013627285 -0.043225665
-0.05440072 0.08865342 0.08330344 0.03347232 0.06766752 0.065383084 -0.032696847 0.04766592
0.07651292 0.07007231 0.036903996 -0.010957483 -0.006618597 -0.00845784 0.037832793 0.060853556
-0.0018677476 0.06289305 0.029462948 0.022727372 0.019536389 -0.043701436 0.060726635 0.0105253365
0.053892978 0.037507426 0.045977697 0.077764004 0.02408286 -0.0041495976 0.039825283 0.06268768
0.0023742355 0.024625784 0.014495896 0.013694347 -0.018836217 -0.043043092 0.056292906 -0.016859228
0.048463695 0.019097123 -0.06728177 -0.011041002 0.033592086 0.015831113 0.024868475 0.06324539
0.04489582 -0.011273516 -0.046210613 0.040868692 -0.017154008 0.065384135 0.049581435 -0.03863487
-0.00973819 0.04104616 0.029771784 0.05229272 0.015956841 0.036401868 -0.004238087 -0.046493236
0.00979227 0.03946936 0.047894318 -0.06704329 0.06258894 -0.005884175 0.029334353 0.058090646
0.014366455 0.02404137 0.0022282796 -0.06635409 0.065758415 0.006176448 0.06320908 -0.022730837
-0.046285756 0.03676864 -0.045028385 0.01162808 -0.021255415 -0.07251536 0.06705016 0.015013128
-0.052735478 0.008343729 0.014914964 0.0070400923 0.002328288 0.027753929 0.039066173 0.029669398
-0.03164917 -0.06941742 -0.0068391706 0.04297938 0.06635195 -0.008009992 -0.019865258 0.01349654
-0.048199758 0.0017863553 -0.05464009 -0.018035274 -0.027363485 -0.04391966 -0.006874955 -0.055111222
-0.021523766 0.0351609 -0.020317044 0.053016167 -0.019988796 0.045579314 0.025960432 -0.057470646
-0.04602162 -0.018298926 0.060706224 0.0855089 0.019065224 0.03680964 0.05780427 0.05798991

digit_classifier.classifier.0.bias f4 [32]
00000000: fb33 583d ffed e1bc 68be 0e3d 7759 79bc
00000010: 3530 603c 408e abbc 3918 03bd 187a 26bc
00000020: e199 eabc 2e82 3fbd bee7 813d 5561 55bb
00000030: 9be3 7f3d 3111 8fbc f601 f13a 92d7 3a3d
00000040: 4988 d53b 2bc0 a0bc fa3e 123d bfa5 a63c
00000050: 4138 bcbb 2d92 5ebd e89c 883d d4c9 143b
00000060: ff85 cabb dc69 563d 4100 2dbd 54ab 59bd
00000070: ae22 a63c 0bbd 703d 27b4 06bd 9453 fabc
0.052783947 -0.027579306 0.034849554 -0.015219084 0.013683368 -0.020941854 -0.032005522 -0.010160945
-0.028637828 -0.04675501 0.063430294 -0.0032559235 0.06247292 -0.017464252 0.0018387425 0.04561574
0.0065164906 -0.019622883 0.03570459 0.020342706 -0.0057440107 -0.054338623 0.066705525 0.0022703307
-0.0061805244 0.05234705 -0.04223657 -0.053141907 0.020280208 0.058774035 -0.03288665 -0.030557431
