model/LDD/best_digit_model.pth (torch, 230412 bytes, 32 tensors)

features.0.conv.weight f4 [8, 1, 3, 3]
00000000: dfeb 823e 38e4 753e 5852 89bd 6b1a 8d3e
00000010: 5217 8cbd fc50 ea3d b17c 4dbe bff1 483e
00000020: 4f0b a33e 13c1 88be 5ba0 933e 365b a23d
00000030: e8e5 673e a151 22bc b980 033e 8f52 24bd
00000040: 7889 733e c477 a53d 4ea7 15be bd00 293d
00000050: 1063 26be 8a13 03bd 6444 24be 14a4 6e3e
00000060: 417e 9dbe 75dd 03be e1ce 4cbd 89ac 55be
00000070: a38b 5cbb 17bb 9fbe a367 923e b723 96be
00000080: f554 8b3e 60bf 513d cd28 e6bd b13d 5a3e
00000090: 4a37 913d e9a9 9d3e bb4f 61bb 31d3 f4bd
000000a0: bbe9 803d ddc1 07be 3e23 b03d c8b3 783e
000000b0: 42f3 413e c3ed 24be bf60 553e 9fbf 713d
000000c0: 6af9 0c3e 5c1f 33be 3f3b afbe dbd4 45be
000000d0: ef18 71be 2b2c 803e 2c28 e83d f3db 0f3e
000000e0: 8ca1 e03d 7ea0 373c f434 833e a407 84be
000000f0: 52aa 263d e15b 61be aec0 893d 0d01 aabd
00000100: 582b c53d f591 b5bd 9ac8 963e d9c0 36be
00000110: aa14 27be 4c85 1fbe e3c0 b13e 4b18 103e
0.2557058 0.2401284 -0.06705159 0.27559218 -0.068403855 0.11441228 -0.20067097 0.19623469
0.31844565 -0.26709804 0.2883328 0.07927553 0.22646296 -0.009907157 0.12842073 -0.040117797
0.23782909 0.08079484 -0.14614603 0.04126047 -0.16248727 -0.032001056 -0.16041714 0.23304778
-0.30760387 -0.12877448 -0.050001983 -0.20866598 -0.0033652566 -0.31197426 0.28594694 -0.29324123
0.27213255 0.0512079 -0.11238251 0.21312596 0.07090624 0.30793694 -0.0034379798 -0.11954344
0.062945805 -0.13257547 0.08600472 0.24287331 0.18940452 -0.16106324 0.20837687 0.059020635
0.13767019 -0.17492431 -0.3422489 -0.19319479 -0.23544668 0.25033697 0.11335787 0.14048748
0.109683126 0.011207698 0.25626338 -0.2578708 0.040689774 -0.22007705 0.06726204 -0.08300982
0.09627408 -0.0886573 0.29449922 -0.17847003 -0.16316476 -0.15578192 0.34717473 0.14071767

features.0.conv.bias f4 [8]
00000000: 6566 a43e 78a9 85be 409e acbe e2e4 7fbe
00000010: 1498 60be 99d9 0f3e 84b9 fb3d d82c 903e
0.3210937 -0.26105857 -0.33714485 -0.24989656 -0.21933013 0.1404785 0.12291244 0.28159213

features.0.bn.weight f4 [8]
00000000: 0df3 773f 2f18 863f 6aa4 763f 475d 803f
00000010: cbe0 823f 185a 853f 8a33 823f 4e29 733f
0.9685524 1.047613 0.96344626 1.0028466 1.0224851 1.041812 1.0171978 0.949849

features.0.bn.bias f4 [8]
00000000: 196c 1dbd 2766 e23b 5ed2 01bd 233b 49bc
00000010: 4d1c 973c 74f7 d63b 5772 bf3c 4aa6 ecbc
-0.038433168 0.00690915 -0.031694762 -0.012282166 0.018446112 0.0065602604 0.023369951 -0.028887887

features.0.bn.running_mean f4 [8]
00000000: a263 c23e e845 5cbe 700b c1be 5a54 80be
00000010: ed22 31be 10bb e33d 6879 073e 4f7b 963e
0.3796664 -0.21511042 -0.3770404 -0.25064355 -0.1729848 0.11119664 0.13229907 0.29390952

features.0.bn.running_var f4 [8]
00000000: 3b67 ee3e f435 ac3e 16d7 8b3e 44ec ca3d
00000010: 4b4e 833e bae0 113e 4a69 c13d fc6f 713d
0.46563134 0.33634913 0.27312535 0.09908345 0.2564567 0.14245883 0.094439104 0.058944687

features.1.conv.weight f4 [16, 4, 3, 3]
00000000: 18ab dabd 422c adbd 60d3 d03d b6b7 7bbd
00000010: cffc 063e f357 efbc 3ce3 dc3d 1e2e 0abe
00000020: 335e e6bd e670 9a3d 3d2d 993d d6c3 98bc
00000030: 312a 0f3e f7f1 0e3e cd21 09be 39ba 74bd
00000040: c4fa 2f3e 74c6 b9bd 54b8 9fbc e73e 3bbe
00000050: 8efc e8bd b533 8d3d ef59 283c c9d4 cebd
00000060: 8c2d 1b3d 3073 08be 913a e5bd b932 2dbd
00000070: 6492 f1bd e7c5 babd 7f37 2f3e 40b7 b3bb
00000080: f53b 7e3d 2f05 2abe 947c cabd 9800 25bc
00000090: 392d 1b3d 4d8c 11be 046c c1bd 1445 e1bd
000000a0: bb44 05bc ca60 ddbd 026b 77bb 440e e9bd
000000b0: f217 ccbd 5bef a4bd 000b 4dbd babe 25be
000000c0: 2add 043e a009 08bd fae4 253e 1592 8b3d
000000d0: 1b1e 13be 5c2f 303e f596 16bd 9853 7bbd
000000e0: 261f c9bd 4fef 18be 243e 003d cb0c 7dbb
000000f0: bc8d 273d 94b6 16be 58df e63d 5aaf d4bd
00000100: e333 60bd 144b 783d 47bb c83d 7eb3 e73d
00000110: 2e2b 2b3e a110 d5bd 2ea0 b83d 3c5a 8cbd
00000120: 3dab e3bc 0b39 f9bd 0a10 f63d 7705 c7bd
00000130: 99f6 b53d 4509 e63c 8247 ce3d 767d a7bd
00000140: f354 053e 5718 0a3d a0e8 c53c 6d19 2abe
00000150: 3ce2 ad3d 25bf 5ebc bc87 a2bd 6763 083e
00000160: 7e8b fb3c 3f6c dbbd ec22 66bd 2db4 2b3c
00000170: d66e ea3d ff9a 82bd 34c0 9dbd d805 48bd
00000180: a254 33be e4da 0e3d 25a5 1c3e 6864 4ebe
00000190: 244f 553c c67c 033e 25ea 0e3b d70a 96bd
000001a0: e9fd 6d3d 19d7 653d 0cf8 193d b307 cebc
000001b0: d1d6 9abd da95 90bc 523e c13c 91f6 24bd
000001c0: dace 9a3d f788 003e 5adb 14bb e2b3 cd3b
000001d0: 95ea 0a3d bc1a 12bd 0cee 8d3c 755c be3d
000001e0: 6816 19be 54d4 57bd ea37 1b3e 6039 bb3d
000001f0: 6dc9 4d3d 662c 6cbd 03b5 e5bd f1dd e3bd
00000200: 065e b6bd 1936 863d 1d34 e93d b354 3b3d
00000210: 97d1 06be a94e bdbd 5faa 8abd 6492 113e
00000220: bcdf 723c efa6 d1bd 4e5d e83d e13a 17bd
00000230: 4fcc 08be 8955 193e bdec a6bd d963 f7bc
00000240: 8a27 41be 6ae5 c13d aa20 dd3d 0c5d 933d
00000250: 5a80 ffbd e61c f8bd 876a f5bd 595c b93d
00000260: 0840 da3d 9bf1 393e e404 e93d 7a7e 883c
00000270: 6b74 253d 4f12 10be bc49 d9bd 1076 1abe
00000280: 09ef 153d 0da2 04bd 5f92 c2bb 7d4a febd
00000290: 1ce7 90bc ccc6 33be 19b7 b4bd ed91 483d
000002a0: 3d5e 2abd ff3b 083e 220f 7abd e440 ecbd
000002b0: d9cf 24bc 293e a5bd 4140 a8bd 68c5 2abe
000002c0: c0e1 cc3d 9a7e 0cbe d70c f03d 4cb8 b33c
000002d0: 09d9 eb3d 5e99 0dbe 68df bd3d 3097 8ebd
000002e0: cb27 903d cd6d 343e 7b74 5dba 1984 363b
000002f0: 49d6 67bc 985e 2bbe 905e 243d 2fb7 41be
00000300: b065 eb3d cc12 bb3d 82c7 363e d7bb 34bd
00000310: b6fc 36be eb98 353d 30a7 c53d e87e 11be
00000320: f883 fbbc 0ca4 ddbd 99b7 98bb 2dd4 d5bd
00000330: 40e3 97bd 5d48 03bb 2215 03be e92d d73d
00000340: b056 003e 761b 583c e89f 8dbc 8f1d 78bd
00000350: ddd1 10be 6671 4bbe 239e 843d f0d9 0dbe
00000360: 8f51 03be 150b 00bd 70e6 97bd f687 f0bc
00000370: 3e11 6a3c 7f31 23bd 2a74 46bd 3979 83bd
00000380: ab0b 24be d402 163e 0d79 3abd 0c98 4b3d
00000390: 6237 11bc 8fec 3a3d 4af9 0d3e c219 ed3d
000003a0: a19b 08be a6bb cb3d 965a 1f3e 5b0e 7f3d
000003b0: 4f34 b33d 84f2 0c3e ff70 42bd 5767 273d
000003c0: 7d48 f6bd aed2 b9bc cbba f43d 7b0b 923d
000003d0: e617 8cbd 872d 12be ad82 05be c05b 45be
000003e0: a4ac f3bd 2009 c8bd 07f1 d33d 3757 963d
000003f0: 0906 9cbd 0fbc 34be 35ce 7b3d 3bdf 13be
-0.10677165 -0.08455707 0.101965666 -0.061454497 0.13182376 -0.029216742 0.10785529 -0.13494155
-0.11248436 0.07541065 0.07479332 -0.01864807 0.13980938 0.1395949 -0.133918 -0.05974791
0.17185503 -0.09071055 -0.019497074 -0.18285714 -0.11376296 0.06894628 0.010275348 -0.10099179
0.037885234 -0.1332519 -0.11192811 -0.0422847 -0.117955 -0.09119778 0.17111014 -0.0054844916
0.0620689 -0.1660354 -0.09887043 -0.010070942 0.037884925 -0.14213677 -0.094444305 -0.10999504
-0.008134062 -0.10809477 -0.003775299 -0.11379674 -0.09965505 -0.08053466 -0.05005932 -0.16186038
0.12974992 -0.033212304 0.16200629 0.06814972 -0.14366953 0.17205566 -0.036765058 -0.061359018
-0.09820394 -0.14935039 0.031309262 -0.0038612362 0.040906653 -0.14718086 0.11273068 -0.10385008
-0.054736983 0.060618475 0.09801345 0.11313532 0.1671569 -0.10403562 0.09014927 -0.06853148
-0.027791614 -0.12169083 0.12014778 -0.09717839 0.088849254 0.028080592 0.10072233 -0.08178227
0.13020687 0.03371462 0.024158776 -0.16611262 0.084904164 -0.013595377 -0.079360455 0.13319169
0.030706163 -0.10714006 -0.056185648 0.010479969 0.114469215 -0.063772194 -0.077026755 -0.048833698
-0.17512754 0.03487672 0.15297373 -0.2015549 0.013019357 0.12840566 0.0021807041 -0.07326286
0.058103476 0.056113336 0.03759007 -0.025150156 -0.07560504 -0.01764958 0.023589287 -0.040274207
0.07558985 0.12552248 -0.0022713752 0.006277547 0.03391512 -0.035670027 0.017325424 0.092949785
-0.14949954 -0.052692726 0.15158048 0.09141803 0.050240923 -0.05765953 -0.11216166 -0.11126316
-0.08904652 0.06553287 0.11386893 0.045735072 -0.1316589 -0.09243519 -0.06770777 0.14216
0.01482385 -0.10236918 0.113459215 -0.036921386 -0.13359188 0.14974035 -0.08150623 -0.030198978
-0.18862739 0.094675854 0.10797246 0.07195482 -0.12475653 -0.12114887 -0.11983209 0.09050817
0.10656744 0.18158571 0.11377886 0.016661871 0.040394228 -0.14069484 -0.10609767 -0.150841
0.036604915 -0.032381106 -0.005937859 -0.12416551 -0.017688327 -0.17556304 -0.088239856 0.04896729
-0.04159378 0.13304137 -0.061049588 -0.115358144 -0.01005932 -0.08068497 -0.082153805 -0.16676867
0.10003996 -0.1372017 0.11721199 0.021938466 0.115160055 -0.13828036 0.09271127 -0.069624305
0.0703884 0.1762001 -0.0008447838 0.0027849732 -0.014150211 -0.16735303 0.040129244 -0.18917535
0.11494005 0.091344446 0.17849544 -0.04412445 -0.17869839 0.044335287 0.09651029 -0.14208567
-0.030702576 -0.10822305 -0.0046605584 -0.1044086 -0.074163914 -0.0020032146 -0.1280103 0.105068035
0.12533069 0.013190141 -0.017288163 -0.060575064 -0.14142556 -0.19867477 0.06475475 -0.13852668
-0.12824081 -0.03126057 -0.07416999 -0.029361706 0.014286337 -0.039842125 -0.048450626 -0.06419606
-0.16020076 0.14649516 -0.0455256 0.04970555 -0.008863302 0.045635756 0.13864627 0.115771785
-0.13340618 0.099479005 0.155619 0.06226955 0.087502114 0.13764387 -0.047471043 0.040870037
-0.12025545 -0.022683468 0.119496904 0.07131096 -0.06840496 -0.1427518 -0.1303813 -0.19273281
-0.11898163 -0.097673655 0.10348707 0.07340854 -0.076183386 -0.17649864 0.06147595 -0.14440624

features.1.conv.bias f4 [16]
00000000: 4475 97bc 4209 d5bd 44c5 04bd cdbb 0c3e
00000010: 5002 f7bd dacd ff3c d16e 30be 2985 ca3d
00000020: 8d59 7f3d bfd6 c43b 37c1 a33d e1e0 61bb
00000030: d522 bb3d 7c59 0ebe 5c4f 8bbc dada 903d
-0.018488534 -0.104021564 -0.03241469 0.13743515 -0.12060988 0.031226087 -0.17229773 0.098886795
0.06234126 0.006007045 0.07995837 -0.0034466314 0.09137503 -0.13901323 -0.017005615 0.070729926

features.1.bn.weight f4 [16]
00000000: 22c1 833f 3a31 863f 3ad5 843f 1b48 7a3f
00000010: ca0f 843f f6de 763f ab8d 713f 6d5b 853f
00000020: 02bf 7e3f b578 7f3f 6f05 873f 3711 7e3f
00000030: 7464 7f3f 5bcb 723f 662e 823f 0931 7e3f
1.0293314 1.0483773 1.0377572 0.97766274 1.0317318 0.9643396 0.94356793 1.0418526
0.99510205 0.9979356 1.0548533 0.9924502 0.99762654 0.94841546 1.017041 0.9929357

features.1.bn.bias f4 [16]
00000000: 8d58 4a3d b747 863a c434 ce3c 4856 20bd
00000010: 6ef8 5abb abcb c4bc cf62 73bc 3b63 b73c
00000020: 1934 4cbd 2ed7 183d 35a9 163d d459 72bc
00000030: 3a07 d1bc 1530 49bd 5163 263c 08d0 883c
0.049400855 0.0010244761 0.025171645 -0.039144784 -0.0033412236 -0.024022898 -0.014855101 0.022386184
-0.04985437 0.037314586 0.036782462 -0.0147919245 -0.025516141 -0.04911812 0.010155515 0.01670076

features.1.bn.running_mean f4 [16]
00000000: e7e1 00bf e508 f0be 5e58 74bd bda1 933d
00000010: 2260 30bf 4292 bdbe 48ed b1be 6d56 c3be
00000020: bf13 3d3e 08df 11bf 9d77 5d3e 8f26 8bbc
00000030: 7d27 cb3e 99de 02bf 043e 81be 1503 08bf
-0.503447 -0.46881786 -0.059654586 0.072085835 -0.6889669 -0.37025648 -0.34751344 -0.38151875
0.18464564 -0.56980944 0.2162766 -0.01698616 0.39678565 -0.5112091 -0.25242627 -0.531297

features.1.bn.running_var f4 [16]
00000000: ee1c a53e 914b 7e3e ad8e 223e 9774 843e
00000010: 6147 783e 53e0 8a3e 46ae 163e 67c2 ca3e
00000020: 8e9c 473e e5b9 583e d98b 3f3e ecea 5a3e
00000030: e147 483e a3c9 913e e862 833e d960 843e
0.32248634 0.24833514 0.15874739 0.258702 0.24245979 0.2712427 0.14714918 0.39601442
0.19493315 0.21164663 0.18705691 0.21378678 0.1955867 0.2847415 0.25661397 0.2585514

features.2.conv.weight f4 [32, 8, 3, 3]
00000000: 07da c63d 0299 e83d 0c99 08bd f6ba 043e
00000010: cd92 bbbc 9da9 bd3c c0b1 73bd da10 aebb
00000020: f453 ce3d 7402 203d 0a53 27bc 42da a83d
00000030: 8a2f b7bd d523 263e 1795 01be dece 27bd
00000040: d721 9abd d7b6 83bb e468 70bc 22bd 1f3e
00000050: 7743 e0bc 1eb6 833d 945f 3b3d 6158 a93d
00000060: ea95 9f3d 1a7c 8d3d bb3d 6abd f500 193e
00000070: 21d5 ba3d 07af 513b 97da fcbb 73a1 0fbe
00000080: db0f 863d 9590 3fbd dcb7 003d 8e28 db3c
00000090: d83a 17be 1849 973d d2bf a4bc 9fcd 003c
000000a0: c503 d73d c73f c9bd acfd 673d 3545 693d
000000b0: 9308 b23c b7f2 18be 9bdd abbd 644c 3bbd
000000c0: c3cd 69bd f40e 083d 1771 f33b 1135 9b3d
000000d0: 47e3 97bd 5a39 803d 121a 2e3d d598 3fbd
000000e0: ccd1 bdbd a3b0 ccbc 476f 9e3d 1112 8bbd
000000f0: 430d 98bd 4de4 c53c 587d 473d 5602 0e3e
00000100: 5537 d9bd b4fb 55bd 7696 c03d e403 d83d
00000110: 6f5a ed3d 2f0f a63b 3d81 7c3d 562f ef3d
00000120: abe7 1abd 401d ae3b 3a4e ad3d 7b1b 82bd
00000130: f251 65bd f504 cc3d f2ed 393d cc7b ad3d
00000140: 9817 b2bd 6001 b1bc dc59 f53d 45ac eabc
00000150: 262d 1d3d 4efa d13d ab90 78bd c65a 2d3e
00000160: 9bf5 a8bd c86f 3cbd ec01 92bd dc78 4dbd
00000170: 9342 c7bd 139e 833d ffc6 843d 5089 f1bd
00000180: e5fd a3bd ee71 913d bbe7 413d 8119 823d
00000190: 42c9 cabd 9089 5bbd 5200 043d bb7c db3c
000001a0: f031 90bd 5100 d5bb 0c7c 693d 47f9 d63c
000001b0: 7737 05bd e7fd 023c c407 34bc 0296 e83c
000001c0: 36ae cc3b 6ced 83bd 47fa c53d 71d4 383d
000001d0: be68 02bd 5739 783d d7cc babd 3a6e f13c
000001e0: 0d51 c53c 4f94 01be 2e43 ac3d 5f93 25be
000001f0: c323 acbd 1af6 9f3c ffdb 87bd 9884 d83d
00000200: 05c4 afbc fd3b a03d 36a8 83bd 8059 b83d
00000210: 0547 8bbc f4e5 cabd 52aa 7f3c 456d cf3d
00000220: 1d80 ed3d 1262 21bc 57a6 6ebd 4b78 7b3d
00000230: e848 b23d 6d54 2f3b 32fe ab3d 73c7 e9bc
00000240: 2c39 d23d 3446 a03d 9225 a9bb 42cb 183d
00000250: 6dc4 393c c214 9c3d 4610 08be 5482 bcbc
00000260: 2ad7 14bd 2873 a339 c530 8e3d 5bfd a6bd
00000270: 7f2a 363d f5e4 60bd 1260 483d a206 a8bb
00000280: 79d5 b1bd 7a34 17bd 407a 93bd 026b 163c
00000290: 2808 f2bd 481a 2bbd 40f3 5a3c 83fd 83bd
000002a0: 52be f13b c39c c9bd 125d babd fc6b e5bd
000002b0: 27a1 70bd 5e92 26bd 4169 23bc baec e8bc
000002c0: 67a7 673d 6380 dc3d 64b8 633d 8b6d e5bc
000002d0: b46f e0bd 5f65 8a3d 99e5 02bd e837 543d
000002e0: 453b 903d 9cdd ab3d 191e a73d 9d99 c83d
000002f0: 7b07 843c b61d c3bd b728 993d b992 73bd
00000300: d8c1 57bd 8f90 f53d 4980 e13d ed71 2b3d
00000310: 5e1d 443d 8a41 a9bd 5569 eeb8 6cc3 213e
00000320: 484e 303d 6461 3f3c 45a5 80bd 4b12 073c
00000330: c105 393d a6bf 613c 7cf2 063d 8bc1 1abc
00000340: e98f 8a3d f1cc ae3d 5942 ca3c 4161 ba3d
00000350: 9e4f 9a3d 1dc9 103e 811d 853d c27f 1dbc
00000360: 2aa0 11be 6310 613d dfaf 5e3c 955a 66bc
00000370: aee0 94bd 7e4b 4b3d bcce bd3d e7a0 653c
00000380: 3fa2 933c c85b 12bd 650a 96bd b237 34bd
00000390: 3994 1b3e e68d 903d 9986 753d 8020 dbba
000003a0: befc c23d 4fd0 c53c 529d 20be 53ca a3bc
000003b0: a838 5dbb 9c18 b5bd ae0c eabd 904b 7f3d
000003c0: 95f3 ed3d 6e25 8d3d b8c9 da3d f9ec 9dbd
000003d0: c856 6d3c 7b4b 803d d0e0 e03b c1d3 5ebd
000003e0: 55c7 86bd 596a 053d 3c36 90bd 3c89 e1bc
000003f0: 0cef 283e ed59 bb3c cb5d 5d3c c8e2 683d
0.09709554 0.11357309 -0.033349082 0.12961945 -0.022897149 0.023152167 -0.059495687 -0.0053120675
0.100746065 0.03906484 -0.010212669 0.082447544 -0.08944614 0.16224606 -0.1265453 -0.04096877
-0.07525986 -0.004019599 -0.014673445 0.15599492 -0.02737592 0.064312205 0.045745447 0.0826881
0.07792266 0.06908436 -0.057187777 0.14941771 0.09122682 0.0031995194 -0.0077164876 -0.14026432
0.06545993 -0.046768744 0.031425342 0.026752736 -0.14768541 0.073869884 -0.020110998 0.007861524
0.10498766 -0.09826618 0.056638405 0.056950767 0.021732604 -0.14936338 -0.08391877 -0.04572715
-0.057080995 0.033217385 0.007429253 0.07578481 -0.074163966 0.06260939 0.04250533 -0.04677661
-0.09268531 -0.02498657 0.07736068 -0.06790555 -0.074244045 0.024156714 0.04870352 0.13868079
-0.10606257 -0.052241996 0.09403698 0.10547617 0.115895145 0.005067728 0.06164669 0.116789505
-0.037818592 0.0053135455 0.08462186 -0.06352898 -0.055986352 0.09961883 0.045392938 0.08470878
-0.086959064 -0.021607101 0.1198003 -0.028646598 0.038373135 0.1025282 -0.06068484 0.16929159
-0.082499705 -0.04600504 -0.07129273 -0.05016409 -0.09729495 0.06426635 0.06483268 -0.117937684
-0.08007411 0.071018085 0.047340136 0.06352521 -0.09901668 -0.053597987 0.032226868 0.026792875
-0.07040775 -0.006500282 0.057003066 0.026241912 -0.0325236 0.007995105 -0.01098818 0.028391842
0.0062463535 -0.06441769 0.09666877 0.045124475 -0.03183817 0.06060156 -0.09121101 0.029471505
0.0240865 -0.12654231 0.08411251 -0.16169499 -0.084052585 0.01952653 -0.06633758 0.10572165
-0.021455774 0.07823942 -0.06428568 0.09001446 -0.017001638 -0.09907141 0.015604572 0.101282634
0.11596701 -0.009850042 -0.058264103 0.061394017 0.08705312 0.0026753203 0.08398093 -0.028537488
0.10264811 0.0782589 -0.0051619494 0.037303217 0.011338335 0.07621147 -0.13287458 -0.023011364
-0.03633801 0.0003117558 0.06942896 -0.081537925 0.04447412 -0.05490585 0.048919745 -0.005127744
-0.08683295 -0.03691528 -0.07201052 0.009180786 -0.11817962 -0.04177311 0.013363659 -0.06444838
0.0073774243 -0.09844353 -0.09099783 -0.11202237 -0.058747437 -0.04066693 -0.009973825 -0.028433193
0.05655613 0.10766675 0.05559577 -0.028006336 -0.10958806 0.06757616 -0.031957243 0.05181113
0.07042555 0.08391878 0.081600375 0.097949244 0.016116848 -0.09527151 0.07478469 -0.059466098
-0.0526751 0.11990463 0.110107966 0.041856695 0.04787957 -0.08264454 -0.00011368344 0.15797204
0.043043405 0.011680935 -0.06281523 0.0082441075 0.045171503 0.013778603 0.032946095 -0.009445558
0.0676573 0.08535183 0.02468984 0.09100581 0.07534717 0.14139219 0.06499768 -0.009612979
-0.14221254 0.05494727 0.013591736 -0.014059682 -0.07269417 0.04963254 0.09267947 0.014015413
0.0180217 -0.03573206 -0.07326201 -0.043998428 0.15193261 0.07058315 0.059942815 -0.001671806
0.09520863 0.02414718 -0.15685013 -0.019993937 -0.0033755694 -0.088425845 -0.114282 0.06232792
0.11618725 0.06891905 0.10683006 -0.077112146 0.014486022 0.06264397 0.0068627372 -0.054401163
-0.06580988 0.032572124 -0.070415944 -0.027531259 0.16497439 0.022870028 0.0135111315 0.0568569

features.2.conv.bias f4 [32]
00000000: 0207 d4bb fd95 16bd 855f c03d 4df8 1f3d
00000010: 6a92 8c3d 8058 3e3d 355a d43c 4238 913d
00000020: fb95 92bd 1355 7c3d f8c8 4b3d 10b0 28bd
00000030: e850 90bc bfc7 a6bd 9462 c2bd 92b3 73bc
00000040: 2700 c53c 32ef 2cbd 624d e73c 733d c5bd
00000050: c2fc 6fbd 7bb7 ac3d 55ee f3bd 28c7 953c
00000060: 9533 b83d 0cd8 d13d 668d 3c3d 13df f0bd
00000070: 0b97 cc3c b3bf 63bd 198e 25bd 05f0 c83d
-0.006470562 -0.036764134 0.09393219 0.039055157 0.06863864 0.04647112 0.02592192 0.070908085
-0.07157513 0.06160457 0.049752206 -0.04118353 -0.017616704 -0.08143567 -0.094914585 -0.014874356
0.024047924 -0.042220302 0.028235141 -0.09630861 -0.058590658 0.084334336 -0.119106926 0.018283442
0.089942135 0.10246286 0.046033286 -0.11761298 0.024974367 -0.05560274 -0.040418718 0.09811405

features.2.bn.weight f4 [32]
00000000: f232 863f 9de9 883f 35e7 883f 8f51 873f
00000010: 8eab 893f 57dd 883f c467 893f e44a 883f
00000020: 4d5a 873f 0334 893f e012 893f 0566 893f
00000030: aa2f 883f 259b 873f 4b15 883f 47f2 873f
00000040: c4ff 863f 2a4f 893f 962d 883f 37b8 893f
00000050: 349c 873f 1f7f 873f f1ed 873f 2f3b 863f
00000060: 883a 883f d440 883f 0a2b 883f 50dc 883f
00000070: a2ac 873f c7e4 863f 8cac 873f 1148 883f
1.0484297 1.0696293 1.0695559 1.0571765 1.0755479 1.0692548 1.0734792 1.0647855
1.0574433 1.0718998 1.0708885 1.0734259 1.0639546 1.0594221 1.0631498 1.0620812
1.0546803 1.0727284 1.0638912 1.0759343 1.0594544 1.0585669 1.0619489 1.0486811
1.0642862 1.0644784 1.0638134 1.0692234 1.0599558 1.0538567 1.0599532 1.0646993

features.2.bn.bias f4 [32]
00000000: 93d4 b93c 8476 ff3c 403d 3e3d 4987 f73b
00000010: b870 233d 370b 193d c48c 3e3d 763d 623c
00000020: dc2a 523c 7d90 153d 5e57 0f3d cb23 233d
00000030: 147a 203d 328c ae3c 55ba 153d d164 123d
00000040: a120 e93c f095 933c 4e1a 4c3d 8153 ab3c
00000050: c003 153d b82e 453c adad 5e3d 8875 7c3c
00000060: 34f6 093d 225e 0d3d acf9 483c 8a57 213d
00000070: ac6b 273c f59d a23c eeb7 b43c 6430 873d
0.022684371 0.031184442 0.04644513 0.007553969 0.03990242 0.03736421 0.046520963 0.013808599
0.012827601 0.036514748 0.03499543 0.039829057 0.039178923 0.021307085 0.036554653 0.035740677
0.028457941 0.018015832 0.049829774 0.020913841 0.03638053 0.012035064 0.05436485 0.015408881
0.033682063 0.0345136 0.012266558 0.039390124 0.010218542 0.01985071 0.02206036 0.06601027

features.2.bn.running_mean f4 [32]
00000000: 6b6f 5b3f b889 f43d 91d5 373f 6d7d 0dbc
00000010: 0fe3 c43e 6e67 163f f16a 1e3f 96a3 0d3f
00000020: 6fdd 143f 4952 69be 1b44 96be 98e6 c23e
00000030: d369 13bf 05e6 173e 5388 563f bb55 61be
00000040: 3e78 d73e c9e9 9dbe ae51 76bb d2bb b33e
00000050: 7b50 dc3e a3eb d0be 829d ffbe 7cc5 ea3d
00000060: 4ac7 afbd 894c fe3e c99b e83e d60f 04bf
00000070: 1020 9a3f 7ad5 8cbe ded1 a43e a41d 033f
0.85716885 0.1194033 0.7181025 -0.008635861 0.38454482 0.5875157 0.6188193 0.5532774
0.5815038 -0.22785296 -0.29348835 0.38066554 -0.5758335 0.14833839 0.83801764 -0.2200536
0.42083925 -0.30842426 -0.0037585306 0.35104233 0.43030152 -0.40804777 -0.49924856 0.114634484
-0.08582933 0.49667767 0.45431355 -0.51586664 1.2041035 -0.2750662 0.32191366 0.51217103

features.2.bn.running_var f4 [32]
00000000: 2af8 dc3e c3af 7c3e 8dc5 273e 1e79 e93d
00000010: eba9 583e ccb1 963e 23cc 3d3e d8c8 493e
00000020: feef b83e e21b 173e d2d2 273e 4822 e33d
00000030: fd63 fd3d b4fa 7c3e bf79 383e 5be9 a63e
00000040: f69b 4d3e 70ca 7a3e 452f 413e 3952 1a3e
00000050: 6ae8 923e d109 253e eb87 9a3e 9890 2f3e
00000060: 857b 8f3e 9575 693e 793a 353e 5840 893e
00000070: 9e07 7c3e f26a 283e f8b8 303e f1e1 443e
0.43158084 0.24676423 0.16383953 0.114000544 0.21158569 0.29432523 0.18534903 0.19705522
0.361206 0.1475673 0.16389015 0.11090523 0.12372587 0.2470501 0.18015192 0.3259991
0.20079026 0.24491286 0.18865688 0.15070428 0.28692943 0.16117026 0.30181822 0.17145002
0.28023925 0.2279876 0.17698087 0.26806903 0.2461228 0.16447046 0.1725806 0.19226815

features.3.weight f4 [32, 32, 2, 2]
00000000: 6434 f3bc fad6 b6bd 9637 a3bd ab9c df3d
00000010: 7cec 31bd 4da0 003e fc1a 7d3d fae3 15bd
00000020: b95d f63b b5bf cb3d 6684 3d3d 055f b83d
00000030: 9dae a1bd c501 90bd f9bc 9f3d 00f1 96bd
00000040: 2472 aebc 16c2 223c da8c 333a 0fad aabc
00000050: 89a8 f7bd a528 973c e106 823d 0c0a 663d
00000060: 618e 683c e450 93bb 4e9a c33c 524b ec3c
00000070: fcfc 07bd 703c 36bc 4227 cbbc 8b24 66bc
00000080: 4933 42bd d798 783c 8e3c b1bd 0012 663a
00000090: 30cd 00be cb80 d43d 2791 053e 4c5f 10bd
000000a0: 7ffa 3ebd becb 96bd b502 c13d 31b0 0e3e
000000b0: 26cb da3d 0b5c 26bd ab4b 88bc c36e 603d
000000c0: da0e 9c3d 6d3b 75bd 2e80 ccbd 5be9 20b9
000000d0: b945 a73b ad46 ff3d 4039 a6bd 91db ba3d
000000e0: e5fb edbc 7baf 57bb 8361 d33d 4fda aabd
000000f0: 0cd2 e93d b5fb b03d d63b 7ebd f18e b33d
00000100: e0a7 5abd bcd8 a73c 4702 7a3c 2fcd 02be
00000110: 7de2 fbbc e0cb 953d c52b 353d 115c cdbb
00000120: bb7c efbb 1540 b13b 3c69 1fbc faa4 babd
00000130: b0f6 7cbd 3b12 7abd 269a 873d 2844 bb3d
00000140: e79a 1c3d 3cb3 6c3d 14c4 e43d 0401 b0bd
00000150: 4a75 66bc 9444 513d 58d7 9f3d 7dab 3a3c
00000160: 9e1c 9abd f90b bf3d ceb3 bdbc edac c33d
00000170: fd2b 283d 8d48 083c e10a 42bd 8655 a8bd
00000180: 36bb a23c 29db ca3d 8cbd acbd c6ed a73d
00000190: da20 1fbd d72a bcbd d70d 91bd 2d3e 29bd
000001a0: f0f7 98bd efbe ce3d f0d8 bfbd 51f1 13bd
000001b0: b4b8 efbd e3f3 cf3d 7f52 63bd a355 98bd
000001c0: cbe4 a03c 3afd 30bd f8bb 853d 4943 393c
000001d0: 0b24 c43d 84e9 95bd 5577 6abd 9ad7 8cbd
000001e0: d6b6 803d f42c 0c3d 9c74 063d 20f6 b33d
000001f0: 1cd5 013e 5f62 b1bd 0064 e93c 5d8d c7bd
00000200: 3bf4 193d 7282 f7bc 7cd7 9cbc 1a11 a63c
00000210: 98e7 b0bd 98c6 a6bd b600 9ebd 482c 78bd
00000220: c2df 7f3c 392b 263c 623c 773d 755e 5dbd
00000230: 6cb8 33bd 6371 e4bd cb1c 20bd bd27 483d
00000240: 70d6 08be 7e65 b03d 6cd0 50bd 61ce 923d
00000250: f687 7ebd fe89 a23d d136 593d c1f1 c1bb
00000260: 6bf6 90bc 60e1 463d ffcf 09be 55fc 7c3d
00000270: e7a3 6bbd 6e9d be3d 28eb b4bd 8759 21bd
00000280: 388b df3c 80a7 cbbc ddd8 483d 71a8 853d
00000290: 7efb 953d 8453 89bd 70de c63c 38e5 66bd
000002a0: 5776 6cb9 5e0e 8fbd e50e 3b3d 326a 013c
000002b0: 1090 93bd 0898 eebd 5126 f33c d630 70bd
000002c0: d995 e13d 0576 133d 06f0 133d 6e85 eebc
000002d0: 66e8 5fbc c1e4 c4bc 28b4 efbd 9feb 9b3d
000002e0: d95d c2bd f76f e93c c092 8dbd ce75 c13d
000002f0: d582 c73d 24d2 aabd f74a ab3d 8e52 00bd
00000300: 2803 5cbd d4d9 693d fcf7 a63d 11a5 823d
00000310: d45e 09be de16 e93d 4443 cf3d 09ec 973d
00000320: 2d84 053d 7c68 64bd fce3 a63d 75b5 d73d
00000330: 7f65 cdbc f980 0fbd 3fd9 a33d 4ca5 9e3d
00000340: a238 a13d 968b c93d afa7 f73b 00b3 a5bc
00000350: f431 0fbd adf0 5e3d 6e22 8abc 9af9 debd
00000360: 51a4 eebc 7a47 87bd a966 a6bd 7e7b cf3d
00000370: abc8 fcbc 02eb 1e3d d896 0fbc 201c 5dbd
00000380: cf96 77bc 8e5b d43d 22fd 4dbd cded d93d
00000390: 9a6d 9f3d 9e88 7c3d 267a e6bd 6cc0 4bbd
000003a0: 6d32 f5bd a87e 983c 842f 35bd 0fef 063d
000003b0: 30c1 843d 1890 f63c 7f4f dfbd 024f 8dbd
000003c0: 2782 273d 31c2 ccbc 3138 833d 4a25 53bd
000003d0: c0aa 013c b5fa f63b 7a22 b9bd 2929 2f3d
000003e0: 436f 7f3d e062 86bd 1a9a 88bc ea43 72bc
000003f0: 61b3 fd3c dd75 90bc 955f 073e 0626 e8bd
-0.029688068 -0.08927722 -0.079695866 0.10918554 -0.04343842 0.1256115 0.061793312 -0.03659437
0.007518497 0.099486746 0.046268843 0.090024985 -0.07894633 -0.070315875 0.077997155 -0.07370186
-0.02129466 0.009933969 0.00068492966 -0.020834474 -0.120926924 0.018451998 0.06348968 0.056161925
0.014194102 -0.004495727 0.02387729 0.02884451 -0.03320025 -0.011122808 -0.024798993 -0.014046798
-0.04741219 0.015173159 -0.08654128 0.0008776486 -0.12578273 0.10376128 0.13043652 -0.035247132
-0.04662561 -0.073630795 0.094243445 0.13934399 0.10683279 -0.040615123 -0.016637644 0.05479313
0.0762002 -0.059871126 -0.09985386 -0.00015345721 0.005104747 0.12464652 -0.08116388 0.0912391
-0.029050777 -0.003291099 0.10321333 -0.0834242 0.114170164 0.08641759 -0.062068783 0.08767498
-0.053382754 0.02048909 0.015259332 -0.12773584 -0.030747646 0.07314277 0.044231195 -0.0062670787
-0.00730857 0.0054092505 -0.00972968 -0.09113498 -0.061758697 -0.061052542 0.06621198 0.09143859
0.038233664 0.05778812 0.111702114 -0.08593944 -0.01406605 0.05109079 0.078047454 0.011393425
-0.075249895 0.093284555 -0.023157027 0.09554467 0.041057575 0.008318079 -0.047373656 -0.08219437
0.01986466 0.09905083 -0.08434591 0.081996486 -0.03884969 -0.091878586 -0.07082718 -0.04131906
-0.07469165 0.100950114 -0.093675494 -0.03611881 -0.11705151 0.101539396 -0.055498596 -0.07438209
0.019640347 -0.043210246 0.06529993 0.011307546 0.09577187 -0.0731993 -0.05724271 -0.0687706
0.06284873 0.03422256 0.03282605 0.08787179 0.12678951 -0.08661341 0.028490067 -0.0974376
0.037586432 -0.030213568 -0.01914572 0.020271827 -0.08637923 -0.081433475 -0.07714979 -0.060589105
0.015617313 0.010142141 0.06036032 -0.05404516 -0.04387705 -0.11154439 -0.03908996 0.048866022
-0.13363051 0.08613108 -0.050980017 0.0716827 -0.06214138 0.07936476 0.053030793 -0.005918712
-0.017695626 0.048554778 -0.1345825 0.06176408 -0.057529356 0.09307371 -0.08833915 -0.03939202
0.027288064 -0.024860144 0.049034942 0.06526268 0.07323359 -0.067053825 0.024275988 -0.056370944
-0.00022550799 -0.06985162 0.0456685 0.007898854 -0.07205212 -0.116500914 0.029681357 -0.058640324
0.11014909 0.036001224 0.036117576 -0.029116359 -0.013666248 -0.02403486 -0.11704284 0.076133005
-0.09490556 0.028495772 -0.06912756 0.094462976 0.09741751 -0.083408624 0.08363908 -0.03132873
-0.053713948 0.057092503 0.08152768 0.0637914 -0.1341508 0.11381315 0.10120252 0.07418067
0.032596756 -0.055763707 0.08148953 0.10532657 -0.025072811 -0.035035107 0.08000421 0.077463716
0.0787213 0.09841077 0.0075578312 -0.020226955 -0.03495975 0.054428745 -0.01686212 -0.108874515
-0.029131087 -0.0660543 -0.081250496 0.10130976 -0.030857405 0.03879834 -0.008763991 -0.0539819
-0.015111639 0.10369025 -0.050290234 0.1064106 0.07784577 0.061653726 -0.11253767 -0.049744055
-0.119725086 0.018615082 -0.044234768 0.032942828 0.0648216 0.030098006 -0.109038346 -0.06899835
0.040895607 -0.024994941 0.06407202 -0.051549233 0.007914245 0.007537211 -0.09039779 0.042763863
0.062361967 -0.06561828 -0.016675044 -0.0147867 0.030969324 -0.017634327 0.13220055 -0.113353774

features.3.bias f4 [32]
00000000: 6db0 0e3d 78ba 5d3d 62f7 ffbb 63b9 f13c
00000010: 8b85 953d 26d1 713d dae2 213d 5341 643d
00000020: 0d25 b9bd e099 b93c 99f7 843d 8ab5 91bd
00000030: 9e89 97bd 6a89 92bd 09e7 1d3d 87b5 963d
00000040: 446e 4dbc d8af 01bd ca28 343c 9dff 96bd
00000050: 66f9 eb3c eaea 88bd 0102 55bd 481e 91bd
00000060: 30cf 26bd bbc5 613d 9f54 533c 36ca 893d
00000070: 223e 9dbd 4d0f 8ebd 5d8f 3c3d 6aa4 9a3d
0.03483622 0.05413291 -0.0078114728 0.029507345 0.07300862 0.05903735 0.039522983 0.05572636
-0.0904027 0.022656381 0.06492538 -0.07114704 -0.07399295 -0.07155116 0.03855041 0.07358842
-0.012538496 -0.03166184 0.010996053 -0.07372973 0.028805446 -0.06685431 -0.052003864 -0.07085854
-0.040724933 0.05512021 0.012898593 0.06728022 -0.076778665 -0.06936512 0.04603516 0.07550891

digit_classifier1.fc1.weight f4 [32, 480]
00000000: a85f 4f3d 5c0d fabc 8d8c 0c3c 46bf 07bd
00000010: e1c9 cfbc 0045 33bc d807 083d ad1c 08bb
00000020: 4f42 52bd 5411 05bd 0928 f7bc b2be bb3c
00000030: 000d 023c 2e14 0d3d a2ce 47bd 4c97 58bd
00000040: 66c1 f83c 0db9 2a3d c82f 01bd c989 03bc
00000050: 462a ac3c f85f ef3c 3709 47bd e443 0dbd
00000060: 2a5f c03b a079 bc3c daa1 80bb 1c92 70bc
00000070: b473 25bc 220d f33c 145c c4bc d4c6 053d
00000080: 367d aabc c5c2 843c cf00 00bd 38b1 293d
00000090: 543e 5ebc 8218 743c ac4a 89bc c073 833c
000000a0: 18be 29bc cc07 3cbc 14a9 01bc c49a 243d
000000b0: a976 953c eca2 e638 4dd6 4f3d 177c aa3c
000000c0: 3159 3ebb 9d9a 203c d2f2 c3bb 9a7e ccbb
000000d0: cf6e 1cbb 5551 ba3c adbb ebbc 87fb c1bc
000000e0: c91a 2e3d 8503 753a d9ce 263c 81cc e33c
000000f0: 943a 04bd 17bb a43c 2cd9 b5bc e9fb 6f3c
00000100: 971d a2bc b141 f93c 917c 35bd 314e 223d
00000110: 3717 b13b c8c5 e9bc e4aa 5fbb 99dd ef3c
00000120: 86b6 673d 87cb c63c 36fa 833c 98f8 d9bc
00000130: 7173 b9bc 527b 1abd 0f28 abbc 3b69 a13c
00000140: 3179 1dbb f6d9 b53c d2dc cdbb e4cd f3bc
00000150: eb70 3ebc 2819 03bd 09d6 01bb 817f b7bc
00000160: 6c51 403d 063e 013c 692c 61bc bf5c 9aba
00000170: 06cc edbc 0d4b 373d 4b35 04bd c447 153b
00000180: c9a9 793c b99c 283c 5cae d0bc 9838 2c3c
00000190: cac1 103d bc68 8fbc c190 2c3d 15ae e6bc
000001a0: 43c8 54bc f31a 7dbc b647 87bc 03c6 8d3b
000001b0: 15da ac3c 2e9a 37bd 3500 463c 33ca 6fba
000001c0: 4053 d53c e8b8 4c3c 8c7b b2bc e43a 96bc
000001d0: 7504 2dbd 4e4f ebba e064 c33c 61a5 7b3b
000001e0: 951d cd3c 278d f63c eb27 a93c be14 023b
000001f0: ddd2 e1bc 644d a7bc 424e 4f3d 7e29 533d
00000200: 9158 6abb 2a0e 4a3d aab7 4a3d 58d7 ddbc
00000210: 7f05 69bd 48b8 0dbd a40b 87bc dc0c f23c
00000220: 9163 ed3b dbaa 8b3c ce29 0cbd 46e2 983c
00000230: 3166 bfba 3554 35bd fac5 3abd c4df 8e3b
00000240: 54ef fa3c deba 2cbd db9d d3bb d397 61bd
00000250: 2757 923c 077a d03a 0872 c0bc 7a61 133d
00000260: fc47 fc3c 6c9e 2e3d d642 efbb 06cd 493c
00000270: 5d6e 243c 8224 673b 1910 4fbd 5d44 b9bb
00000280: cc31 243d 477f 3abc 1139 413d 9daa 4b3b
00000290: 87ad 633d dd2c 75bc e1d3 343d 22d6 07bc
000002a0: 3bd0 343d ced5 173d d8c6 f73c eb9f ce3c
000002b0: 284b 203d 5457 cfbb 69cf 3abb 4fcb c63c
000002c0: f8ff a7bc 37dc 6e3c c842 fd3c 9a7e f2bc
000002d0: 4120 1a3c 780c 18bc d3a7 bebc 2760 433d
000002e0: 3f94 20bc 2aa4 febc ddf3 81bb 3bf8 a43c
000002f0: 1d0a 383d 635f 3cbb 6123 543d 0a5e ffbc
00000300: b133 ccbc d265 1eba 679a 2abd 827d 583b
00000310: 1ab5 953c b968 4ebd ce83 b0bc 0837 5d3c
00000320: e26a b1bc 5014 5b3d 003f f23c b1ab 2cbd
00000330: beb9 1e3d cee6 64bd a33f d53b 9a3e 68bc
00000340: a72b 3e3c aaf2 043d de01 babb d916 15bd
00000350: 3a45 153c d453 9dbc 705d ee3c 416b 3cbd
00000360: 55c8 a0bc 5dae 4dbd 84a6 1abd 5eeb cbbc
00000370: 8af3 2bbd e3f8 2fbd baf8 bdbc 1c64 1bbd
00000380: 96e3 21bd f603 1abc 1103 3dbd a859 6c3c
00000390: bc2f 953c c3d3 f63c dc37 153b de83 84bc
000003a0: d889 a2bc bd7a 09bd d21b 9d3c 69b2 5b3c
000003b0: 49ca ac3c 99cd a9bc 73c4 31bd d507 5c3b
000003c0: 9f8d e63c d184 9cbc 98c3 cc3c 8dd0 a63c
000003d0: 7202 893b 5b55 c6bc f499 debc 23ad a2bc
000003e0: 3c8a 7abc 092b aebc afb7 66bd 05d5 30bd
000003f0: 0ac9 d7bc ec1b be3c 6823 e53b eedf 5abd
0.050628334 -0.030523948 0.008578432 -0.033141397 -0.025364818 -0.010941744 0.033210605 -0.0020769045
-0.051332768 -0.03248723 -0.030170457 0.022918079 0.00793767 0.034443073 -0.048781045 -0.052878663
0.030365657 0.041680384 -0.03153971 -0.008028456 0.021016251 0.029220566 -0.048592772 -0.034488574
0.0058707194 0.023007214 -0.003925544 -0.014683273 -0.010098387 0.029669348 -0.023969688 0.03266032
-0.020811658 0.016206155 -0.03125077 0.041428775 -0.013564665 0.014898421 -0.01675924 0.016046405
-0.010360263 -0.011476468 -0.0079138465 0.04018666 0.018245058 0.00010997601 0.050741483 0.020811124
-0.0029044861 0.009802488 -0.005979874 -0.006240678 -0.0023869758 0.02274386 -0.028776014 -0.023679508
0.042506013 0.0009346533 0.010181152 0.027807476 -0.032282427 0.020108743 -0.022198282 0.014647462
-0.0197895 0.030426832 -0.04430825 0.03962535 0.0054043788 -0.028536692 -0.0034128958 0.02928047
0.056570552 0.024266971 0.01611052 -0.026607797 -0.022638055 -0.037715264 -0.020893125 0.019703498
-0.0024028535 0.022198658 -0.0062824273 -0.029761262 -0.011623601 -0.032006413 -0.0019811413 -0.022399666
0.04695265 0.007888323 -0.013743498 -0.0011776908 -0.02902795 0.04474931 -0.032277387 0.0022778371
0.015238234 0.010291272 -0.025473766 0.01051154 0.03534106 -0.017505996 0.042130236 -0.02815918
-0.012987199 -0.01544832 -0.016513687 0.0043265834 0.021100083 -0.04482477 0.01208501 -0.00091472565
0.026040673 0.012495257 -0.021787427 -0.018338628 -0.04224058 -0.0017952712 0.023851812 0.0038398134
0.02503852 0.030096604 0.020648917 0.001984879 -0.027566368 -0.020422645 0.05061174 0.051553242
-0.0035758356 0.049329914 0.049491562 -0.027080223 -0.056890007 -0.034599572 -0.016485043 0.029547147
0.0072445353 0.017049244 -0.034219556 0.018662583 -0.0014602599 -0.04426976 -0.04559896 0.004360171
0.030631699 -0.042170398 -0.006458027 -0.05507643 0.017863823 0.0015905508 -0.023491874 0.035981633
0.030796044 0.04263155 -0.0073016686 0.012316948 0.010036078 0.0035269563 -0.05055246 -0.0056539015
0.040086553 -0.011382884 0.047173563 0.0031077035 0.05558541 -0.0149643095 0.044147376 -0.008290799
0.044143897 0.037069134 0.030246183 0.02522274 0.039134175 -0.006327549 -0.0028504974 0.024266867
-0.020507798 0.0145788705 0.030915633 -0.029601384 0.009407104 -0.0092803165 -0.023273384 0.04769912
-0.00980097 -0.031084139 -0.0039658383 0.020137897 0.04493152 -0.0028743378 0.051791552 -0.031172771
-0.024926992 -0.0006042394 -0.041651156 0.0033033793 0.018274833 -0.05039284 -0.021547224 0.01350189
-0.021657411 0.05348617 0.029571056 -0.042155925 0.038751356 -0.055884175 0.00650783 -0.014175082
0.011607087 0.032457985 -0.005676492 -0.036398742 0.009110743 -0.019205011 0.029097289 -0.046000723
-0.019626776 -0.050215114 -0.037756458 -0.024892505 -0.041980304 -0.042961966 -0.023189891 -0.03793727
-0.039523683 -0.009400358 -0.046145502 0.014425673 0.018211238 0.030130273 0.002276889 -0.01617616
-0.01984112 -0.033564318 0.019178305 0.0134092355 0.02109255 -0.02072792 -0.04340024 0.0033574004
0.028143702 -0.0191063 0.02499561 0.020363117 0.0041811997 -0.024210623 -0.02717302 -0.019857949
-0.015291747 -0.021260755 -0.056327518 -0.0431719 -0.02634098 0.023206674 0.006992746 -0.053436212

digit_classifier1.fc1.bias f4 [32]
00000000: 51f3 8cbc 53ff dc3c 87e2 bebc eb85 c33b
00000010: 59e9 0c3c b40c c83c deda 613c 8162 e23c
00000020: 515d bc3c dcd3 743c acb9 1e3d 7182 03bd
00000030: 1ca7 3bbd 1433 b9bb 9457 183d 3b4e f53c
00000040: fbe2 013b d72a a03c 13b1 82bc 3061 5f3b
00000050: a771 e4bc 9476 2c3c e7f4 1abc 5a44 563d
00000060: 480e 1c3d c8d6 22bd dc5c 1f3c 3599 0d3c
00000070: 0f06 043d 3a4f a03c ecb8 e7bb 3cc0 45bc
-0.017205866 0.026977217 -0.023301376 0.005966892 0.008600556 0.02442012 0.013785092 0.027634861
0.022993715 0.014943089 0.03875129 -0.03210682 -0.045813665 -0.005651841 0.037192896 0.02994453
0.0019819129 0.019551678 -0.015953576 0.0034085028 -0.027886225 0.010526318 -0.009457803 0.05231128
0.038099557 -0.039755613 0.009726729 0.008642484 0.03223234 0.019569028 -0.007071605 -0.012069758

digit_classifier1.fc2.weight f4 [10, 32]
00000000: 51e5 18be edfa 47be 305e 27be 496a c2bd
00000010: af43 393d 8c1c 203e 8d2e 32bd 3631 4a3e
00000020: da11 ef3d f54d bf3d aebb ce3d 28b7 86bc
00000030: 7e33 30bd c9c9 43bd aa7c 36be 3635 33bd
00000040: 7039 cbbd e7f5 1ebe 52ab f7bd 6377 2d3e
00000050: 5253 ae3c 3886 2b3e 633a 1f3e e2eb b43d
00000060: daea 0fbe 5a08 57bd 5d7d cf3d 0404 5b3d
00000070: e438 08be 8950 513e 6083 2d3e 6938 ec3d
00000080: 51cd c3bd 5075 f73d cd3e 123e c920 ee3d
00000090: 5fbb a0bd 3244 ff3c 7f9d 01be aa99 a0bd
000000a0: 7c6f dfbd c7f9 2b3e 9b2c 18be f243 4b3d
000000b0: d89f 033d f94c 0a3b 83df 9f3d 01d0 efbd
000000c0: 28fa c83d 361b 283e 82a5 20be eae8 ea3d
000000d0: cbb3 02bd 8008 5c3d ee30 39bd 805a 933d
000000e0: e2c9 0d3e d021 48bd adfb 30be ad46 b7bc
000000f0: 7e8a 193e 5acc 3cbe 73ab 1e3e b5dc 93ba
00000100: c35c c2bd 1e19 7f3c ff05 cb3d 5897 4cbe
00000110: c8c3 15be 69e3 18be 4805 f03d 8fad 35be
00000120: 3565 0f3e 8b14 fc3d cd9e 9e3d 736b 193e
00000130: a08f 2cbd 8c25 94bc 9a92 d93d 4398 09be
00000140: 9138 3a3e 712f 41bd a61b 21be 2bcf b13d
00000150: 933d b0bd 2b09 293e d7ce 37bd afa4 1a3e
00000160: d7b5 abbd a501 f2bd 8cba 963b e1f5 15bd
00000170: 44d2 973d 046b 913d 9c2c 4cbd 23b9 4abe
00000180: b1a6 3ebe e08d 113e e4b2 e83b 3fb5 02bd
00000190: e150 f83d 2785 cf3b 7cb1 853c bb40 0cbe
000001a0: 5749 1ebe 31ff 39be d918 12bd ed4e fdbc
000001b0: 5517 06be 3009 d13d e295 3dbd 4b0b 463d
000001c0: 46da b6bd 8ceb c5bd 8e29 d3bd fce0 8fbd
000001d0: 9ca7 71bd b362 02be 5d4d 0a3e 964f d73d
000001e0: 5798 143e cc2f 1a3e e36e c0bd eff8 873d
000001f0: 2d5c cdbd 7dfb 103e 41f8 acbd 8dd0 1ebe
00000200: 026b cbbd 2694 b6bc 1a52 2ebe b936 bfbb
00000210: 7567 41bc bb0d 3cbe 5054 093e 1d1a a3bd
00000220: 3014 133e 237c 21bd 11c3 b93d 9951 273e
00000230: a4d5 0dbe e91d 963d 4f38 cf3d 3724 0b3c
00000240: 11b7 46be 881e 9fbd 2a98 073d 9b0f 24be
00000250: 1100 173e 2237 04be 2e46 b8bd 3e94 4a3d
00000260: 1275 3bbe fce0 c43d 5d15 dfbc 02d8 433c
00000270: 56d4 38be 3eac 34be 04ba 1fbe 527c 48be
00000280: 05bb 1a3e 8785 bdbd 2a9a ff3b 24bf 31bc
00000290: 7413 cbbd fa25 2abe 2b28 1fbe 5a84 083d
000002a0: f579 90bd 1d62 5a3d 9164 c23d 212a d1bc
000002b0: a545 34bb 6efb 17bd 38c6 29be 1b5a f33d
000002c0: 864b 30be 0f3d 50bd f11c 263e d7e3 b6bd
000002d0: 3f70 e33c a697 ae3d 6e4c 20be 496b b53a
000002e0: fa2d bebd 46f7 f0bd 8c7d 41be 8db3 c23d
000002f0: 21db d3bd 93e2 fe3d 3ede 0e3e 5919 afbc
00000300: 71f1 083e 99b3 a8bd febb 813d 7dce 29bd
00000310: 1b27 06be ceb1 fcbd c8ed febd 2dea 563c
00000320: 8429 3bbd 227f cb3d 2c8d 3d3c 694b 54bd
00000330: 6e06 33bd a848 d13d dec1 08be 6644 263e
00000340: 823a 55bd 70cb b2ba 59ff 1a3e 1a94 40be
00000350: 6cbc dc3d 783b d13d 8032 dc3d 77d0 aa3c
00000360: ba63 a5bd 4142 07be ea9a b33d 7e4d fc3c
00000370: 4c71 cb3d 429a 8b3d e144 05be 6134 a43d
00000380: 59b5 3d3b 6dc8 3dbe acba f3bb 8167 ecbd
00000390: 94ee 9dbd 6f95 b5bd 7706 35be be7a 13be
000003a0: 4407 003e be33 f9bd 93a5 66bd bd81 15bd
000003b0: c4c7 fd3d 8883 9b3d 0540 cabd 1fe5 66bb
000003c0: 0587 e3bd 8693 3cbc 5089 cfbd 080d 04be
000003d0: c1d3 73bd e332 24be 24bf c3bd 42ea 0b3d
000003e0: c723 44bd 2973 1ebe df0a 14be ee49 efbd
000003f0: b06e a33d c445 15be 3f7f 23bd f13f a43d
-0.14931227 -0.19529314 -0.16344523 -0.094929285 0.045230564 0.1563589 -0.043501426 0.19745335
0.11673327 0.09341041 0.10094391 -0.016444758 -0.043017857 -0.04779986 -0.17820993 -0.043751918
-0.09923065 -0.15523492 -0.12093224 0.16940074 0.021279965 0.16750419 0.15549617 0.088340536
-0.14054433 -0.0524982 0.10131333 0.053470626 -0.13302952 0.20440878 0.16944647 0.11534197
-0.09560645 0.120829225 0.14281769 0.11627347 -0.07848238 0.031160448 -0.12657736 -0.07841809
-0.10909936 0.16794501 -0.14860766 0.049625345 0.03213486 0.0021103008 0.07806303 -0.117095955
0.098133385 0.1641663 -0.15688136 0.11470206 -0.031909745 0.053719044 -0.04521268 0.07194996
0.13846543 -0.04886037 -0.17283507 -0.022372568 0.14994237 -0.18437329 0.1549509 -0.0011280986
-0.09490349 0.015569953 0.09913253 -0.19979608 -0.14625466 -0.149305 0.11719757 -0.17741989
0.14003451 0.12308606 0.077451326 0.14982395 -0.04212916 -0.01808431 0.10623665 -0.1343699
0.18185641 -0.047164384 -0.15733203 0.08682092 -0.08605494 0.16507404 -0.044874992 0.15101884
-0.083842926 -0.1181672 0.004599875 -0.03661144 0.07413152 0.0710049 -0.04984723 -0.19797187
-0.18618275 0.14214277 0.0071014035 -0.03191113 0.121248014 0.0063330117 0.016319983 -0.13696568
-0.15457664 -0.18163754 -0.035668228 -0.030921424 -0.13094838 0.102068305 -0.046285518 0.048350614
-0.08928351 -0.096640676 -0.1031066 -0.07025334 -0.058997735 -0.12732963 0.13506074 0.10513227
0.14511238 0.15057296 -0.0939615 0.06639277 -0.10027347 0.14158435 -0.08445788 -0.15509243
-0.099325195 -0.02228744 -0.17023507 -0.005835381 -0.011804451 -0.18364613 0.13411069 -0.07963965
0.1436317 -0.039425027 0.09070409 0.16339721 -0.13851029 0.07329924 0.10118162 0.008492521
-0.19405772 -0.07769495 0.0331041 -0.16021578 0.14746119 -0.12911656 -0.08997761 0.04945778
-0.18306378 0.09613225 -0.027231866 0.011953356 -0.1804975 -0.1764383 -0.15598303 -0.19578674
0.15110405 -0.09253984 0.00780036 -0.010848794 -0.0991582 -0.1661605 -0.15542667 0.033329345
-0.070545115 0.053316224 0.09491838 -0.025532784 -0.0027507332 -0.037105016 -0.1657952 0.11882421
-0.1721631 -0.05083948 0.16221978 -0.08930176 0.027763484 0.085250184 -0.15654156 0.0013841178
-0.09286113 -0.11765914 -0.18895549 0.09506903 -0.1034453 0.12445559 0.13951966 -0.021374391
0.13373353 -0.082373805 0.06334685 -0.04145669 -0.13100855 -0.12338601 -0.12447697 0.013117355
-0.04569389 0.09936358 0.0115693025 -0.05182973 -0.043707304 0.10218936 -0.13355204 0.1623703
-0.05205775 -0.0013640951 0.1513647 -0.18806496 0.10778126 0.10216421 0.107518196 0.020851357
-0.08075662 -0.13208868 0.08769782 0.03079867 0.09933719 0.06816532 -0.13014556 0.08017803
0.0028947203 -0.18533488 -0.0074380245 -0.11543179 -0.07711521 -0.08866393 -0.17678247 -0.14402291
0.12502772 -0.12168072 -0.056310248 -0.03650068 0.12391618 0.07593447 -0.09875492 -0.0035231782
-0.11109737 -0.011509782 -0.10133612 -0.12895596 -0.059528116 -0.16035037 -0.095579416 0.034158953
-0.047885682 -0.15473618 -0.14457272 -0.11684023 0.07980096 -0.14577395 -0.039916273 0.08020008

digit_classifier1.fc2.bias f4 [10]
00000000: 7111 0c3e bfd0 81bc 9e1b 0fbc 94a9 04be
00000010: 7a88 053d d3ec dc3d 7de5 24bd 7628 11be
00000020: d393 103e 9a4f 3e3d
0.13678528 -0.015846608 -0.008734612 -0.12955314 0.032600857 0.10787358 -0.04025792 -0.14175591
0.1411889 0.046462633

digit_classifier2.fc1.weight f4 [32, 480]
00000000: 3587 bb3c 7055 7b3b aa19 003d f0d2 e0bc
00000010: 7f22 da3c fd39 3b3d ac64 0c3d 5554 34bc
00000020: 6a35 3abc a917 f63b 6756 51bd 14d4 4f3c
00000030: a413 4a3c d1b6 29bd e884 e43c 8c57 20bc
00000040: 7c3d e3ba 19db 46bd 405b 6d3b 5f80 b03b
00000050: ed3a b5bc 3726 0c3c b0dd ec3c c7c9 123d
00000060: 5dca 11bb 30f3 153d 94bc 0a3d edd0 993c
00000070: 7281 ae3c 0a4d 3ebd c71a 393d 4438 1a3d
00000080: fafc 4e3b 3f5a 213c 6ba0 b83c edd4 943d
00000090: 7131 19bd 782e 30bd f9df 79bc 409a 6cbc
000000a0: 70eb f23c ee41 863c a526 543b 502c 0c3c
000000b0: d9d4 27bd 1f25 81bd 16bd d13b 8a2d 533d
000000c0: 9ade 51bd d5ae 21bd 414d fdbc ba85 9e3c
000000d0: 22f0 913b d8d7 4dbc 2257 f3bb 0721 86bd
000000e0: e71e 8b3b 95a4 efbc 7ee8 113c 2ca9 583c
000000f0: 84f7 463d 0fb8 6bbc 439f ff3c 5b41 7cbc
00000100: cba7 a23c c778 ac3b a1cb 313a 2f18 95bc
00000110: 7f42 98bc 9c02 dbbc 5edd 9938 604c 74bb
00000120: 6c8a c1bc 3392 6d3d c8c7 39bd 72a9 9abb
00000130: 346a c0ba f92d cd3b 2f2d 07bd a22f 1a3b
00000140: a6c1 9f3c f378 50bc 7ce4 4e3c e0e2 14bd
00000150: 21d0 0d3c 5107 983c abef 743c e0b0 213d
00000160: 2c4c 203d 28d8 e4bb 7038 093d 5701 a3bd
00000170: 446e 263c 571d 54bd a052 73bd 8c97 993b
00000180: 5a88 583d 3232 39bd b6fd e5bc f0ee 733b
00000190: 60ce 34bd 1159 10bd 2ff7 7d3b 71a6 4d3d
000001a0: 9953 7738 5e3f c0bb cc31 493c 9693 30bc
000001b0: 6705 e83c e3af 303d db93 3dbc 4a69 0bbc
000001c0: 1a63 80bd d914 7d3d f721 8a3d a5d4 733d
000001d0: d7b7 883b dfb2 223d 32b0 083d e829 923b
000001e0: 9430 0b3d c699 31bd f26f 6cbb e7f7 7d3b
000001f0: bca7 8cbc f481 da3c 3b30 afbc 1a7d 76bc
00000200: 0f7a aabb 54af b73c 4485 313c fd97 243d
00000210: 9b8b 37bd 6f7f 0abd 877b 373c c830 59bd
00000220: e97b 9fbd 4449 f83c 78f3 8ebd b8e3 53bd
00000230: da87 523d fec6 87bd e7aa 36bc 8ddf 8cbd
00000240: 75f1 563d e89a 903d d459 1dbd b448 173d
00000250: 9be8 9ebc ad76 5fbc 8a54 f8bc abea d73c
00000260: 89e5 6bbd 5c0b 033d 40ed 96bd 413f cd3b
00000270: 0744 85bc 0609 46bd 8362 733d 1549 8c3c
00000280: b5ec 3f3d 4aed 73bd 33c9 243d b125 023d
00000290: cee0 f3bc 6763 8bbc 36e9 143d 6b9d 713b
000002a0: 49e2 05bb 14d9 84bb dea3 15bc be93 edbc
000002b0: 143e 0bbc 3fd1 6f3c d36e 36bd cb6f 333d
000002c0: 24bf 30bd 8579 bf3c ab09 4d3c 87e7 92bb
000002d0: e805 533d d35c 87bb 96e4 3b3d 26e5 eb3a
000002e0: 28bb 2d3d 57cc 9b3d 4957 24bd 6416 2f3d
000002f0: 27a0 e03c 7cb5 29bc 87ff 30bd 11b3 2fbd
00000300: be78 f43c 49ba 54bb b32d e6bc db3b 183d
00000310: 11fd 2ebd 9fc3 063d 9be4 9dbd 872c 803d
00000320: 5b20 493c 868d 80bd 5cfd 05bc 102f dd3c
00000330: 91fe 42bd b2d5 fabc b91d 39bc fc77 b93c
00000340: 41b6 bcbc 6989 8ebb a525 1d3b b22d 943b
00000350: b071 753d 17da 99bb d7d5 07bd 3408 18b9
00000360: 0dc5 d93b bdf7 2c3d 7287 51bd 87f4 383c
00000370: 838d 00bc 3364 df3c 6559 3bbc d6a5 c53c
00000380: e65f cdbc 7823 67bc 614e a63c 951b b639
00000390: 514a 44bd 77cd 0c3d 7b8c 1bbd 49de 263d
000003a0: 0601 623d 3168 9c3d a9a9 8fbd 9b64 8cbd
000003b0: 2d15 a33d bea8 65bd 70eb 06bd 0f0c 07bd
000003c0: 4032 2dbd 1853 913d d516 763c f5c1 07bd
000003d0: 4c94 493c 2e9b ed3c 1919 423d 25a3 be3c
000003e0: fa2c 703d b5fb fe3c 537e 19bc 4fac 133c
000003f0: 40f4 82ba a2aa 4dbd 8572 123d 2414 cd3b
0.02289162 0.0038350485 0.031274475 -0.027444333 0.026627777 0.0457096 0.034275696 -0.011006434
-0.011365274 0.0075101447 -0.05110779 0.012684841 0.012333784 -0.041434113 0.027895406 -0.009786498
-0.0017337049 -0.04854879 0.003621772 0.005386397 -0.022122825 0.008554033 0.028914303 0.03583696
-0.0022245862 0.036608875 0.03387125 0.018776381 0.021301959 -0.04646019 0.045191552 0.037651315
0.0031583891 0.0098481765 0.02253743 0.07267175 -0.037400667 -0.043013066 -0.015251153 -0.014441073
0.029653281 0.01638886 0.0032371667 0.008555487 -0.04097447 -0.063059084 0.0064007146 0.0515571
-0.05123768 -0.039473373 -0.030920627 0.019350875 0.004453675 -0.012563668 -0.0074261585 -0.06549268
0.004245627 -0.029253284 0.008905528 0.0132239275 0.048575893 -0.014387145 0.031203872 -0.015396441
0.0198554 0.005263421 0.0006782357 -0.018200008 -0.018586395 -0.026734643 7.3368414e-05 -0.0037276968
-0.023625575 0.058000755 -0.045356542 -0.0047199065 -0.0014680088 0.006261584 -0.033002075 0.0023526927
0.019501518 -0.012724149 0.012627717 -0.036349177 0.008655579 0.018558176 0.014949719 0.03947532
0.039135143 -0.0069837756 0.03350109 -0.0795924 0.010158125 -0.051785793 -0.05940497 0.0046872552
0.05286441 -0.045213886 -0.02807508 0.0037221275 -0.044142127 -0.03524119 0.003875207 0.05020756
5.8967245e-05 -0.005866929 0.012279939 -0.010777375 0.028322889 0.04313649 -0.011570896 -0.00850899
-0.06268902 0.06178746 0.067447595 0.059528966 0.004172306 0.039721366 0.033371158 0.004460562
0.033981875 -0.04335954 -0.0036077467 0.0038752498 -0.017169826 0.026673295 -0.021385303 -0.015044475
-0.005202539 0.02242247 0.010834996 0.04018401 -0.044810873 -0.033812936 0.011198885 -0.053025037
-0.07787306 0.030308373 -0.06980032 -0.05173084 0.05139909 -0.066297516 -0.011149145 -0.068785764
0.052476365 0.07060796 -0.038415745 0.03693457 -0.019398024 -0.013639134 -0.030313749 0.026357016
-0.05759195 0.031993255 -0.073694706 0.006263644 -0.01626779 -0.04834845 0.05942012 0.017124692
0.0468566 -0.05955247 0.04023094 0.031774227 -0.029770281 -0.017015172 0.03635522 0.003686751
-0.0020429066 -0.004054198 -0.009133307 -0.029001113 -0.008498687 0.0146372905 -0.044539284 0.043807786
-0.043151036 0.023373375 0.012514512 -0.0044831666 0.051519305 -0.0041309386 0.045872293 0.0017997369
0.042414814 0.07607334 -0.040122304 0.042745963 0.027420117 -0.010358211 -0.04321244 -0.04289538
0.02984273 -0.0032459667 -0.028097963 0.037166458 -0.04272181 0.032901403 -0.07709619 0.06258493
0.012275781 -0.062769935 -0.008178081 0.02699998 -0.047606055 -0.030619476 -0.01129859 0.02264022
-0.023036124 -0.0043498767 0.0023978737 0.004522049 0.059922874 -0.004695188 -0.033162918 -0.00014498906
0.0066458047 0.04222845 -0.05115456 0.011288769 -0.007846239 0.027269458 -0.011434888 0.024126928
-0.025070142 -0.0141075775 0.020301046 0.00034734295 -0.047922436 0.034375634 -0.03797577 0.04073933
0.055176757 0.076370604 -0.07014782 -0.068551265 0.07963023 -0.05606913 -0.032939374 -0.032970484
-0.04228425 0.07095927 0.015020092 -0.033143956 0.012303423 0.02900466 0.047387216 0.023271153
0.058636643 0.031125883 -0.009368497 0.00901325 -0.0009991005 -0.050211556 0.035753746 0.0062585045

digit_classifier2.fc1.bias f4 [32]
00000000: bf4c 523d 425c b73c 54c1 75bc b953 093d
00000010: 3ec6 bbbc dc79 583c 9d0d babc b38b 073c
00000020: 0d7f 77bc a7c6 363d f608 16bd 6088 70bc
00000030: 8c54 123d 5357 04bd 3564 8e3c 7879 643d
00000040: ecde 48bd 053b 22bd 14e9 a53c f1cc 37bc
00000050: 7764 d33c ecd7 a23c b530 3dbd 01fd 493d
00000060: 6bb1 ed3b 46cc 9a3c cede f1bc 2244 763c
00000070: 488c 903c fe4c 803c 3a45 59bc 27f5 0cbd
0.051342722 0.02238286 -0.014999706 0.03352711 -0.022921678 0.013212647 -0.02271157 0.008273053
-0.015105975 0.044623043 -0.03662964 -0.014680952 0.03572516 -0.03230984 0.017381767 0.055779904
-0.04904072 -0.039607067 0.020252742 -0.011218295 0.025804741 0.01987835 -0.04618903 0.04931355
0.007253816 0.018896233 -0.029525187 0.015030893 0.017645016 0.015661713 -0.013261134 -0.034413483
