model/LDD/best_digit_model.pth (torch, 230412 bytes, 32 tensors)

features.0.conv.weight f4 [8, 1, 3, 3]
00000000: ba84 823e cae7 703e 4076 6bbd ee2d 873e
00000010: 5d43 afbd 57ff e13d c863 53be d227 3d3e
00000020: fee8 a43e 7769 86be 6a28 933e 6af7 943d
00000030: d3d0 6f3e 9323 eebb d2a3 103e 72cc e8bc
00000040: 96d5 663e 8f4e b93d 8409 16be 4fa7 1e3d
00000050: 9f70 2ebe 6943 6cbc d1fa 19be f7cf 753e
00000060: 3df2 94be baa3 00be b1e6 42bd ab2b 4fbe
00000070: ad66 6fbc e990 a1be c643 8f3e bef7 96be
00000080: 1219 8b3e 1613 553d a807 e4bd 3b3f 5d3e
00000090: ed22 773d e10f 983e b744 3c3c 4439 0abe
000000a0: 3744 603d a94e f6bd 18ab bc3d e5f3 7b3e
000000b0: 4a0d 4e3e 3b84 21be 5e5e 553e a15b 5a3d
000000c0: cf6c 133e f3df 2ebe a2f5 b2be dcee 38be
000000d0: b97f 79be 9e09 703e 3d82 d03d 29f5 0c3e
000000e0: e529 e03d 3900 653c 3b95 813e 9d55 86be
000000f0: 2159 353d fa1f 5fbe e7ed 893d af41 aebd
00000100: ea3f c33d 24e5 abbd 21aa 973e d232 38be
00000110: ba1b 2ebe 5791 20be 5adb b03e 176d 0b3e
0.25491887 0.2352592 -0.05748582 0.2640223 -0.085577704 0.1103503 -0.20643532 0.18472221
0.3220901 -0.26252338 0.2874177 0.07273753 0.23419504 -0.0072674244 0.14124992 -0.0284178
0.22542414 0.09048187 -0.14652067 0.038733777 -0.17035149 -0.014420369 -0.15037085 0.24005114
-0.29091063 -0.12562457 -0.047583286 -0.20231502 -0.014611882 -0.3155587 0.27981395 -0.29485887
0.27167565 0.052020155 -0.11134273 0.21606152 0.060336042 0.29699615 0.011490992 -0.13498408
0.054752555 -0.12026722 0.09212321 0.24604757 0.20122257 -0.15773098 0.2083678 0.05331004
0.14396976 -0.17077617 -0.34953028 -0.18059868 -0.24365129 0.23441169 0.10181091 0.13765396
0.10945491 0.013977104 0.25309166 -0.26237193 0.044274453 -0.21789542 0.067348294 -0.08508622
0.09533675 -0.083933145 0.29621986 -0.17988136 -0.17002764 -0.15680443 0.34542352 0.13615833

features.0.conv.bias f4 [8]
00000000: 3a30 9c3e eeba 94be d947 a4be 7b86 85be
00000010: b764 69be 31fa 083e a0a7 043e d8e5 8f3e
0.30505544 -0.29048866 -0.32086065 -0.26079163 -0.22792326 0.1337669 0.12954569 0.28105044

features.0.bn.weight f4 [8]
00000000: 1805 783f 3b21 853f 03a4 793f 423d 803f
00000010: 4c1c 833f 324e 853f 49b5 803f 0bb9 753f
0.9688277 1.0400766 0.9751589 1.0018694 1.024301 1.0414488 1.0055324 0.9598548

features.0.bn.bias f4 [8]
00000000: 570f 11bd 4d98 3c3c f3c6 cebc 733f c3bb
00000010: eae3 c93c ff72 8c3c b1ad e73b 1de1 6ebc
-0.03541502 0.011510921 -0.02524135 -0.0059584915 0.02464481 0.017144678 0.007070266 -0.014580038

features.0.bn.running_mean f4 [8]
00000000: d590 b53e af3a 6fbe 7523 b4be 8f93 81be
00000010: 6bd2 34be 87c5 d23d e0ac 0b3e 6803 913e
0.3546206 -0.2336223 -0.35183302 -0.2530789 -0.17658393 0.102915816 0.13640165 0.2832291

features.0.bn.running_var f4 [8]
00000000: 6c5e e63e 296a bc3e 4f9b 873e 6b13 f73d
00000010: 638d 913e 7479 1d3e a82e e33d 2cf2 943d
0.44993913 0.36799744 0.2648568 0.120642506 0.28428182 0.15378362 0.11092883 0.07272753

features.1.conv.weight f4 [16, 4, 3, 3]
00000000: ec66 c9bd 92dd aebd 492f cd3d c0d9 7cbd
00000010: 3fab 043e 53c8 f1bc 6f1f c03d 4181 08be
00000020: b0d9 e1bd 9cab 9b3d 2f66 953d bb4e 8ebc
00000030: 9f94 0e3e 838f 113e 2717 0abe 3fbe 74bd
00000040: d736 2c3e 2044 babd 9077 75bc 5e98 3bbe
00000050: f372 ddbd f252 9b3d 2195 293c fe51 d2bd
00000060: 6160 f73c 0c27 18be 3f5d e9bd 2697 47bd
00000070: 498c eabd 93f0 c1bd 1dd2 363e 5d0f faba
00000080: 58bb 5f3d 1784 20be f72a d7bd 8952 6fbc
00000090: c04f 0a3d 89ef 1dbe 4058 c4bd b391 dcbd
000000a0: 69cf 3cbc f2c1 d4bd 043d f9bb d269 e7bd
000000b0: e37a e3bd be84 9dbd 45f8 6ebd 9a80 1fbe
000000c0: d9d4 fb3d 3ac6 0ebd a095 233e 4eed 8e3d
000000d0: 56db 0bbe 4022 273e 7d55 30bd 08d9 6dbd
000000e0: d330 c9bd 7145 14be 7e94 f33c a198 3abb
000000f0: 9af8 493d 3ae0 1abe 0e32 ed3d 0dd5 dfbd
00000100: 2965 33bd 24ec 823d 2a2e cf3d 1596 093e
00000110: a229 2b3e 40ed cfbd 9357 a03d 4a41 92bd
00000120: 565d 21bd 96b2 f4bd 1346 f83d b4c1 ebbd
00000130: 329b b73d 8172 cb3c eb65 c73d 0395 a7bd
00000140: 65ff 053e 1b68 003d 05cc b63c 5a05 2dbe
00000150: f278 be3d ae2a 9bbc 9410 b1bd 2540 093e
00000160: 0cd7 113d 5d09 debd 6f8c 5dbd 7879 f53b
00000170: 05d6 ef3d c2c1 85bd 4721 a8bd 04bd 20bd
00000180: 5b1b 2bbe 12aa 0f3d 3c71 173e bf75 44be
00000190: a5d0 0bbb 7f0c 003e d64a 5dba 1e73 8cbd
000001a0: 33b2 9b3d 723c 6f3d 3b7a 063d 3417 b1bc
000001b0: 5149 9ebd 009b 7bbc abea 833c fbcb 35bd
000001c0: 5dee b43d 1e45 043e 3237 e5ba 5f3a 15bc
000001d0: d172 e03c fc4a 1cbd 73b1 733c ad34 b23d
000001e0: 8d6b 17be 7d03 45bd fd13 213e bebc b63d
000001f0: 6eab 273d 6a0b 7bbd 178d c7bd 0fb7 e3bd
00000200: cd15 a9bd bfc3 823d e98d e03d 438a 4c3d
00000210: 542f 06be 614d c8bd a5fd 7ebd 7ffd 133e
00000220: 942d d23c 9c3f bebd a500 f13d 65c0 0abd
00000230: 16db 0dbe 6cfe 193e df19 9bbd 56dd 10bd
00000240: 4037 49be c601 ba3d 2a0b d73d 1387 913d
00000250: f153 f7bd b32f febd 33ba eebd 2c86 cf3d
00000260: ab58 d23d 1009 2f3e 0b3d e83d 0ad5 433c
00000270: d933 023d 4c1f 0cbe ad4f d2bd 7ed4 12be
00000280: cb6d 393d d913 31bd 215a 38bc 6a2e e4bd
00000290: bd44 ffbb d277 26be 5df9 adbd b107 4c3d
000002a0: d85d 24bd 087a 0c3e 0b41 80bd c130 f3bd
000002b0: 6977 9abc 74f7 acbd cca6 acbd eec8 23be
000002c0: 8537 f63d 61eb 14be 1d53 d63d a561 033d
000002d0: fbc8 033e 3b8f 0cbe bb70 ba3d 7ab5 8ebd
000002e0: 5fc7 893d 00bc 343e 12f6 28bb fa8b d43b
000002f0: 90c2 78bc f75e 23be 774c 413d 7716 3ebe
00000300: b636 dc3d 355c b93d 3b85 363e d71b 00bd
00000310: 0f39 30be f2ea 1e3d ca18 bb3d 84a2 1bbe
00000320: 78e3 cfbc cfc0 debd 4418 82bc cbb3 bebd
00000330: f5e0 a3bd 79ac ddbc 227d 0abe 6d4c c53d
00000340: 5d52 043e ae38 ec3b 783f 05bc 6ec0 7ebd
00000350: d79a 0fbe d6c6 48be 54f4 8a3d e088 0abe
00000360: e81f 00be a4a7 fabc de64 8ebd 4b46 1abd
00000370: 78f5 8b3b 1f32 f1bc 81a4 93bd 1858 a9bd
00000380: fac4 0fbe 5d11 163e 25c2 53bd a849 6b3d
00000390: 6388 c5bc 2522 1a3d e899 153e 918e c13d
000003a0: 9c8c 08be 1d3b d43d 37f5 1f3e 48d7 813d
000003b0: af8a c63d 9431 133e 9270 18bd 8ebc 193d
000003c0: 44d2 d0bd 9d33 91bc 6821 e33d 54c8 7d3d
000003d0: 083b 8fbd 9900 20be f50f f8bd 9dea 36be
000003e0: ab01 06be ee73 bbbd 9c62 cf3d b26b 9a3d
000003f0: 8003 a8bd 04f9 32be 31b4 873d e319 1abe
-0.09834084 -0.08538355 0.100187846 -0.0617311 0.1295595 -0.029514467 0.093809955 -0.13330556
-0.11027849 0.07601091 0.072948806 -0.017371526 0.13923882 0.14214902 -0.13485394 -0.059751745
0.16817795 -0.09095025 -0.014982119 -0.18319842 -0.108129404 0.0758418 0.0103504965 -0.10269545
0.030197324 -0.14858645 -0.113947384 -0.04872813 -0.114525385 -0.09469714 0.1785359 -0.0019078065
0.054622024 -0.15675388 -0.10506242 -0.01460708 0.03376746 -0.15423407 -0.09587145 -0.107699774
-0.01152406 -0.10388555 -0.0076061506 -0.112994805 -0.11107423 -0.07691334 -0.058342237 -0.15576401
0.12296457 -0.034857012 0.15975046 0.06978856 -0.13657889 0.16321659 -0.043050278 -0.058068305
-0.098237656 -0.14479615 0.029733893 -0.0028472322 0.04930935 -0.15124598 0.11581813 -0.10929308
-0.043797646 0.063926965 0.10116227 0.13436158 0.167151 -0.10152674 0.078292035 -0.07141359
-0.039395653 -0.11948125 0.121227406 -0.11511555 0.08965148 0.024834873 0.09736236 -0.081827186
0.13085707 0.031349283 0.022314081 -0.16896573 0.09300412 -0.01894125 -0.0864574 0.13403375
0.035605475 -0.1084163 -0.054089006 0.007491287 0.11710743 -0.06531097 -0.08209472 -0.03924276
-0.16709654 0.0350743 0.14789289 -0.19185542 -0.0021334079 0.12504767 -0.00084416324 -0.06857894
0.07602348 0.058407255 0.03283141 -0.02161751 -0.07728828 -0.015356779 0.01610311 -0.044383984
0.08834527 0.12916991 -0.0017487763 -0.009108155 0.027398499 -0.03815745 0.01487385 0.08701453
-0.14787121 -0.04809903 0.15730281 0.089227185 0.040934972 -0.061290182 -0.097437076 -0.111189
-0.08256111 0.06384992 0.10964567 0.049936544 -0.13103992 -0.09780384 -0.062253613 0.1445217
0.025656499 -0.09289476 0.11767701 -0.033874888 -0.13853106 0.1503846 -0.07573294 -0.035367332
-0.19649982 0.090823695 0.10500176 0.071058415 -0.120765574 -0.12411442 -0.116566084 0.10133013
0.10270818 0.17093301 0.11339768 0.011952648 0.031787727 -0.13683814 -0.10269103 -0.14338872
0.045270722 -0.04323182 -0.011251957 -0.11141665 -0.0077901767 -0.16256645 -0.08494828 0.049812023
-0.04012856 0.13718426 -0.06262406 -0.118745334 -0.018855767 -0.084456354 -0.084302515 -0.15994617
0.12022308 -0.14542915 0.10465071 0.032075543 0.12869637 -0.13726513 0.09103533 -0.06968208
0.0672748 0.17649841 -0.0025781435 0.006486413 -0.015183106 -0.15954195 0.047192063 -0.18563257
0.10752623 0.0905079 0.17824261 -0.03127655 -0.17209266 0.03879828 0.091355875 -0.15198714
-0.02537702 -0.10876619 -0.015880711 -0.093116365 -0.080018915 -0.02705978 -0.13524297 0.09633718
0.12922044 0.007208905 -0.008132808 -0.062195234 -0.1402391 -0.196071 0.06784883 -0.13528776
-0.12512171 -0.030597515 -0.06952833 -0.037664693 0.0042712055 -0.029442845 -0.07209111 -0.08268756
-0.14039984 0.14655061 -0.051698823 0.05744329 -0.024112886 0.03763022 0.14609492 0.094510205
-0.13334888 0.103628375 0.15620886 0.0633989 0.096944205 0.14374381 -0.03721673 0.037533335
-0.10196355 -0.017724806 0.11090356 0.061958626 -0.06993681 -0.15625228 -0.121124186 -0.17862935
-0.13086574 -0.09152971 0.1012623 0.075400725 -0.082037926 -0.17477804 0.06626166 -0.15048937

features.1.conv.bias f4 [16]
00000000: 0b33 2ebd ca98 a6bd f521 9dbc 5ca4 003e
00000010: 7b5b 05be 16a8 213d 9ec7 23be 5aed 923d
00000020: 5161 663d 31ae 5c3c 950e 913d f1bf 76bc
00000030: 6f94 ba3d 8cf4 02be ce43 89bc 9f04 973d
-0.042529147 -0.08134611 -0.019181231 0.12562698 -0.13023178 0.03946694 -0.15994117 0.071741775
0.056245152 0.013469265 0.070828594 -0.015060411 0.09110343 -0.127886 -0.016755965 0.07373928

features.1.bn.weight f4 [16]
00000000: 9c84 833f e1fa 853f 8384 833f 7244 783f
00000010: 9909 843f 6e11 773f b7af 733f 88f5 853f
00000020: 0e3d 803f 225a 7f3f e1ea 863f 5136 803f
00000030: 234a 7d3f fe0d 763f fed9 813f e4e4 7d3f
1.0274844 1.0467187 1.0274814 0.9697944 1.0315429 0.9651097 0.95189995 1.0465555
1.0018632 0.99746907 1.0540429 1.0016576 0.9894125 0.961151 1.0144651 0.99177384

features.1.bn.bias f4 [16]
00000000: ff28 433d 47d8 5d3c 5a10 9a3c 3b5c 18bd
00000010: 7135 49bc 0eba d7bc 0cab 05bc ce23 e43c
00000020: e128 0cbd 07ba 3f3d 68a1 3c3d 6676 b1bc
00000030: 25de 51bc 90ff 28bd 3b24 b1bb 4db5 af3c
0.04764652 0.013540334 0.018806625 -0.037197333 -0.012280808 -0.026333835 -0.0081584565 0.027849104
-0.034218673 0.04680827 0.046052366 -0.021662902 -0.012809311 -0.04125935 -0.0054059303 0.021448756

features.1.bn.running_mean f4 [16]
00000000: 150d 0fbf 0841 ecbe 6b36 41bd a19f 593d
00000010: 473d 2ebf ee44 bbbe 3158 afbe 4cdc d1be
00000020: 7160 023e 0842 07bf bd11 833e 43bd 10bd
00000030: 33a1 de3e 5aeb fbbe 485f 73be 19ef 03bf
-0.55879337 -0.46143365 -0.047171038 0.05313075 -0.6806225 -0.36576027 -0.34246972 -0.40988386
0.12732102 -0.5283513 0.2559947 -0.035336744 0.4348236 -0.49202996 -0.23766816 -0.5153671

features.1.bn.running_var f4 [16]
00000000: eaa8 aa3e 8956 8b3e 5777 333e 7497 883e
00000010: 7f8b 823e ffa1 933e 466c 233e 2d18 c83e
00000020: bceb 5b3e 8b93 523e b93b 4a3e 1080 5e3e
00000030: fbfc 4e3e a734 8c3e e604 983e 2183 823e
0.33331996 0.2721446 0.17525993 0.2667805 0.25497052 0.2883453 0.15959272 0.39080945
0.21476644 0.20564096 0.19749345 0.2172854 0.20213692 0.2738392 0.29691237 0.25490668

features.2.conv.weight f4 [32, 8, 3, 3]
00000000: 5c6d c13d 1fee e33d 4ef8 33bd 1095 f63d
00000010: 592f bbbc f45d 883c c17a 83bd 6d9d 89bc
00000020: 5a3a b83d 30e8 b83c 3070 a5bc e1b2 a73d
00000030: 64bf aabd 9d57 253e ec1f e0bd 3dd6 1bbd
00000040: 3dc7 a0bd afdf 6cbb 3435 d4bb 5999 193e
00000050: 4abf e8bc f16f 8f3d 0a27 2d3d 38bd cd3d
00000060: 5544 af3d 0996 853d adf5 e9bc 0561 0f3e
00000070: f3fd c73d 51c4 42bb caa5 43bc 6af9 08be
00000080: 6c07 913d 60bd 69bd 2f9d d33c bd14 ac3c
00000090: 5174 0abe b227 a13d b0e6 1dbc cad5 073c
000000a0: c748 d03d 6616 d9bd 0a80 8d3d cdc3 793d
000000b0: 4b46 e63c dace 1abe 15f2 aabd 7a21 2abd
000000c0: d924 80bd dacc 373d 949f 563c 1253 a43d
000000d0: 3bc5 94bd c6e3 113d c4a2 443d b793 2cbd
000000e0: a6bb babd c29f d6bc 71cf 913d f0d3 9fbd
000000f0: 7de5 8bbd 5933 c23c db9d 5c3d 3a8f 0d3e
00000100: b078 d1bd 2a62 6bbd 370a ce3d 5d68 ea3d
00000110: a595 f13d 0857 953c 721e 913d 2edc da3d
00000120: 1d0d 47bd aebc 15bc 39de bf3d e42e 64bd
00000130: 0ed8 61bd ec80 d93d 2d6f 363d 3656 a13d
00000140: e653 a5bd 2269 c1bc 5908 043e 3901 24bd
00000150: 070d 313d 21ca d53d 74c2 48bd 2ce9 273e
00000160: f256 bcbd 8a3b 2dbd 9de2 7bbd 17b6 2fbd
00000170: f3da 90bd fd71 8e3d 4b6d 853d abc0 d6bd
00000180: f44b a8bd 6b85 9f3d 65bc 303d 382e 963d
00000190: 90ca d6bd 914b 57bd a69b e33c ff0b b33c
000001a0: 418a 91bd fb8a 56bc bebd 623d 931c 563c
000001b0: 66e6 ccbc c5a3 c938 18d9 acbc a75d 283d
000001c0: 939b 76bb bf8d 8ebd 3e7e bb3d cabc 3c3d
000001d0: 6964 48bd eff9 823d 4d1d a7bd 655d 0a3d
000001e0: 396e 8d3c 664f 06be 0767 ab3d 2384 20be
000001f0: 670b adbd 3e76 4c3c 4523 8fbd d32d bb3d
00000200: 7451 adbc 7b4b ac3d 0dba 82bd 82b7 b23d
00000210: 8bc3 a1bb 47a3 a7bd 2c19 ac3c dabb d53d
00000220: 2b54 063e 3040 adbc 760d 72bd e7d0 463d
00000230: cfd9 983d 5a35 a53b 920e aa3d 3fd6 42bc
00000240: 5bdf ca3d c552 953d 5710 27bc 3450 243d
00000250: 9d15 bf3c b7c8 a53d 223e f7bd e5f1 8cbc
00000260: 5331 02bd d75c b23b e785 903d b2e8 a9bd
00000270: 5848 3b3d c832 56bd 8c94 623d 7e82 753b
00000280: f80a bdbd 48d1 e5bc 671b 8cbd 74b3 b23c
00000290: cd90 d9bd 6562 04bd 0e7f 323c 28bb 80bd
000002a0: a12b 8c3c 8759 ddbd 450e bdbd d2ff fdbd
000002b0: 022b 89bd 19d1 1fbd b729 30bc 6aec c8bc
000002c0: 1fbe 423d 698f cd3d af8e 833d c4dc d6bc
000002d0: c86d debd ed94 833d 5702 04bd 7c45 5d3d
000002e0: 46ac 8f3d 593c 983d 90ba aa3d 0551 c13d
000002f0: 0cb9 643c 1f8b d9bd f978 ad3d ef9e 8bbd
00000300: 73c8 74bd 0711 ea3d 7d7c c73d 54c3 ff3c
00000310: 3944 413d b746 a6bd 4e94 073a 0455 1b3e
00000320: 2d1e 4e3d 3f78 883c 429f 89bd df1e 6d3b
00000330: e136 8a3d df6e 0238 e7ea 1d3d 36b9 7dbc
00000340: 56f0 813d d5a1 a63d c418 aa3c 5d70 b43d
00000350: 9f24 a13d f7ff 0c3e 683d b53d 91e6 c3bc
00000360: 3585 11be 0916 463d 9d19 bf3b a1c7 b7bc
00000370: 42ef 8bbd 8045 413d 9532 cf3d caf5 853c
00000380: d42f 0a3c c5df 13bd 5b45 9dbd ecb9 0cbd
00000390: 19ac 1a3e 1c4e 933d 8b8a 883d 93be 37bc
000003a0: 8eeb a83d 2454 f43c 6b9c 1fbe c660 cbbc
000003b0: 38e2 5ebb 0d97 c7bd f00e e5bd 4eb2 833d
000003c0: 69d9 c23d 359b 9e3d 73ac cc3d 21e9 a2bd
000003d0: 1968 a33c fa77 9a3d d603 0d3c d42b 2dbd
000003e0: 5e37 81bd b10b 413d f661 a0bd 7905 84bc
000003f0: 92b9 1b3e 24e9 463c 26de cf3b 911c 4a3d
0.09444687 0.11129402 -0.043937974 0.1204015 -0.022849726 0.016646363 -0.06419898 -0.0167987
0.08995505 0.022571653 -0.020195097 0.08188415 -0.08337286 0.16146703 -0.109435886 -0.03804611
-0.07850502 -0.0036144068 -0.006476069 0.14999904 -0.028411526 0.07003773 0.04227356 0.10045856
0.08557955 0.065227576 -0.02855953 0.14001854 0.09765234 -0.0029719064 -0.011941383 -0.13376394
0.07081494 -0.057065368 0.025831787 0.021005983 -0.13520934 0.078688994 -0.00963752 0.008290717
0.10170131 -0.10599975 0.06909187 0.060977746 0.02810969 -0.1511797 -0.08346955 -0.041535832
-0.06257028 0.044873096 0.01309957 0.08023657 -0.07264181 0.035617612 0.048006788 -0.04213306
-0.09117822 -0.026199225 0.071196444 -0.07804096 -0.06830881 0.023706125 0.05386148 0.13824168
-0.102280974 -0.057466663 0.10060542 0.11445687 0.117961206 0.018229976 0.07085885 0.10686527
-0.04859649 -0.009139223 0.093685575 -0.05570878 -0.055137686 0.10620293 0.04453962 0.078777716
-0.08072643 -0.023609702 0.1289381 -0.04004023 0.043225314 0.10438944 -0.04901357 0.16397542
-0.09196271 -0.04229311 -0.061495412 -0.042898264 -0.07073011 0.06955335 0.065149866 -0.10485967
-0.08217612 0.07789119 0.043148417 0.07333034 -0.104878545 -0.0525623 0.02778418 0.021856306
-0.07106448 -0.013094659 0.055356734 0.013068336 -0.025012206 9.614931e-05 -0.021099612 0.04110494
-0.003762935 -0.0696063 0.09154938 0.04607848 -0.048923884 0.06395327 -0.081598856 0.033780474
0.017264472 -0.13116226 0.0836926 -0.15675406 -0.084494404 0.012479363 -0.06989149 0.091396
-0.021157004 0.08412834 -0.063831426 0.087264076 -0.0049366406 -0.081854396 0.021008097 0.104362205
0.13118045 -0.021148771 -0.05909487 0.04853907 0.07463419 0.0050417604 0.0830356 -0.011891901
0.09905883 0.07291178 -0.010196767 0.04011555 0.023325736 0.08094924 -0.12072398 -0.017205188
-0.03178532 0.0054431963 0.0705679 -0.08296336 0.04572329 -0.052294523 0.055317447 0.0037461813
-0.09230608 -0.028053895 -0.06841164 0.021814086 -0.10623322 -0.0323204 0.01089455 -0.06285697
0.017110648 -0.108080916 -0.09231237 -0.124023095 -0.06697656 -0.03901777 -0.010752133 -0.024526794
0.047544595 0.10037119 0.06423699 -0.026228316 -0.10860783 0.0642489 -0.032228794 0.054021344
0.070152804 0.074333854 0.08336365 0.094392814 0.013960134 -0.10622238 0.08470339 -0.068174236
-0.059761476 0.11429029 0.09740541 0.03122107 0.047184203 -0.081189565 0.00051719404 0.1516915
0.050321747 0.0166589 -0.06719829 0.003618173 0.067487486 3.1097672e-05 0.0385541 -0.015486052
0.063446686 0.08136336 0.020763762 0.08810494 0.07868313 0.13769518 0.08849603 -0.023913654
-0.1421097 0.048360858 0.0058319108 -0.022434058 -0.06832744 0.04718542 0.1011707 0.016352553
0.008434255 -0.036102075 -0.07679244 -0.034356996 0.15104713 0.071926326 0.0666705 -0.01121487
0.082480535 0.029825278 -0.15587012 -0.024826419 -0.0034009349 -0.097456075 -0.1118449 0.06430493
0.09514124 0.07744447 0.099938296 -0.07954622 0.019947099 0.07542415 0.008606872 -0.042278126
-0.063093886 0.04713029 -0.078311846 -0.01611589 0.15207508 0.012140546 0.006343621 0.04934365

features.2.conv.bias f4 [32]
00000000: 6aa5 edbb 7695 b9bc a93c d83d 73e9 353d
00000010: 329c 8c3d a9c1 223d f77e 913c 2407 8e3d
00000020: 6608 94bd 1859 6d3d 11f8 4f3d 8041 1cbd
00000030: 7c71 8dbc eb3c aebd 5b9b b5bd f264 aebb
00000040: 2bdf ea3c 04ac dbbc abbf 0d3d 285c bebd
00000050: b00b 61bd 09fa 993d 5441 f3bd b9d4 393c
00000060: e2f4 b83d 7dce bf3d a65f 363d c7b1 00be
00000070: 3672 943c 711f 27bd 555c febc 61ce b13d
-0.007252385 -0.022654276 0.10558445 0.044412088 0.068657294 0.03973547 0.017760737 0.06934956
-0.072281644 0.057946295 0.050773684 -0.038148403 -0.017266028 -0.08507713 -0.08867522 -0.005322092
0.028670868 -0.026815422 0.034606617 -0.09294921 -0.054942787 0.075183935 -0.11877695 0.011342221
0.09031083 0.093655564 0.04452481 -0.12567817 0.018120866 -0.04080147 -0.031049887 0.08681942

features.2.bn.weight f4 [32]
00000000: 0930 853f 6b71 873f 32f9 863f 77f0 853f
00000010: b7c8 873f f367 873f 03bc 873f 298a 863f
00000020: 492b 863f 3aa2 863f 0b52 873f ffb3 873f
00000030: e598 863f 7068 863f 4fad 863f 5853 863f
00000040: fe28 863f aa7e 873f 56a0 863f 1409 873f
00000050: d61b 863f afc4 853f 2514 863f 596b 853f
00000060: 71a2 863f 42c0 863f 40dc 863f 9fa3 873f
00000070: 65f7 863f d4db 853f 9b8e 863f f8b8 863f
1.0405284 1.0581487 1.0544798 1.0464009 1.0608128 1.0578598 1.0604252 1.0510913
1.048196 1.0518258 1.0571913 1.0601805 1.051541 1.0500622 1.052164 1.0494184
1.048126 1.058553 1.0517681 1.0549645 1.0477245 1.0450648 1.0474898 1.0423385
1.0518323 1.0527422 1.0535965 1.0596808 1.0544249 1.0457711 1.051227 1.0525198

features.2.bn.bias f4 [32]
00000000: 9548 823c ae03 b83c 026b f53c caa9 fa3b
00000010: ebe1 013d f642 eb3c 9289 053d 98af 273c
00000020: 827f 603c 87d4 a43c e34a d43c 1e58 ec3c
00000030: be96 eb3c ca89 973c 14be f03c 31a0 c33c
00000040: 1e5e e03c 455c 8b3c 101a 1f3d 664c 013c
00000050: 9277 053d 1166 923b ad40 2a3d 6435 773c
00000060: 16cc bf3c 8736 b03c 5570 3a3c 5d8c 1e3d
00000070: 3c4d ce3b 22f1 973c 4f75 cf3c 6782 5c3d
0.01590375 0.022462692 0.029958252 0.007649635 0.031709593 0.028718453 0.0326019 0.010234736
0.013702275 0.020120872 0.025914615 0.028850611 0.028758403 0.01849832 0.029387511 0.023880096
0.027388629 0.017011771 0.038843215 0.00789175 0.032584734 0.0044677337 0.041565586 0.015088413
0.023412745 0.021510376 0.011379321 0.03870808 0.006295828 0.018547598 0.025324492 0.0538353

features.2.bn.running_mean f4 [32]
00000000: de34 4c3f 83d3 9c3d 60cc 333f 5bfb 98bd
00000010: 54b9 833e 4712 083f 3d7a 0b3f 4877 be3e
00000020: 3984 023f 5d99 8e3c e238 a8be 5f2f d73e
00000030: a04d 01bf 1ac0 8a3d 8b22 593f ef41 77be
00000040: 97ce d13e a27d aebe d9c7 05be 1c97 8e3e
00000050: 9429 e23e 7e46 cbbe cd19 10bf e86f 103c
00000060: fa3e 19be a74d fb3e ee90 cb3e 277a febe
00000070: 543a 973f c791 2bbe f854 9e3e 6f2f be3e
0.7976817 0.0765753 0.70233727 -0.07469817 0.25727332 0.5315289 0.54483396 0.3720038
0.50983006 0.017407114 -0.32855898 0.4202833 -0.5050907 0.06774922 0.84818333 -0.24146245
0.40977928 -0.34080225 -0.13064517 0.27849662 0.44172347 -0.3970222 -0.5628937 0.008815743
-0.1496543 0.49082682 0.3975901 -0.4970257 1.1814675 -0.16754828 0.309242 0.37145564

features.2.bn.running_var f4 [32]
00000000: b7bc be3e 33dd 703e 4965 373e a449 063e
00000010: ab43 613e f8fd 883e 8d6d 303e 315d 4e3e
00000020: 0b78 b53e 5a1d 203e 00cd 333e e3cc 073e
00000030: cde4 0a3e a637 8c3e e81e 433e 8d62 b03e
00000040: e47c 673e aa2e 823e 3385 3d3e e0b6 273e
00000050: 7b0d 993e 531c 4a3e 05ad a13e e65f 403e
00000060: 0b6c 8e3e 6550 783e 3f1e 443e 7a47 893e
00000070: af18 853e 4bc7 353e 5f76 403e db84 543e
0.37253353 0.23521881 0.17909731 0.13114029 0.2199847 0.26756263 0.1722929 0.20152737
0.35443148 0.15636197 0.1755867 0.13261752 0.13563843 0.27386206 0.19054759 0.34450188
0.22606236 0.25426227 0.18507843 0.16378355 0.29893097 0.19737367 0.31577316 0.18786582
0.27816805 0.24249418 0.19152163 0.26812345 0.25995395 0.17751805 0.18795155 0.20753805

features.3.weight f4 [32, 32, 2, 2]
00000000: d676 0bbd 4123 bdbd 4a62 a9bd 3482 cb3d
00000010: 1e29 febc 96d9 cf3d b4d0 543d b7cc 4bbd
00000020: 04d7 463c 24b1 c13d d2ad 483d 2e49 9b3d
00000030: 39c3 a3bd bcb5 7abd 2382 a03d c1c4 86bd
00000040: b3b2 04bc d245 1cba e1af 833c b4b5 e2bc
00000050: a397 e9bd 960c 323c 6e74 873d 10cf 2d3d
00000060: 694f 3b3d 870b b9bc bd13 143d cc7a 983c
00000070: 5595 cbbc 7abb 27bc 8d6b 27bd b450 eebc
00000080: 65c7 2abd a10a e6ba 4893 99bd e789 1abc
00000090: f4c7 dcbd e5d4 c43d 520a f83d b439 babc
000000a0: 7c5d 36bd 243d 99bd d14a 433d 4382 f73d
000000b0: ebdd c63d 3a7d 0fbd 6da2 afbb 1838 8a3d
000000c0: 07c2 783d 8ddd 40bd 7adc cabd 5d71 b13c
000000d0: 911b 5a3b 1693 ea3d 4a41 a2bd 280c a33d
000000e0: e4ae 1fbd c731 a7bc 6672 b93d be90 92bd
000000f0: fc38 c23d 94fc 853d 37e6 6fbd a325 983d
00000100: 693f 26bd e0b9 ce3c 0ae7 b13b c9c3 edbd
00000110: 3e56 cfbc 680d 933d bb50 b83c 0e1a cdbc
00000120: a9a5 7cbc 6fda b73b c174 39bc 1a64 b8bd
00000130: 62e2 4abd e3dc 39bd 77f6 453d 1830 b93d
00000140: 99d9 c43c 48b6 6c3d 65b2 ce3d 67b7 79bd
00000150: 1f1c 96bc ac68 6c3d 3e57 9b3d 6ac2 823c
00000160: f873 a3bd cee5 a63d 3d51 38bd 9a3e 9c3d
00000170: 2ec2 0b3d 0b39 d13c 2b66 52bd 6107 95bd
00000180: 8ac9 b73c 4ee1 9c3d b104 9bbd fb5e 9a3d
00000190: 234d 04bd 9fcf 9ebd fd45 61bd 0a7f e2bc
000001a0: fde2 80bd 5b83 b73d 6e08 acbd f5e4 d7bc
000001b0: d20a e6bd ac73 b13d 8cb7 4cbd 769b bdbd
000001c0: d052 523c 7819 e7bc 99d8 543d afe0 2f3c
000001d0: 7a6d ae3d 0f5e 5ebd 9c47 34bd 0b2a 68bd
000001e0: 0b97 413d 7a1c 883d 0419 be3c 8485 b23d
000001f0: dc7f de3d aaab 93bd 2ef2 9a3c 50ba b2bd
00000200: a04b 413d efd1 aebc c26a 4fbc 5a10 813c
00000210: 04ba b4bd 0827 a5bd af41 acbd 33d0 6fbd
00000220: d305 ed3c 9773 2d3c c262 813d f158 80bd
00000230: a6c5 20bd 3cc8 e2bd 0044 eebc c863 593d
00000240: 060e 02be c97c 923d 14ac 62bd 1e15 913d
00000250: a535 57bd 6e9b a43d 1535 5c3d 158b 56bc
00000260: 316a 4bbc a8a3 223d e16b 02be 86d5 4f3d
00000270: fa0c 4ebd 8b02 e43d 36e2 aebd a91d d5bc
00000280: d0bb 103d e8c1 12bd 20bb 513d 3398 5a3d
00000290: f0a7 853d e130 9abd 99e3 d53c ea46 75bd
000002a0: 2732 0c3c 8d1d 96bd 157e 4b3d 9f2a e23b
000002b0: f074 91bd 558a ecbd 3985 143d 2e85 77bd
000002c0: 5ae1 cc3d 98d2 123d 62b4 e03c 96f6 d2bc
000002d0: 17fd 64bb d641 c1bc 9c56 eabd 7f70 753d
000002e0: 09ee b1bd 0449 cf3c e311 95bd 8127 c23d
000002f0: c39d d33d d260 9fbd 39be bd3d f1c6 e8bc
00000300: 72cb 83bd 31a8 4c3d bebd a23d 40ec a93d
00000310: 9612 09be d6b4 e63d 55d7 d03d 3e1f 943d
00000320: 7fc3 343d e2bc 53bd dbc2 aa3d 6cb6 dd3d
00000330: db83 15bd 965b 1fbd 7c8d 973d e7c0 a43d
00000340: 1e2f 9f3d 355f c93d eb17 64bc 19e6 b5bc
00000350: 63da fdbc e8ac 733d abbf 02bc 2bf3 e1bd
00000360: 25ad 80bc a0e8 88bd a0e2 b8bd 276a ba3d
00000370: 04e0 40bd f74e 543d 57df 8a3a 5e08 2ebd
00000380: a2f7 2fbc 3a17 bd3d c1d3 49bd 580c b83d
00000390: a3e8 903d 2cc9 623d 8a07 ebbd 9029 36bd
000003a0: 9145 f4bd 5738 043c 923a 26bd 8bea 053d
000003b0: afc6 933d 3cee 0f3d dd15 d4bd d6d3 acbd
000003c0: 11b0 013d 0c2a e8bc 4f04 593d 5a7d 58bd
000003d0: 0f5f a6bb 5347 8b3b 8ac4 b3bd 8153 0f3d
000003e0: ad15 eb3c 65c6 95bd 1a0f 05bd 910f b0bc
000003f0: 3939 083d 4360 86bc fba3 013e 8abe dfbd
-0.034048878 -0.0923524 -0.082707 0.09936944 -0.031025466 0.10148923 0.051956847 -0.04975578
0.012136225 0.09457615 0.048993893 0.07582317 -0.0799622 -0.06120847 0.078373216 -0.065804966
-0.008099246 -0.0005961332 0.016075077 -0.027674533 -0.114058755 0.0108672585 0.06614004 0.0424338
0.04573003 -0.022588504 0.036151636 0.018613242 -0.02485148 -0.010237569 -0.040874053 -0.029091217
-0.041694064 -0.0017550775 -0.07498795 -0.009432293 -0.107803255 0.09610919 0.121113434 -0.022732593
-0.044522747 -0.07482365 0.047678772 0.12085392 0.09710296 -0.035031535 -0.005359939 0.0674898
0.060731914 -0.047086287 -0.09905334 0.021660501 0.003328059 0.11453836 -0.07922609 0.07961303
-0.038985148 -0.020409478 0.09055023 -0.07156514 0.09483525 0.06542316 -0.05856916 0.07429054
-0.040587816 0.025235116 0.0054291533 -0.11609609 -0.025309678 0.071802914 0.022499433 -0.025036838
-0.015420356 0.005610756 -0.01131934 -0.09003468 -0.0495323 -0.04537667 0.04833075 0.09042376
0.02402954 0.057791024 0.1009262 -0.06096592 -0.018323956 0.05771701 0.075849995 0.015961844
-0.07981104 0.081493005 -0.04499935 0.07629128 0.03412073 0.025539896 -0.051366966 -0.07276798
0.022434969 0.07660161 -0.07569254 0.07537647 -0.032300126 -0.07754444 -0.054998387 -0.027648468
-0.062932946 0.08960601 -0.08400045 -0.026354292 -0.112325326 0.08664641 -0.04997973 -0.092581674
0.012837127 -0.028210387 0.051964376 0.010734721 0.08516975 -0.05428892 -0.044013605 -0.05668072
0.047263186 0.066460565 0.023205288 0.08716872 0.10864231 -0.07210477 0.018914308 -0.087269425
0.047191262 -0.021340339 -0.01265973 0.015754867 -0.08824542 -0.08064085 -0.08410966 -0.058548164
0.028933441 0.010586641 0.06317665 -0.06266964 -0.039250992 -0.11073348 -0.02908516 0.053073674
-0.12700662 0.07152707 -0.055339888 0.07084106 -0.052541394 0.08037458 0.05376156 -0.013094683
-0.012415455 0.039706856 -0.12736465 0.05074074 -0.050305344 0.111332975 -0.0853924 -0.02601512
0.035335362 -0.035829455 0.051203847 0.053367805 0.06526172 -0.07528854 0.026109504 -0.059882082
0.008556879 -0.07329855 0.049680788 0.0069020535 -0.07102382 -0.11549822 0.036259864 -0.060429744
0.1000392 0.03584537 0.027429763 -0.025752347 -0.0034940892 -0.023590963 -0.11442301 0.059921738
-0.0868798 0.025303371 -0.07278802 0.09480191 0.10332825 -0.07782139 0.09264798 -0.028415175
-0.064352885 0.049965087 0.07946347 0.08297014 -0.13385996 0.112649605 0.10197321 0.072325215
0.044131752 -0.051693805 0.08337947 0.1082581 -0.0365027 -0.038905703 0.07400033 0.08044606
0.07772659 0.098326124 -0.013921718 -0.022204446 -0.030987924 0.059491068 -0.0079802675 -0.11032709
-0.015707562 -0.06684995 -0.090276 0.09102278 -0.047088638 0.05183312 0.0010595125 -0.04248845
-0.010740193 0.09232946 -0.04927421 0.089867294 0.07075622 0.055367634 -0.11476047 -0.04447323
-0.11927331 0.008070073 -0.0405832 0.03269438 0.0721563 0.035139307 -0.103557326 -0.08438842
0.03166205 -0.028340362 0.052982625 -0.05285392 -0.00507725 0.004250446 -0.08777721 0.034991745
0.02869686 -0.073132314 -0.032485105 -0.021491798 0.033257697 -0.016403323 0.1266021 -0.10925014

features.3.bias f4 [32]
00000000: 0711 fa3c 2d49 5e3d f2c4 b1bb c398 f43c
00000010: ef4c 8f3d 129a 783d 7d86 193d d596 6a3d
00000020: e5a8 bcbd f8ed 823c 46be 8e3d 0e88 96bd
00000030: c74c 95bd b1ce 90bd f0e2 1a3d fc6e 943d
00000040: be5e 63bc 842a f8bc bc8e 263c 4e8a 96bd
00000050: ad63 da3c 59e7 8bbd 212b 5bbd 0e3b 8cbd
00000060: f491 24bd 02ee 6a3d 6652 513c 2d3f 853d
00000070: bacd a3bd 411a 95bd deb8 403d d759 a13d
0.030525697 0.054269005 -0.005425089 0.029857999 0.06997096 0.060693808 0.037481774 0.05727275
-0.092119016 0.015982613 0.069698855 -0.07350169 -0.07290035 -0.07070673 0.03781408 0.07247731
-0.013877569 -0.03029371 0.010165866 -0.07350598 0.026658857 -0.068312354 -0.053507928 -0.06847201
-0.040178254 0.05735589 0.012775993 0.065061904 -0.079982236 -0.07280398 0.047051303 0.07878464

digit_classifier1.fc1.weight f4 [32, 480]
00000000: d44d 4c3d e79d 05bd bdff 063c 8f08 09bd
00000010: 9c01 d3bc ce03 32bc 9d3f 073d b69d 0dbb
00000020: 8e5d 51bd 4830 06bd 6de2 f5bc 658b ba3c
00000030: 7d5c 043c 5ea8 103d d845 47bd c5ed 56bd
00000040: c72f fa3c 1f7f 2e3d 3e35 00bd ad8b 02bc
00000050: 8277 af3c 6222 f23c af58 46bd 4e66 0cbd
00000060: 537e c53b ebd1 bd3c b78c 74bb 6de5 6ebc
00000070: af86 20bc 734d f43c 13f3 c5bc 87fb 043d
00000080: cf15 acbc 93f6 823c 8bd3 00bd 488c 283d
00000090: ccd4 61bc 3dc3 713c f045 8bbc bcf8 813c
000000a0: 87ed 2cbc 9d2f 3fbc 5782 04bc 0ea3 233d
000000b0: 13e3 933c 2b53 9938 8a82 4d3d c593 a93c
000000c0: 57c2 43bb e7f1 1b3c e199 c6bb 7cd5 d0bb
000000d0: 4cb9 23bb 6512 b93c ec61 ecbc 35e3 c2bc
000000e0: a8a0 2d3d d77c 503a 13d9 253c c1a8 e23c
000000f0: 4195 04bd ff17 a73c df8d b3bc 325d cbbb
00000100: eab2 9ebc fb63 f83c cc79 34bd 6346 233d
00000110: 91d6 be3b 13d9 e8bc a9c3 55bb e81d ef3c
00000120: c5e6 663d 3213 c53c 0c1c 873c 8303 dbbc
00000130: 099f bebc d9ce 19bd 9e2a acbc 5284 a13c
00000140: 0792 4cbb 0236 b53c 6e58 ddbb ef4e f9bc
00000150: 2899 42bc 5c97 02bd 8f76 f6ba f828 b9bc
00000160: 70ed 3f3d 1627 043c 17f3 5fbc b4cd 85b9
00000170: da5a ebbc 219d 363d a7d4 02bd d15d 043b
00000180: e906 7f3c 6f97 2e3c 240f cebc 40b0 303c
00000190: 1d6c c43c 845f 8ebc 59da 2b3d 6376 e7bc
000001a0: 00e0 51bc 3265 7bbc a24f 87bc b920 933b
000001b0: 2c02 ad3c 7ec9 36bd c837 473c f869 31ba
000001c0: 4d9f d63c 9e48 4e3c ac5c b1bc a453 94bc
000001d0: 0bf2 2bbd b529 e2ba 7661 c43c 86f3 813b
000001e0: 40a6 cd3c dfe6 f33c 7196 a73c d491 dd3a
000001f0: 3a97 dfbc 22ae aebc 0be3 4e3d 1cf2 533d
00000200: 45be 65bb a8b0 4c3d 3d58 4c3d 4a57 e0bc
00000210: d6c8 67bd 6b32 0bbd 4588 84bc b7dd f33c
00000220: fb01 f63b f85b 8d3c 21ed 0abd 158b 9a3c
00000230: 9d64 9bba 26ca 33bd eae1 39bd b6b8 933b
00000240: da67 fd3c f78b 2bbd d7f2 cabb 44c5 61bd
00000250: cb35 953c 627f eb3a 03c0 bcbc b760 143d
00000260: c055 003d ddaf 2f3d 1ca4 dbbb 0558 453c
00000270: a065 2b3c 627b a13b 79b9 4cbd 0217 bdbb
00000280: 4529 233d 51ef 30bc 4eb8 403d 8ac6 413b
00000290: 1350 633d 896a 78bc fe4e 343d 0c40 0bbc
000002a0: 1a30 343d 9c46 173d b88c f63c ae91 cd3c
000002b0: 20ab 1f3d e8cc d4bb b681 44bb 7b3e c53c
000002c0: 529a a9bc 7914 6c3c da22 fc3c 57b2 f3bc
000002d0: d355 153c 62e2 17bc 1083 c9bc cb2d 423d
000002e0: fd03 1cbc 6a0f 11bd d362 8bbb 8ae2 a13c
000002f0: 6234 353d b89e 52bb ba81 533d 866a 01bd
00000300: 1380 cdbc f30d a1ba b591 29bd 57cd 8c3b
00000310: 2d2b 973c cf28 4dbd b4e5 afbc 4b00 613c
00000320: 2b2a b2bc 1cce 5a3d bdf6 f63c 9d93 2abd
00000330: 5052 1f3d dae6 62bd 31aa d83b 096c 69bc
00000340: a3e8 5b3c 6bb3 063d f0a4 b5bb f4b0 14bd
00000350: 0461 163c def4 9bbc b947 ee3c 71c3 3bbd
00000360: 6675 9fbc f77c 4dbd 8c0d 1abd be1e cabc
00000370: 725d 2bbd 1465 2fbd a315 bebc 969f 1abd
00000380: b22a 21bd 1eeb 16bc fb2b 3cbd 2465 6e3c
00000390: 1b65 963c f336 f73c a09b 1d3b b382 84bc
000003a0: 31bb a1bc 47c5 08bd 88e1 9d3c dde6 5d3c
000003b0: b9b6 ad3c 7ffd a7bc b8de 30bd ae15 683b
000003c0: 602a e83c 7e45 9bbc 371b ce3c c509 a83c
000003d0: f268 8c3b 87c2 c4bc ad5e ddbc 7f0b a2bc
000003e0: f52b 76bc 98c3 acbc 05d2 65bd 6f20 30bd
000003f0: 11df d5bc ecda bf3c 913e eb3b e15e 5abd
0.04987891 -0.03262129 0.008239684 -0.033455428 -0.025757603 -0.010865165 0.03301965 -0.0021608896
-0.05111461 -0.03276089 -0.030015195 0.022771547 0.008078692 0.035316817 -0.048650593 -0.05247285
0.03054036 0.0426017 -0.031300776 -0.007967872 0.02141929 0.02955741 -0.04842442 -0.034277253
0.006027022 0.023171386 -0.0037315318 -0.014581067 -0.009797736 0.029822087 -0.024163758 0.032466438
-0.021006493 0.015986716 -0.031451743 0.041149408 -0.013783645 0.014756021 -0.017001122 0.015865676
-0.010554678 -0.011669067 -0.008087716 0.039950423 0.018052613 7.3111e-05 0.05017332 0.020700345
-0.0029870474 0.009518123 -0.0060608243 -0.0063731056 -0.0024982272 0.022591779 -0.028855287 -0.023789981
0.042389542 0.0007953173 0.010122555 0.027668359 -0.032368902 0.020397184 -0.021918235 -0.006206178
-0.019372422 0.030321112 -0.044061467 0.039862048 0.005823918 -0.028423822 -0.0032617843 0.029189065
0.056372423 0.024057005 0.016492866 -0.026735073 -0.023269193 -0.03755078 -0.021016415 0.019716416
-0.0031214969 0.02212048 -0.0067549264 -0.030433146 -0.011877336 -0.03188263 -0.0018803644 -0.022602543
0.046857297 0.008065959 -0.013668797 -0.00025520998 -0.028729845 0.044583444 -0.031941082 0.002019752
0.015565612 0.010656222 -0.025153704 0.010784209 0.023977334 -0.01737953 0.04195628 -0.028254693
-0.012809753 -0.015343951 -0.016517464 0.004489985 0.0211192 -0.04462575 0.012159295 -0.0006767805
0.026199007 0.0125905555 -0.021650635 -0.01810629 -0.041978877 -0.0017254861 0.023972254 0.003965798
0.025103688 0.029773174 0.020457478 0.0016904422 -0.02729379 -0.021323267 0.050509494 0.051744565
-0.0035056036 0.04997316 0.049888838 -0.027385373 -0.056588016 -0.03398363 -0.01617826 0.029768808
0.0075075603 0.017255768 -0.03391755 0.018865148 -0.0011855547 -0.043893956 -0.045381464 0.0045081032
0.03093331 -0.041881528 -0.0061934995 -0.055119768 0.018214127 0.001796704 -0.023040777 0.036225047
0.031331778 0.042892326 -0.006702913 0.012044911 0.010461241 0.0049280385 -0.049981568 -0.005770565
0.03983428 -0.010799245 0.047050767 0.0029567801 0.055496287 -0.015162119 0.044020645 -0.008499157
0.043991186 0.036932573 0.030096397 0.02509388 0.038981557 -0.0064941533 -0.002998454 0.024077645
-0.020703468 0.014409178 0.030778337 -0.029748125 0.0091147 -0.009270282 -0.024598628 0.047406953
-0.009522435 -0.03541509 -0.004253724 0.019761343 0.04423941 -0.003213806 0.05163739 -0.03159573
-0.025085485 -0.0012287482 -0.041398723 0.0042969394 0.018453205 -0.050087746 -0.021471836 0.01373298
-0.021748623 0.053419217 0.03014695 -0.04164468 0.03889686 -0.05539594 0.0066120853 -0.014246949
0.013422164 0.03288595 -0.0055433437 -0.03630157 0.009178404 -0.01903766 0.029086934 -0.045840684
-0.01946516 -0.050168004 -0.037610576 -0.024672862 -0.041837163 -0.042821005 -0.023203677 -0.03774985
-0.039347358 -0.00921133 -0.04594038 0.014550481 0.018358758 0.030177569 0.0024049059 -0.016175603
-0.01974258 -0.033391263 0.01927258 0.013543812 0.021205293 -0.020506619 -0.04318115 0.0035413313
0.028340518 -0.018954035 0.025159461 0.020512471 0.0042849714 -0.02401854 -0.027022684 -0.019780872
-0.015025129 -0.02108936 -0.056108493 -0.04299968 -0.026107343 0.02341982 0.0071790894 -0.05331314

digit_classifier1.fc1.bias f4 [32]
00000000: 84a7 8bbc 40c2 d53c 99ff d2bc 82f9 333c
00000010: 314e 023c a5d8 b73c bde6 6c3c 3cba d23c
00000020: adcb 963c abde 4e3c 4ee7 0a3d b668 02bd
00000030: 39f1 32bd 57a6 bdbb 8db2 113d 883c f53c
00000040: 5788 063c 2eb5 953c 3ca0 84bc 27b4 843a
00000050: 7c3d e2bc 7c0c cf3b 6226 95bc 936b 373d
00000060: 1807 293d dfb6 22bd 7e97 463c 5955 383c
00000070: f234 053d dfa3 a33c faf5 f8bb 6b55 f9ba
-0.017047651 0.026093602 -0.025756644 0.01098478 0.007953213 0.022442171 0.014459309 0.02572357
0.018407667 0.01262633 0.033911996 -0.03183814 -0.04368708 -0.0057876515 0.03557067 0.02993609
0.008211217 0.01827487 -0.016189687 0.001012449 -0.027617209 0.006318627 -0.018206779 0.044780325
0.04126653 -0.03972518 0.0121210795 0.011250817 0.032521196 0.0199756 -0.007597682 -0.0019022649

digit_classifier1.fc2.weight f4 [10, 32]
00000000: 3433 19be 9024 49be 99bd 20be 81f3 b3bd
00000010: d1a8 363d 1940 173e 076b 34bd 8afe 443e
00000020: 4db9 e13d 0735 ae3d 6f6e cc3d 93ea 88bc
00000030: 5efe 30bd 89cf 44bd 1e9f 37be d5ac 34bd
00000040: 69d5 c8bd 762a 1fbe 3bcd f8bd 9ca0 253e
00000050: d11f ac3c aed7 1f3e f050 0a3e 1cb8 9b3d
00000060: 5b55 10be f88a 58bd e9bc c53d ae59 033d
00000070: b421 08be 5b94 493e aa68 213e feb7 d83d
00000080: a8d0 c3bd 1ee6 e93d cbae 083e a0cd e93d
00000090: 2115 a1bd 7f27 cb3c bdf6 01be 92aa a4bd
000000a0: ea2c f4bd 484b 263e dd03 1dbe 795d 4c3d
000000b0: 71a2 e33c 59af f43a ae77 983d 51a9 efbd
000000c0: de59 c83d 43b7 213e f19f 20be a31b e13d
000000d0: 43c4 0abc acca 413d 78b8 22bd 8813 683d
000000e0: fe23 0a3e 08be 48bd 16a4 30be 883f bbbc
000000f0: 678a 133e 28d7 46be ab61 193e 2c27 00bc
00000100: 6709 c3bd d76f a73c 9f33 b83d c227 4ebe
00000110: 68e2 0abe beb9 20be 8480 f13d 495d 3cbe
00000120: 49ac 053e 7aba eb3d 562a 853d d1b1 193e
00000130: c361 d7bc 422b 92bc b940 b83d 65a5 09be
00000140: 8cfd 2c3e 825a 57bd 1d8d 20be dae6 963d
00000150: a4b0 afbd 75b4 1d3e ad14 11bd f7de 1c3e
00000160: fd5b 61bd dfb1 f1bd cd06 76bb d26e 14bd
00000170: c123 8f3d 12c6 833d e8b6 69bd a387 49be
00000180: cf76 3ebe 79e2 123e 02a9 793c a4a1 f5bc
00000190: 6187 f83d b4b9 f43b 3691 863c 3fa6 0bbe
000001a0: 93cf 19be 4843 38be f488 0cbd e81b fbbc
000001b0: 6949 04be ec89 d13d 0417 38bd e16b 463d
000001c0: 30fc acbd 31a0 c2bd d484 d2bd cca3 8bbd
000001d0: d28d 70bd 93a6 00be 6ef9 143e d414 da3d
000001e0: 22f4 123e 0c5f 1a3e 3dc5 bbbd cbcb 883d
000001f0: 993a cbbd 4eef 0f3e a81b a9bd b867 1fbe
00000200: 8f0c cbbd 3ec3 b5bc a471 28be 6e54 5cbb
00000210: 197b 3ebc b1e0 3abe 536e 093e 3a65 a1bd
00000220: 7d74 153e 3073 1bbd d6cb bd3d fa97 273e
00000230: 3669 0cbe 649f 963d 7974 d03d 4eca 0c3c
00000240: fae5 41be 551f 9bbd 3cbf 083d a3b9 22be
00000250: 9046 173e 02ec 02be 2fcb acbd 3543 523d
00000260: 1c35 3cbe 8f44 c53d 4be8 d2bc 5aad 493c
00000270: bb9d 37be 0972 34be dfb2 1dbe 03d8 49be
00000280: ece7 1a3e 6d0e b8bd 44b7 803c 1fa4 19bc
00000290: 4fbe cabd 15fb 29be 6e16 1fbe 7ec6 073d
000002a0: 4b33 8bbd 788b 5e3d cb89 c23d 07f7 cebc
000002b0: 5bc2 0bba 5cfc 16bd 29fa 28be 1b83 f33d
000002c0: c55b 2bbe a11c 4bbd 8865 263e 3c19 b4bd
000002d0: e7a3 e53c 5cf0 b03d 2ea8 12be 7d9f af3a
000002e0: 2fc5 c0bd f197 f0bd 045c 40be ee85 c33d
000002f0: 24ee d2bd 03b5 f93d aa16 0f3e a028 b4bc
00000300: 3222 093e 36d1 99bd 211c 9d3d 5a5b 1dbd
00000310: 10f8 05be 852a eebd faaf febd 29ad 8d3c
00000320: 9392 cfbc 3f97 db3d b321 793c de31 53bd
00000330: 6ac8 1ebd 66cb d13d 0cbb 00be 8663 263e
00000340: 9820 23bd 9c5f 653b 6645 1b3e d4d5 30be
00000350: 5549 dd3d afe5 f03d e764 0b3e bbb3 123d
00000360: edae a4bd c50d 07be 744f ce3d 2268 ff3c
00000370: 5c8e d23d d637 a93d 2367 f9bd fd14 b83d
00000380: 21b8 493b e2d1 3ebe 567f efb8 f8f8 e7bd
00000390: b894 9dbd 4fb6 b3bd 23ec 34be d3e6 12be
000003a0: 3ef4 013e 5b93 f6bd 65a9 60bd 5368 14bd
000003b0: c758 003e 3b06 9c3d b2f8 c9bd ac16 60bb
000003c0: 3859 dbbd 9b82 1cbc e3f0 cebd f9f7 02be
000003d0: 3aba 72bd bf1e 23be 84ee b6bd 3a45 123d
000003e0: 9f9e 48bd aa45 1ebe 35e0 12be 7b7c eebd
000003f0: 10be a53d 69e7 15be 0772 1dbd 5933 a13d
-0.14960939 -0.19642854 -0.15697326 -0.08786679 0.04459459 0.14770545 -0.04404738 0.19237724
0.110216714 0.08506208 0.09982001 -0.016713416 -0.043211333 -0.048049483 -0.17931792 -0.044110138
-0.0980633 -0.15543541 -0.121485196 0.16174549 0.021011265 0.15609619 0.13507438 0.076034755
-0.1409506 -0.052866906 0.096551724 0.032067947 -0.13294107 0.196855 0.15762582 0.10581969
-0.095612824 0.114208445 0.13347928 0.11416173 -0.07865358 0.024799107 -0.1269178 -0.08040346
-0.11922629 0.16239655 -0.15333505 0.04989383 0.027787419 0.001866798 0.07444702 -0.117022164
0.09782766 0.15792565 -0.15686013 0.109915994 -0.008469644 0.047312424 -0.039726704 0.05665925
0.13490292 -0.049009353 -0.17250094 -0.022857442 0.14408265 -0.19418013 0.14978664 -0.007821839
-0.09523278 0.020439072 0.08994221 -0.20132354 -0.1356293 -0.15695855 0.117920905 -0.1839496
0.13054003 0.11510177 0.065022156 0.15009238 -0.026291734 -0.017842893 0.0899672 -0.13442
0.16893595 -0.05257655 -0.1567883 0.0736825 -0.085786134 0.1540087 -0.03542011 0.1531943
-0.055019367 -0.11801504 -0.0037540675 -0.0362385 0.069892414 0.06434263 -0.0570592 -0.19680648
-0.1860001 0.14344205 0.0152380485 -0.029984303 0.121351965 0.0074684266 0.016426664 -0.13637637
-0.1502059 -0.17994416 -0.034310296 -0.030652955 -0.12918629 0.10231385 -0.044943824 0.048442725
-0.084465384 -0.0950321 -0.10279241 -0.06818351 -0.058729 -0.12563543 0.14548275 0.10648504
0.14350942 0.1507532 -0.091684796 0.066794954 -0.09923286 0.14056131 -0.08257228 -0.1556691
-0.09914505 -0.022187825 -0.164496 -0.003361966 -0.011626028 -0.18249775 0.13420992 -0.078806356
0.14595218 -0.03795165 0.09267394 0.16366568 -0.1371201 0.0735462 0.101784654 0.008593155
-0.18935385 -0.075743355 0.0333855 -0.15891127 0.14773011 -0.12785342 -0.08437192 0.051333625
-0.18379635 0.09632217 -0.025745532 0.012309397 -0.17931263 -0.17621626 -0.15400265 -0.19711308
0.15127534 -0.089871265 0.015712388 -0.009377508 -0.0989958 -0.16599686 -0.155359 0.03314828
-0.06796893 0.054332227 0.09498938 -0.025264276 -0.00053313904 -0.036861762 -0.16501679 0.11890241
-0.16734226 -0.04958785 0.16249669 -0.087938756 0.028032256 0.08639595 -0.14321968 0.0013398972
-0.0941261 -0.117477305 -0.18785101 0.095470294 -0.10299328 0.12192728 0.1397349 -0.021992028
0.1339195 -0.07510607 0.07671381 -0.038417198 -0.1308291 -0.11629204 -0.124359086 0.017294483
-0.025338447 0.10722207 0.015205788 -0.05156123 -0.03876535 0.10243873 -0.12571353 0.16248903
-0.039826006 0.0034999615 0.15163192 -0.17269069 0.108050026 0.11762559 0.1361271 0.035815936
-0.08041177 -0.13188846 0.10073748 0.031177584 0.10281059 0.08262603 -0.12177875 0.08988378
0.0030779915 -0.18634751 -0.00011420126 -0.11326784 -0.076943815 -0.08775007 -0.17668204 -0.14345865
0.12690827 -0.120398246 -0.054849047 -0.036232304 0.12533866 0.07618376 -0.09861888 -0.00341932
-0.107103765 -0.009552623 -0.10104539 -0.12789907 -0.05925963 -0.15929697 -0.08932212 0.03571055
-0.048979398 -0.15456262 -0.1434334 -0.116448365 0.08092892 -0.14639057 -0.038438823 0.07871122

digit_classifier1.fc2.bias f4 [10]
00000000: 0a91 093e 496f 8ebc b3ff 91bc 5396 03be
00000010: c07f 093d 8335 df3d e95b 18bd 3f66 10be
00000020: cd63 163e d460 473d
0.13434234 -0.01738705 -0.017822122 -0.12850313 0.033569098 0.108988784 -0.037197027 -0.14101504
0.14686508 0.048676327

digit_classifier2.fc1.weight f4 [32, 480]
00000000: 544c c73c 7d24 e53b 07fb f23c 13f1 1bbd
00000010: dfce 1b3d bc06 483d c4de 313d 69a3 383c
00000020: b1eb dcbb 686e 493b 4bb5 64bd 95ef ac3c
00000030: ca7a 8c3c d62b 35bd 813d b53c ab2d 90bc
00000040: 163d 213c 9757 8fbd 87e6 10bc f7de 36bc
00000050: 4b00 babc b4da 4e3c 5c4e e43c a747 293d
00000060: 54d2 12bc 9a6e 273d 74f3 093d e6f4 253c
00000070: f719 b93c 2011 70bd 9642 2e3d 9a3c 0d3d
00000080: 8600 da3b 70eb 153c 9170 b23c 3a69 973d
00000090: 5184 50bd da91 4abd bda8 ebbc aa38 c4bc
000000a0: 5ae2 ee3c 9cc6 e23c 4bc6 74bb fa59 9c3b
000000b0: 5520 35bd f65f 75bd a54e 043c 2a65 4e3d
000000c0: 9e58 3bbd 1332 1fbd ea5a 00bd 8957 bb3c
000000d0: 0d12 cf3b 010d 59bc 9a48 20bb 59bb 66bd
000000e0: c540 ef3b fee8 e2bc d69c 133c 10f4 5f3c
000000f0: a39a 443d 2f49 d1bc 01cd d73c 98f4 89bc
00000100: d9cd 803c 6a92 023c 1fce 743b ce95 c1bc
00000110: f61c bebc 1f58 8ebc 84c7 19bc 21c2 04bb
00000120: 7e11 babc 5b38 823d 646f 5ebd e68a 8ebb
00000130: ce7f 25bb efa8 d63b ab89 10bd a181 1b3b
00000140: 4fdb 743c bf9e 52bc 4378 173c 4c0a 1bbd
00000150: 14b2 9b3b e004 913c 5523 773c 0058 473d
00000160: a930 383d 8f4d 27bc 7def 213d 374f 94bd
00000170: 8f74 7d3c 95a2 36bd fbc8 8dbd f03c 8e3b
00000180: f09c 5c3d 9112 2abd 0585 09bd 0a8a 843b
00000190: f017 60bd e761 2bbd 75b6 893b 6ec3 6e3d
000001a0: 5b81 7dbb 0a56 02bc a970 663c 924e 5dbc
000001b0: 36bd dc3c b3ac 2a3d 826b 18bc a0ff c4bb
000001c0: e5e4 5dbd 314a 713d 914e 833d 33c7 653d
000001d0: 973f 323c bc54 263d c7a4 0d3d 672b 763b
000001e0: a2ce fc3c cd29 35bd 25d6 f83a 5f13 ff3b
000001f0: 638e 84bc 3392 dd3c 43d7 86bc df9a 24bc
00000200: be69 09bb 5639 fb3c 9912 7d3c 83e2 373d
00000210: 4ede 3cbd 92b9 13bd acab 283c 022a 69bd
00000220: 8036 adbd f7a3 cd3c acae 91bd b0b6 27bd
00000230: 65ad 4a3d 0af3 75bd 37f7 0dbc b4d4 6bbd
00000240: 7d6c 403d 3bf7 7d3d 7db3 68bd 8119 433d
00000250: 5b33 9bbc dade 79bc e643 0dbd e3a6 e73c
00000260: b900 53bd 0409 1e3d a6d0 8dbd fe29 1b3c
00000270: 783c 96bc ba85 6cbd 668e 843d 93b1 993c
00000280: b480 3b3d 60b2 67bd a05c 173d a8ed 093d
00000290: f562 0cbd 8900 9dbc 8d8a 0a3d 75b5 133b
000002a0: f889 6f3a 80f7 85ba a4d6 00bc 214c b1bc
000002b0: dbb7 56bb ce1b 9c3c f3aa 1ebd 51bb 383d
000002c0: f5b2 25bd cd6a c93c 8f65 493c e55c 03bb
000002d0: 8963 473d aa4c 42bc db07 3a3d c43d 7d3a
000002e0: c613 193d b4c1 893d f9c0 1fbd 7d3e 243d
000002f0: 9aa7 063d bc76 3cbc 35b2 32bd 1676 15bd
00000300: 71f4 0c3d f7d6 a3bb 89fc eebc 0bc0 2a3d
00000310: 87ef 05bd dd0b 2b3d 55f3 a0bd 268d 483d
00000320: d64e 883c d427 89bd 9b41 85bc 12df 743c
00000330: eb92 31bd 2810 19bd e647 45bb e9cd ed3c
00000340: 8209 52bc c1bd 78bc 3276 043c 4271 1eba
00000350: f966 763d 6c72 13bc 6a51 05bd 7b2e 51bb
00000360: 1a7a 813b d67a 213d 14cc 50bd e4f4 ce3b
00000370: ce62 f1bb 021c cc3c 326a 63bc c7bd aa3c
00000380: ce32 ebbc 1b7c abbc 0340 3f3c b128 2b3c
00000390: c71b f0bc 4bd3 c53c 8227 26bd 14c3 fe3c
000003a0: f754 263d bc93 813d d5d2 74bd 9f81 6ebd
000003b0: 8898 943d 1a90 4fbd 26cc 06bd 5fd1 c0bc
000003c0: 2e79 31bd 2b4f 7c3d 3748 173a 27a5 23bd
000003d0: cae4 153c def3 d03c 21c3 173d 341e 033d
000003e0: 58e4 5e3d 2370 e03c 3619 7ebc dca8 89bb
000003f0: 0310 9d3b 9519 57bd 4009 a53c ea0d 383b
0.024328388 0.006992875 0.029660715 -0.038071703 0.038039085 0.048834547 0.043425336 0.011269429
-0.006741964 0.0030735973 -0.055836957 0.021110335 0.017148394 -0.04423126 0.022124054 -0.017599901
0.009841224 -0.06999128 -0.0088440245 -0.011161557 -0.022705218 0.012625385 0.027869396 0.0413281
-0.008961279 0.040876962 0.03367944 0.010129189 0.022595389 -0.05861008 0.04254397 0.034481622
0.0066528944 0.009150371 0.021782191 0.07393117 -0.050907437 -0.0494555 -0.028766984 -0.0239528
0.029160667 0.027682595 -0.0037349637 0.004771468 -0.044220287 -0.05990597 0.008075391 0.050389446
-0.04573881 -0.038866114 -0.031336702 0.022868888 0.0063192905 -0.013247729 -0.0024457336 -0.056331012
0.0073014223 -0.02769899 0.009009561 0.013669029 0.047999036 -0.025547592 0.02634287 -0.016840264
0.015723156 0.007969478 0.0037354303 -0.023631003 -0.023207169 -0.017376004 -0.009385947 -0.0020257311
-0.022713419 0.06358405 -0.05430545 -0.004350054 -0.002525318 0.0065509 -0.03528754 0.0023728388
0.014944865 -0.012855231 0.009244981 -0.037851617 0.004751453 0.01770252 0.015084107 0.048667908
0.04496828 -0.0102113625 0.039535034 -0.072416715 0.015469684 -0.044588644 -0.069230996 0.0043407604
0.053860605 -0.041521613 -0.033574123 0.004044776 -0.05471033 -0.041841414 0.004202659 0.058291845
-0.0038681838 -0.007955084 0.014064946 -0.013507502 0.026945692 0.041668605 -0.009302976 -0.006011918
-0.05417337 0.058908645 0.0641147 0.056098174 0.010879419 0.040608153 0.034580972 0.003756249
0.030860249 -0.044229317 0.0018984718 0.0077842916 -0.016181177 0.027047252 -0.016460067 -0.01004669
-0.0020967568 0.030666988 0.015446329 0.044893753 -0.046110444 -0.036065646 0.010294836 -0.056924827
-0.08457661 0.025102599 -0.07113394 -0.04094571 0.04948177 -0.060046233 -0.008664898 -0.057575896
0.046978462 0.062003355 -0.0568118 0.047631744 -0.018945387 -0.015250886 -0.03448858 0.02827782
-0.05151436 0.038582817 -0.06924562 0.009470461 -0.01833938 -0.05774472 0.06472473 0.018761432
0.045777038 -0.056566596 0.03695357 0.033673912 -0.03427406 -0.019165294 0.03382354 0.0022538577
0.00091376854 -0.0010220855 -0.007863674 -0.021642746 -0.0032763395 0.019056227 -0.03873725 0.045100514
-0.04045387 0.02458706 0.01229228 -0.0020044383 0.04867891 -0.011859098 0.045417648 0.0009660388
0.037372373 0.06726399 -0.039002392 0.040098656 0.03287468 -0.011502918 -0.043626983 -0.03648957
0.034412805 -0.004999991 -0.029173153 0.041687053 -0.032699134 0.04175936 -0.07858912 0.048962735
0.016639154 -0.0669705 -0.016266635 0.014945762 -0.043353003 -0.037368923 -0.003010267 0.02902885
-0.01281965 -0.01518196 0.008084821 -0.00060440984 0.060156796 -0.008999448 -0.032548346 -0.0031918574
0.003951323 0.039423786 -0.050975874 0.0063158143 -0.0073665148 0.024915699 -0.013880299 0.020842446
-0.028710749 -0.020933202 0.011672976 0.010446713 -0.02931012 0.024148604 -0.04056502 0.03109888
0.040608373 0.06327006 -0.059771378 -0.058229085 0.072556555 -0.050674535 -0.032909535 -0.023537336
-0.043328457 0.061598938 0.0005770954 -0.039952423 0.009148786 0.02550691 0.037051324 0.032011226
0.054416984 0.027397221 -0.01550894 -0.004201038 0.0047931685 -0.05251463 0.020146012 0.0028084465

digit_classifier2.fc1.bias f4 [32]
00000000: df2f 473d 7146 c13c 01c7 5bbc 3114 263d
00000010: b309 14bd 0d0a 763c 6f55 dbbc c810 d03b
00000020: fe9a 53bc 1c2d e83c 62c9 10bd 27e8 1ebc
00000030: 234f 083d cea3 e6bc 3b63 d03c ccba 643d
00000040: 7b56 44bd ef2b 12bd c491 673c c83d fabb
00000050: c465 c33c ecd7 a23c d716 3cbd affd 3d3d
00000060: ae2d 7e3b 0b1c 7c3c 7062 d2bc cedf 363c
00000070: a260 8f3c 7680 823c e962 a9bc 1183 0bbd
0.048629638 0.02359316 -0.013414145 0.0405466 -0.036142062 0.015017045 -0.026774136 0.0063496567
-0.012915371 0.028341822 -0.035348304 -0.009698904 0.033278596 -0.02815428 0.025437942 0.055842206
-0.047934037 -0.03568643 0.014133874 -0.0076367594 0.023852237 0.01987835 -0.04592022 0.04638451
0.0038784551 0.015387545 -0.025681704 0.011161758 0.017502133 0.015930396 -0.020677047 -0.03406054
